<?xml version="1.0"?>
<net name="saved_model" version="11">
	<layers>
		<layer id="0" name="input_tensor" type="Parameter" version="opset1">
			<data shape="1,640,640,3" element_type="u8" />
			<rt_info>
				<attribute name="fused_names" version="0" value="input_tensor" />
				<attribute name="old_api_map_element_type" version="0" value="f32" />
				<attribute name="old_api_map_order" version="0" value="0, 2, 3, 1" />
			</rt_info>
			<output>
				<port id="0" precision="U8" names="Func/StatefulPartitionedCall/input/_0:0,input_tensor,input_tensor:0">
					<dim>1</dim>
					<dim>640</dim>
					<dim>640</dim>
					<dim>3</dim>
				</port>
			</output>
		</layer>
		<layer id="1" name="Convert_2599" type="Convert" version="opset1">
			<data destination_type="f32" />
			<rt_info>
				<attribute name="fused_names" version="0" value="3678, input_tensor/Transpose([0 3 1 2])" />
			</rt_info>
			<input>
				<port id="0" precision="U8">
					<dim>1</dim>
					<dim>640</dim>
					<dim>640</dim>
					<dim>3</dim>
				</port>
			</input>
			<output>
				<port id="1" precision="FP32">
					<dim>1</dim>
					<dim>640</dim>
					<dim>640</dim>
					<dim>3</dim>
				</port>
			</output>
		</layer>
		<layer id="2" name="input_tensor/Transpose([0 3 1 2])/value6613382195940" type="Const" version="opset1">
			<data element_type="i64" shape="4" offset="0" size="32" />
			<rt_info>
				<attribute name="fused_names" version="0" value="input_tensor/Transpose([0 3 1 2])/value6613382195" />
			</rt_info>
			<output>
				<port id="0" precision="I64">
					<dim>4</dim>
				</port>
			</output>
		</layer>
		<layer id="3" name="3678" type="Transpose" version="opset1">
			<rt_info>
				<attribute name="fused_names" version="0" value="3678, input_tensor/Transpose([0 3 1 2])" />
			</rt_info>
			<input>
				<port id="0" precision="FP32">
					<dim>1</dim>
					<dim>640</dim>
					<dim>640</dim>
					<dim>3</dim>
				</port>
				<port id="1" precision="I64">
					<dim>4</dim>
				</port>
			</input>
			<output>
				<port id="2" precision="FP32">
					<dim>1</dim>
					<dim>3</dim>
					<dim>640</dim>
					<dim>640</dim>
				</port>
			</output>
		</layer>
		<layer id="4" name="3679_input_port_1/value94322456" type="Const" version="opset1">
			<data element_type="f16" shape="1, 3, 1, 1" offset="32" size="6" />
			<output>
				<port id="0" precision="FP16">
					<dim>1</dim>
					<dim>3</dim>
					<dim>1</dim>
					<dim>1</dim>
				</port>
			</output>
		</layer>
		<layer id="5" name="3679_input_port_1/value94312581/restored_convert" type="Convert" version="opset1">
			<data destination_type="f32" />
			<rt_info>
				<attribute name="decompression" version="0" />
				<attribute name="fused_names" version="0" value="3679_input_port_1/value" />
			</rt_info>
			<input>
				<port id="0" precision="FP16">
					<dim>1</dim>
					<dim>3</dim>
					<dim>1</dim>
					<dim>1</dim>
				</port>
			</input>
			<output>
				<port id="1" precision="FP32">
					<dim>1</dim>
					<dim>3</dim>
					<dim>1</dim>
					<dim>1</dim>
				</port>
			</output>
		</layer>
		<layer id="6" name="3679" type="Add" version="opset1">
			<data auto_broadcast="numpy" />
			<rt_info>
				<attribute name="fused_names" version="0" value="3679" />
			</rt_info>
			<input>
				<port id="0" precision="FP32">
					<dim>1</dim>
					<dim>3</dim>
					<dim>640</dim>
					<dim>640</dim>
				</port>
				<port id="1" precision="FP32">
					<dim>1</dim>
					<dim>3</dim>
					<dim>1</dim>
					<dim>1</dim>
				</port>
			</input>
			<output>
				<port id="2" precision="FP32" names="StatefulPartitionedCall/map/TensorArrayV2Stack/TensorListStack:0">
					<dim>1</dim>
					<dim>3</dim>
					<dim>640</dim>
					<dim>640</dim>
				</port>
			</output>
		</layer>
		<layer id="7" name="4381438521937" type="Const" version="opset1">
			<data element_type="f32" shape="" offset="38" size="4" />
			<output>
				<port id="0" precision="FP32" />
			</output>
		</layer>
		<layer id="8" name="4382438621655" type="Const" version="opset1">
			<data element_type="f32" shape="" offset="42" size="4" />
			<output>
				<port id="0" precision="FP32" />
			</output>
		</layer>
		<layer id="9" name="4383438722849" type="Const" version="opset1">
			<data element_type="f32" shape="" offset="38" size="4" />
			<output>
				<port id="0" precision="FP32" />
			</output>
		</layer>
		<layer id="10" name="4384438822567" type="Const" version="opset1">
			<data element_type="f32" shape="" offset="42" size="4" />
			<output>
				<port id="0" precision="FP32" />
			</output>
		</layer>
		<layer id="11" name="StatefulPartitionedCall/ResNet50V1_FPN/model/conv1_conv/Conv2D/fq_input_0" type="FakeQuantize" version="opset1">
			<data levels="256" auto_broadcast="numpy" />
			<input>
				<port id="0" precision="FP32">
					<dim>1</dim>
					<dim>3</dim>
					<dim>640</dim>
					<dim>640</dim>
				</port>
				<port id="1" precision="FP32" />
				<port id="2" precision="FP32" />
				<port id="3" precision="FP32" />
				<port id="4" precision="FP32" />
			</input>
			<output>
				<port id="5" precision="FP32">
					<dim>1</dim>
					<dim>3</dim>
					<dim>640</dim>
					<dim>640</dim>
				</port>
			</output>
		</layer>
		<layer id="12" name="StatefulPartitionedCall/ResNet50V1_FPN/model/conv1_bn/FusedBatchNormV3/mean/Fused_Mul__copy94612582/restored_convert/quantized1556724115" type="Const" version="opset1">
			<data element_type="i8" shape="64, 3, 7, 7" offset="46" size="9408" />
			<output>
				<port id="0" precision="I8">
					<dim>64</dim>
					<dim>3</dim>
					<dim>7</dim>
					<dim>7</dim>
				</port>
			</output>
		</layer>
		<layer id="13" name="StatefulPartitionedCall/ResNet50V1_FPN/model/conv1_bn/FusedBatchNormV3/mean/Fused_Mul__copy94612582/restored_convert/quantized/to_f32" type="Convert" version="opset1">
			<data destination_type="f32" />
			<input>
				<port id="0" precision="I8">
					<dim>64</dim>
					<dim>3</dim>
					<dim>7</dim>
					<dim>7</dim>
				</port>
			</input>
			<output>
				<port id="1" precision="FP32">
					<dim>64</dim>
					<dim>3</dim>
					<dim>7</dim>
					<dim>7</dim>
				</port>
			</output>
		</layer>
		<layer id="14" name="StatefulPartitionedCall/ResNet50V1_FPN/model/conv1_conv/Conv2D/fq_weights_1/zero_point1558623575" type="Const" version="opset1">
			<data element_type="f32" shape="64, 1, 1, 1" offset="9454" size="256" />
			<output>
				<port id="0" precision="FP32">
					<dim>64</dim>
					<dim>1</dim>
					<dim>1</dim>
					<dim>1</dim>
				</port>
			</output>
		</layer>
		<layer id="15" name="StatefulPartitionedCall/ResNet50V1_FPN/model/conv1_conv/Conv2D/fq_weights_1/minus_zp" type="Subtract" version="opset1">
			<data auto_broadcast="numpy" />
			<input>
				<port id="0" precision="FP32">
					<dim>64</dim>
					<dim>3</dim>
					<dim>7</dim>
					<dim>7</dim>
				</port>
				<port id="1" precision="FP32">
					<dim>64</dim>
					<dim>1</dim>
					<dim>1</dim>
					<dim>1</dim>
				</port>
			</input>
			<output>
				<port id="2" precision="FP32">
					<dim>64</dim>
					<dim>3</dim>
					<dim>7</dim>
					<dim>7</dim>
				</port>
			</output>
		</layer>
		<layer id="16" name="StatefulPartitionedCall/ResNet50V1_FPN/model/conv1_conv/Conv2D/fq_weights_1/scale1557523857" type="Const" version="opset1">
			<data element_type="f32" shape="64, 1, 1, 1" offset="9710" size="256" />
			<output>
				<port id="0" precision="FP32">
					<dim>64</dim>
					<dim>1</dim>
					<dim>1</dim>
					<dim>1</dim>
				</port>
			</output>
		</layer>
		<layer id="17" name="StatefulPartitionedCall/ResNet50V1_FPN/model/conv1_conv/Conv2D/fq_weights_1/mulpiply_by_scale" type="Multiply" version="opset1">
			<data auto_broadcast="numpy" />
			<input>
				<port id="0" precision="FP32">
					<dim>64</dim>
					<dim>3</dim>
					<dim>7</dim>
					<dim>7</dim>
				</port>
				<port id="1" precision="FP32">
					<dim>64</dim>
					<dim>1</dim>
					<dim>1</dim>
					<dim>1</dim>
				</port>
			</input>
			<output>
				<port id="2" precision="FP32">
					<dim>64</dim>
					<dim>3</dim>
					<dim>7</dim>
					<dim>7</dim>
				</port>
			</output>
		</layer>
		<layer id="18" name="StatefulPartitionedCall/ResNet50V1_FPN/model/conv1_conv/Conv2D" type="Convolution" version="opset1">
			<data strides="2, 2" dilations="1, 1" pads_begin="3, 3" pads_end="3, 3" auto_pad="explicit" />
			<rt_info>
				<attribute name="fused_names" version="0" value="StatefulPartitionedCall/ResNet50V1_FPN/model/conv1_conv/Conv2D, StatefulPartitionedCall/ResNet50V1_FPN/model/lambda/Pad" />
			</rt_info>
			<input>
				<port id="0" precision="FP32">
					<dim>1</dim>
					<dim>3</dim>
					<dim>640</dim>
					<dim>640</dim>
				</port>
				<port id="1" precision="FP32">
					<dim>64</dim>
					<dim>3</dim>
					<dim>7</dim>
					<dim>7</dim>
				</port>
			</input>
			<output>
				<port id="2" precision="FP32">
					<dim>1</dim>
					<dim>64</dim>
					<dim>320</dim>
					<dim>320</dim>
				</port>
			</output>
		</layer>
		<layer id="19" name="data_add_4942094923131" type="Const" version="opset1">
			<data element_type="f16" shape="1, 64, 1, 1" offset="9966" size="128" />
			<output>
				<port id="0" precision="FP16">
					<dim>1</dim>
					<dim>64</dim>
					<dim>1</dim>
					<dim>1</dim>
				</port>
			</output>
		</layer>
		<layer id="20" name="data_add_4942094912583/restored_convert" type="Convert" version="opset1">
			<data destination_type="f32" />
			<rt_info>
				<attribute name="decompression" version="0" />
				<attribute name="fused_names" version="0" value="data_add_49420" />
			</rt_info>
			<input>
				<port id="0" precision="FP16">
					<dim>1</dim>
					<dim>64</dim>
					<dim>1</dim>
					<dim>1</dim>
				</port>
			</input>
			<output>
				<port id="1" precision="FP32">
					<dim>1</dim>
					<dim>64</dim>
					<dim>1</dim>
					<dim>1</dim>
				</port>
			</output>
		</layer>
		<layer id="21" name="StatefulPartitionedCall/ResNet50V1_FPN/model/conv1_bn/FusedBatchNormV3/variance/Fused_Add_" type="Add" version="opset1">
			<data auto_broadcast="numpy" />
			<rt_info>
				<attribute name="fused_names" version="0" value="StatefulPartitionedCall/ResNet50V1_FPN/model/conv1_bn/FusedBatchNormV3/variance/Fused_Add_" />
			</rt_info>
			<input>
				<port id="0" precision="FP32">
					<dim>1</dim>
					<dim>64</dim>
					<dim>320</dim>
					<dim>320</dim>
				</port>
				<port id="1" precision="FP32">
					<dim>1</dim>
					<dim>64</dim>
					<dim>1</dim>
					<dim>1</dim>
				</port>
			</input>
			<output>
				<port id="2" precision="FP32" names="StatefulPartitionedCall/ResNet50V1_FPN/model/conv1_bn/FusedBatchNormV3:0">
					<dim>1</dim>
					<dim>64</dim>
					<dim>320</dim>
					<dim>320</dim>
				</port>
			</output>
		</layer>
		<layer id="22" name="StatefulPartitionedCall/ResNet50V1_FPN/model/conv1_relu/Relu6" type="Clamp" version="opset1">
			<data min="0" max="6" />
			<rt_info>
				<attribute name="fused_names" version="0" value="StatefulPartitionedCall/ResNet50V1_FPN/model/conv1_relu/Relu6" />
			</rt_info>
			<input>
				<port id="0" precision="FP32">
					<dim>1</dim>
					<dim>64</dim>
					<dim>320</dim>
					<dim>320</dim>
				</port>
			</input>
			<output>
				<port id="1" precision="FP32" names="StatefulPartitionedCall/ResNet50V1_FPN/model/conv1_relu/Relu6:0">
					<dim>1</dim>
					<dim>64</dim>
					<dim>320</dim>
					<dim>320</dim>
				</port>
			</output>
		</layer>
		<layer id="23" name="7601760522021" type="Const" version="opset1">
			<data element_type="f32" shape="" offset="10094" size="4" />
			<output>
				<port id="0" precision="FP32" />
			</output>
		</layer>
		<layer id="24" name="7602760623998" type="Const" version="opset1">
			<data element_type="f32" shape="" offset="10098" size="4" />
			<output>
				<port id="0" precision="FP32" />
			</output>
		</layer>
		<layer id="25" name="7603760723812" type="Const" version="opset1">
			<data element_type="f32" shape="" offset="10094" size="4" />
			<output>
				<port id="0" precision="FP32" />
			</output>
		</layer>
		<layer id="26" name="7604760824328" type="Const" version="opset1">
			<data element_type="f32" shape="" offset="10098" size="4" />
			<output>
				<port id="0" precision="FP32" />
			</output>
		</layer>
		<layer id="27" name="StatefulPartitionedCall/ResNet50V1_FPN/model/pool1_pool/MaxPool/fq_input_0" type="FakeQuantize" version="opset1">
			<data levels="256" auto_broadcast="numpy" />
			<input>
				<port id="0" precision="FP32">
					<dim>1</dim>
					<dim>64</dim>
					<dim>320</dim>
					<dim>320</dim>
				</port>
				<port id="1" precision="FP32" />
				<port id="2" precision="FP32" />
				<port id="3" precision="FP32" />
				<port id="4" precision="FP32" />
			</input>
			<output>
				<port id="5" precision="FP32">
					<dim>1</dim>
					<dim>64</dim>
					<dim>320</dim>
					<dim>320</dim>
				</port>
			</output>
		</layer>
		<layer id="28" name="StatefulPartitionedCall/ResNet50V1_FPN/model/pool1_pool/MaxPool" type="MaxPool" version="opset8">
			<data strides="2, 2" dilations="1, 1" pads_begin="0, 0" pads_end="0, 0" kernel="3, 3" rounding_type="floor" auto_pad="same_upper" index_element_type="i64" axis="0" />
			<rt_info>
				<attribute name="fused_names" version="0" value="StatefulPartitionedCall/ResNet50V1_FPN/model/pool1_pool/MaxPool" />
			</rt_info>
			<input>
				<port id="0" precision="FP32">
					<dim>1</dim>
					<dim>64</dim>
					<dim>320</dim>
					<dim>320</dim>
				</port>
			</input>
			<output>
				<port id="1" precision="FP32" names="StatefulPartitionedCall/ResNet50V1_FPN/model/pool1_pool/MaxPool:0">
					<dim>1</dim>
					<dim>64</dim>
					<dim>160</dim>
					<dim>160</dim>
				</port>
				<port id="2" precision="I64">
					<dim>1</dim>
					<dim>64</dim>
					<dim>160</dim>
					<dim>160</dim>
				</port>
			</output>
		</layer>
		<layer id="29" name="StatefulPartitionedCall/ResNet50V1_FPN/model/conv2_block1_0_bn/FusedBatchNormV3/mean/Fused_Mul__copy95412584/restored_convert/quantized1616723152" type="Const" version="opset1">
			<data element_type="i8" shape="256, 64, 1, 1" offset="10102" size="16384" />
			<output>
				<port id="0" precision="I8">
					<dim>256</dim>
					<dim>64</dim>
					<dim>1</dim>
					<dim>1</dim>
				</port>
			</output>
		</layer>
		<layer id="30" name="StatefulPartitionedCall/ResNet50V1_FPN/model/conv2_block1_0_bn/FusedBatchNormV3/mean/Fused_Mul__copy95412584/restored_convert/quantized/to_f32" type="Convert" version="opset1">
			<data destination_type="f32" />
			<input>
				<port id="0" precision="I8">
					<dim>256</dim>
					<dim>64</dim>
					<dim>1</dim>
					<dim>1</dim>
				</port>
			</input>
			<output>
				<port id="1" precision="FP32">
					<dim>256</dim>
					<dim>64</dim>
					<dim>1</dim>
					<dim>1</dim>
				</port>
			</output>
		</layer>
		<layer id="31" name="StatefulPartitionedCall/ResNet50V1_FPN/model/conv2_block1_0_conv/Conv2D/fq_weights_1/zero_point1618624196" type="Const" version="opset1">
			<data element_type="f32" shape="256, 1, 1, 1" offset="26486" size="1024" />
			<output>
				<port id="0" precision="FP32">
					<dim>256</dim>
					<dim>1</dim>
					<dim>1</dim>
					<dim>1</dim>
				</port>
			</output>
		</layer>
		<layer id="32" name="StatefulPartitionedCall/ResNet50V1_FPN/model/conv2_block1_0_conv/Conv2D/fq_weights_1/minus_zp" type="Subtract" version="opset1">
			<data auto_broadcast="numpy" />
			<input>
				<port id="0" precision="FP32">
					<dim>256</dim>
					<dim>64</dim>
					<dim>1</dim>
					<dim>1</dim>
				</port>
				<port id="1" precision="FP32">
					<dim>256</dim>
					<dim>1</dim>
					<dim>1</dim>
					<dim>1</dim>
				</port>
			</input>
			<output>
				<port id="2" precision="FP32">
					<dim>256</dim>
					<dim>64</dim>
					<dim>1</dim>
					<dim>1</dim>
				</port>
			</output>
		</layer>
		<layer id="33" name="StatefulPartitionedCall/ResNet50V1_FPN/model/conv2_block1_0_conv/Conv2D/fq_weights_1/scale1617523476" type="Const" version="opset1">
			<data element_type="f32" shape="256, 1, 1, 1" offset="27510" size="1024" />
			<output>
				<port id="0" precision="FP32">
					<dim>256</dim>
					<dim>1</dim>
					<dim>1</dim>
					<dim>1</dim>
				</port>
			</output>
		</layer>
		<layer id="34" name="StatefulPartitionedCall/ResNet50V1_FPN/model/conv2_block1_0_conv/Conv2D/fq_weights_1/mulpiply_by_scale" type="Multiply" version="opset1">
			<data auto_broadcast="numpy" />
			<input>
				<port id="0" precision="FP32">
					<dim>256</dim>
					<dim>64</dim>
					<dim>1</dim>
					<dim>1</dim>
				</port>
				<port id="1" precision="FP32">
					<dim>256</dim>
					<dim>1</dim>
					<dim>1</dim>
					<dim>1</dim>
				</port>
			</input>
			<output>
				<port id="2" precision="FP32">
					<dim>256</dim>
					<dim>64</dim>
					<dim>1</dim>
					<dim>1</dim>
				</port>
			</output>
		</layer>
		<layer id="35" name="StatefulPartitionedCall/ResNet50V1_FPN/model/conv2_block1_0_conv/Conv2D" type="Convolution" version="opset1">
			<data strides="1, 1" dilations="1, 1" pads_begin="0, 0" pads_end="0, 0" auto_pad="same_upper" />
			<rt_info>
				<attribute name="fused_names" version="0" value="StatefulPartitionedCall/ResNet50V1_FPN/model/conv2_block1_0_conv/Conv2D" />
			</rt_info>
			<input>
				<port id="0" precision="FP32">
					<dim>1</dim>
					<dim>64</dim>
					<dim>160</dim>
					<dim>160</dim>
				</port>
				<port id="1" precision="FP32">
					<dim>256</dim>
					<dim>64</dim>
					<dim>1</dim>
					<dim>1</dim>
				</port>
			</input>
			<output>
				<port id="2" precision="FP32">
					<dim>1</dim>
					<dim>256</dim>
					<dim>160</dim>
					<dim>160</dim>
				</port>
			</output>
		</layer>
		<layer id="36" name="data_add_494474945295723779" type="Const" version="opset1">
			<data element_type="f16" shape="1, 256, 1, 1" offset="28534" size="512" />
			<output>
				<port id="0" precision="FP16">
					<dim>1</dim>
					<dim>256</dim>
					<dim>1</dim>
					<dim>1</dim>
				</port>
			</output>
		</layer>
		<layer id="37" name="data_add_494474945295712585/restored_convert" type="Convert" version="opset1">
			<data destination_type="f32" />
			<rt_info>
				<attribute name="decompression" version="0" />
				<attribute name="fused_names" version="0" value="data_add_4944749452" />
			</rt_info>
			<input>
				<port id="0" precision="FP16">
					<dim>1</dim>
					<dim>256</dim>
					<dim>1</dim>
					<dim>1</dim>
				</port>
			</input>
			<output>
				<port id="1" precision="FP32">
					<dim>1</dim>
					<dim>256</dim>
					<dim>1</dim>
					<dim>1</dim>
				</port>
			</output>
		</layer>
		<layer id="38" name="StatefulPartitionedCall/ResNet50V1_FPN/model/conv2_block1_0_bn/FusedBatchNormV3/variance/Fused_Add_" type="Add" version="opset1">
			<data auto_broadcast="numpy" />
			<rt_info>
				<attribute name="fused_names" version="0" value="StatefulPartitionedCall/ResNet50V1_FPN/model/conv2_block1_0_bn/FusedBatchNormV3/variance/Fused_Add_" />
			</rt_info>
			<input>
				<port id="0" precision="FP32">
					<dim>1</dim>
					<dim>256</dim>
					<dim>160</dim>
					<dim>160</dim>
				</port>
				<port id="1" precision="FP32">
					<dim>1</dim>
					<dim>256</dim>
					<dim>1</dim>
					<dim>1</dim>
				</port>
			</input>
			<output>
				<port id="2" precision="FP32" names="StatefulPartitionedCall/ResNet50V1_FPN/model/conv2_block1_0_bn/FusedBatchNormV3:0">
					<dim>1</dim>
					<dim>256</dim>
					<dim>160</dim>
					<dim>160</dim>
				</port>
			</output>
		</layer>
		<layer id="39" name="3481348522162" type="Const" version="opset1">
			<data element_type="f32" shape="" offset="29046" size="4" />
			<output>
				<port id="0" precision="FP32" />
			</output>
		</layer>
		<layer id="40" name="3482348622444" type="Const" version="opset1">
			<data element_type="f32" shape="" offset="29050" size="4" />
			<output>
				<port id="0" precision="FP32" />
			</output>
		</layer>
		<layer id="41" name="3483348723101" type="Const" version="opset1">
			<data element_type="f32" shape="" offset="29046" size="4" />
			<output>
				<port id="0" precision="FP32" />
			</output>
		</layer>
		<layer id="42" name="3484348823590" type="Const" version="opset1">
			<data element_type="f32" shape="" offset="29050" size="4" />
			<output>
				<port id="0" precision="FP32" />
			</output>
		</layer>
		<layer id="43" name="StatefulPartitionedCall/ResNet50V1_FPN/model/conv2_block1_add/add/fq_input_0" type="FakeQuantize" version="opset1">
			<data levels="256" auto_broadcast="numpy" />
			<input>
				<port id="0" precision="FP32">
					<dim>1</dim>
					<dim>256</dim>
					<dim>160</dim>
					<dim>160</dim>
				</port>
				<port id="1" precision="FP32" />
				<port id="2" precision="FP32" />
				<port id="3" precision="FP32" />
				<port id="4" precision="FP32" />
			</input>
			<output>
				<port id="5" precision="FP32">
					<dim>1</dim>
					<dim>256</dim>
					<dim>160</dim>
					<dim>160</dim>
				</port>
			</output>
		</layer>
		<layer id="44" name="StatefulPartitionedCall/ResNet50V1_FPN/model/conv2_block1_1_bn/FusedBatchNormV3/mean/Fused_Mul__copy96012586/restored_convert/quantized1535722243" type="Const" version="opset1">
			<data element_type="i8" shape="64, 64, 1, 1" offset="29054" size="4096" />
			<output>
				<port id="0" precision="I8">
					<dim>64</dim>
					<dim>64</dim>
					<dim>1</dim>
					<dim>1</dim>
				</port>
			</output>
		</layer>
		<layer id="45" name="StatefulPartitionedCall/ResNet50V1_FPN/model/conv2_block1_1_bn/FusedBatchNormV3/mean/Fused_Mul__copy96012586/restored_convert/quantized/to_f32" type="Convert" version="opset1">
			<data destination_type="f32" />
			<input>
				<port id="0" precision="I8">
					<dim>64</dim>
					<dim>64</dim>
					<dim>1</dim>
					<dim>1</dim>
				</port>
			</input>
			<output>
				<port id="1" precision="FP32">
					<dim>64</dim>
					<dim>64</dim>
					<dim>1</dim>
					<dim>1</dim>
				</port>
			</output>
		</layer>
		<layer id="46" name="StatefulPartitionedCall/ResNet50V1_FPN/model/conv2_block1_1_conv/Conv2D/fq_weights_1/zero_point1537623746" type="Const" version="opset1">
			<data element_type="f32" shape="64, 1, 1, 1" offset="33150" size="256" />
			<output>
				<port id="0" precision="FP32">
					<dim>64</dim>
					<dim>1</dim>
					<dim>1</dim>
					<dim>1</dim>
				</port>
			</output>
		</layer>
		<layer id="47" name="StatefulPartitionedCall/ResNet50V1_FPN/model/conv2_block1_1_conv/Conv2D/fq_weights_1/minus_zp" type="Subtract" version="opset1">
			<data auto_broadcast="numpy" />
			<input>
				<port id="0" precision="FP32">
					<dim>64</dim>
					<dim>64</dim>
					<dim>1</dim>
					<dim>1</dim>
				</port>
				<port id="1" precision="FP32">
					<dim>64</dim>
					<dim>1</dim>
					<dim>1</dim>
					<dim>1</dim>
				</port>
			</input>
			<output>
				<port id="2" precision="FP32">
					<dim>64</dim>
					<dim>64</dim>
					<dim>1</dim>
					<dim>1</dim>
				</port>
			</output>
		</layer>
		<layer id="48" name="StatefulPartitionedCall/ResNet50V1_FPN/model/conv2_block1_1_conv/Conv2D/fq_weights_1/scale1536523554" type="Const" version="opset1">
			<data element_type="f32" shape="64, 1, 1, 1" offset="33406" size="256" />
			<output>
				<port id="0" precision="FP32">
					<dim>64</dim>
					<dim>1</dim>
					<dim>1</dim>
					<dim>1</dim>
				</port>
			</output>
		</layer>
		<layer id="49" name="StatefulPartitionedCall/ResNet50V1_FPN/model/conv2_block1_1_conv/Conv2D/fq_weights_1/mulpiply_by_scale" type="Multiply" version="opset1">
			<data auto_broadcast="numpy" />
			<input>
				<port id="0" precision="FP32">
					<dim>64</dim>
					<dim>64</dim>
					<dim>1</dim>
					<dim>1</dim>
				</port>
				<port id="1" precision="FP32">
					<dim>64</dim>
					<dim>1</dim>
					<dim>1</dim>
					<dim>1</dim>
				</port>
			</input>
			<output>
				<port id="2" precision="FP32">
					<dim>64</dim>
					<dim>64</dim>
					<dim>1</dim>
					<dim>1</dim>
				</port>
			</output>
		</layer>
		<layer id="50" name="StatefulPartitionedCall/ResNet50V1_FPN/model/conv2_block1_1_conv/Conv2D" type="Convolution" version="opset1">
			<data strides="1, 1" dilations="1, 1" pads_begin="0, 0" pads_end="0, 0" auto_pad="same_upper" />
			<rt_info>
				<attribute name="fused_names" version="0" value="StatefulPartitionedCall/ResNet50V1_FPN/model/conv2_block1_1_conv/Conv2D" />
			</rt_info>
			<input>
				<port id="0" precision="FP32">
					<dim>1</dim>
					<dim>64</dim>
					<dim>160</dim>
					<dim>160</dim>
				</port>
				<port id="1" precision="FP32">
					<dim>64</dim>
					<dim>64</dim>
					<dim>1</dim>
					<dim>1</dim>
				</port>
			</input>
			<output>
				<port id="2" precision="FP32">
					<dim>1</dim>
					<dim>64</dim>
					<dim>160</dim>
					<dim>160</dim>
				</port>
			</output>
		</layer>
		<layer id="51" name="data_add_494234942896322498" type="Const" version="opset1">
			<data element_type="f16" shape="1, 64, 1, 1" offset="33662" size="128" />
			<output>
				<port id="0" precision="FP16">
					<dim>1</dim>
					<dim>64</dim>
					<dim>1</dim>
					<dim>1</dim>
				</port>
			</output>
		</layer>
		<layer id="52" name="data_add_494234942896312587/restored_convert" type="Convert" version="opset1">
			<data destination_type="f32" />
			<rt_info>
				<attribute name="decompression" version="0" />
				<attribute name="fused_names" version="0" value="data_add_4942349428" />
			</rt_info>
			<input>
				<port id="0" precision="FP16">
					<dim>1</dim>
					<dim>64</dim>
					<dim>1</dim>
					<dim>1</dim>
				</port>
			</input>
			<output>
				<port id="1" precision="FP32">
					<dim>1</dim>
					<dim>64</dim>
					<dim>1</dim>
					<dim>1</dim>
				</port>
			</output>
		</layer>
		<layer id="53" name="StatefulPartitionedCall/ResNet50V1_FPN/model/conv2_block1_1_bn/FusedBatchNormV3/variance/Fused_Add_" type="Add" version="opset1">
			<data auto_broadcast="numpy" />
			<rt_info>
				<attribute name="fused_names" version="0" value="StatefulPartitionedCall/ResNet50V1_FPN/model/conv2_block1_1_bn/FusedBatchNormV3/variance/Fused_Add_" />
			</rt_info>
			<input>
				<port id="0" precision="FP32">
					<dim>1</dim>
					<dim>64</dim>
					<dim>160</dim>
					<dim>160</dim>
				</port>
				<port id="1" precision="FP32">
					<dim>1</dim>
					<dim>64</dim>
					<dim>1</dim>
					<dim>1</dim>
				</port>
			</input>
			<output>
				<port id="2" precision="FP32" names="StatefulPartitionedCall/ResNet50V1_FPN/model/conv2_block1_1_bn/FusedBatchNormV3:0">
					<dim>1</dim>
					<dim>64</dim>
					<dim>160</dim>
					<dim>160</dim>
				</port>
			</output>
		</layer>
		<layer id="54" name="StatefulPartitionedCall/ResNet50V1_FPN/model/conv2_block1_1_relu/Relu6" type="Clamp" version="opset1">
			<data min="0" max="6" />
			<rt_info>
				<attribute name="fused_names" version="0" value="StatefulPartitionedCall/ResNet50V1_FPN/model/conv2_block1_1_relu/Relu6" />
			</rt_info>
			<input>
				<port id="0" precision="FP32">
					<dim>1</dim>
					<dim>64</dim>
					<dim>160</dim>
					<dim>160</dim>
				</port>
			</input>
			<output>
				<port id="1" precision="FP32" names="StatefulPartitionedCall/ResNet50V1_FPN/model/conv2_block1_1_relu/Relu6:0">
					<dim>1</dim>
					<dim>64</dim>
					<dim>160</dim>
					<dim>160</dim>
				</port>
			</output>
		</layer>
		<layer id="55" name="3581358522981" type="Const" version="opset1">
			<data element_type="f32" shape="" offset="10094" size="4" />
			<output>
				<port id="0" precision="FP32" />
			</output>
		</layer>
		<layer id="56" name="3582358623068" type="Const" version="opset1">
			<data element_type="f32" shape="" offset="33790" size="4" />
			<output>
				<port id="0" precision="FP32" />
			</output>
		</layer>
		<layer id="57" name="3583358723755" type="Const" version="opset1">
			<data element_type="f32" shape="" offset="10094" size="4" />
			<output>
				<port id="0" precision="FP32" />
			</output>
		</layer>
		<layer id="58" name="3584358822597" type="Const" version="opset1">
			<data element_type="f32" shape="" offset="33790" size="4" />
			<output>
				<port id="0" precision="FP32" />
			</output>
		</layer>
		<layer id="59" name="StatefulPartitionedCall/ResNet50V1_FPN/model/conv2_block1_2_conv/Conv2D/fq_input_0" type="FakeQuantize" version="opset1">
			<data levels="256" auto_broadcast="numpy" />
			<input>
				<port id="0" precision="FP32">
					<dim>1</dim>
					<dim>64</dim>
					<dim>160</dim>
					<dim>160</dim>
				</port>
				<port id="1" precision="FP32" />
				<port id="2" precision="FP32" />
				<port id="3" precision="FP32" />
				<port id="4" precision="FP32" />
			</input>
			<output>
				<port id="5" precision="FP32">
					<dim>1</dim>
					<dim>64</dim>
					<dim>160</dim>
					<dim>160</dim>
				</port>
			</output>
		</layer>
		<layer id="60" name="StatefulPartitionedCall/ResNet50V1_FPN/model/conv2_block1_2_bn/FusedBatchNormV3/mean/Fused_Mul__copy96712588/restored_convert/quantized1469722801" type="Const" version="opset1">
			<data element_type="i8" shape="64, 64, 3, 3" offset="33794" size="36864" />
			<output>
				<port id="0" precision="I8">
					<dim>64</dim>
					<dim>64</dim>
					<dim>3</dim>
					<dim>3</dim>
				</port>
			</output>
		</layer>
		<layer id="61" name="StatefulPartitionedCall/ResNet50V1_FPN/model/conv2_block1_2_bn/FusedBatchNormV3/mean/Fused_Mul__copy96712588/restored_convert/quantized/to_f32" type="Convert" version="opset1">
			<data destination_type="f32" />
			<input>
				<port id="0" precision="I8">
					<dim>64</dim>
					<dim>64</dim>
					<dim>3</dim>
					<dim>3</dim>
				</port>
			</input>
			<output>
				<port id="1" precision="FP32">
					<dim>64</dim>
					<dim>64</dim>
					<dim>3</dim>
					<dim>3</dim>
				</port>
			</output>
		</layer>
		<layer id="62" name="StatefulPartitionedCall/ResNet50V1_FPN/model/conv2_block1_2_conv/Conv2D/fq_weights_1/zero_point1471622429" type="Const" version="opset1">
			<data element_type="f32" shape="64, 1, 1, 1" offset="70658" size="256" />
			<output>
				<port id="0" precision="FP32">
					<dim>64</dim>
					<dim>1</dim>
					<dim>1</dim>
					<dim>1</dim>
				</port>
			</output>
		</layer>
		<layer id="63" name="StatefulPartitionedCall/ResNet50V1_FPN/model/conv2_block1_2_conv/Conv2D/fq_weights_1/minus_zp" type="Subtract" version="opset1">
			<data auto_broadcast="numpy" />
			<input>
				<port id="0" precision="FP32">
					<dim>64</dim>
					<dim>64</dim>
					<dim>3</dim>
					<dim>3</dim>
				</port>
				<port id="1" precision="FP32">
					<dim>64</dim>
					<dim>1</dim>
					<dim>1</dim>
					<dim>1</dim>
				</port>
			</input>
			<output>
				<port id="2" precision="FP32">
					<dim>64</dim>
					<dim>64</dim>
					<dim>3</dim>
					<dim>3</dim>
				</port>
			</output>
		</layer>
		<layer id="64" name="StatefulPartitionedCall/ResNet50V1_FPN/model/conv2_block1_2_conv/Conv2D/fq_weights_1/scale1470522234" type="Const" version="opset1">
			<data element_type="f32" shape="64, 1, 1, 1" offset="70914" size="256" />
			<output>
				<port id="0" precision="FP32">
					<dim>64</dim>
					<dim>1</dim>
					<dim>1</dim>
					<dim>1</dim>
				</port>
			</output>
		</layer>
		<layer id="65" name="StatefulPartitionedCall/ResNet50V1_FPN/model/conv2_block1_2_conv/Conv2D/fq_weights_1/mulpiply_by_scale" type="Multiply" version="opset1">
			<data auto_broadcast="numpy" />
			<input>
				<port id="0" precision="FP32">
					<dim>64</dim>
					<dim>64</dim>
					<dim>3</dim>
					<dim>3</dim>
				</port>
				<port id="1" precision="FP32">
					<dim>64</dim>
					<dim>1</dim>
					<dim>1</dim>
					<dim>1</dim>
				</port>
			</input>
			<output>
				<port id="2" precision="FP32">
					<dim>64</dim>
					<dim>64</dim>
					<dim>3</dim>
					<dim>3</dim>
				</port>
			</output>
		</layer>
		<layer id="66" name="StatefulPartitionedCall/ResNet50V1_FPN/model/conv2_block1_2_conv/Conv2D" type="Convolution" version="opset1">
			<data strides="1, 1" dilations="1, 1" pads_begin="0, 0" pads_end="0, 0" auto_pad="same_upper" />
			<rt_info>
				<attribute name="fused_names" version="0" value="StatefulPartitionedCall/ResNet50V1_FPN/model/conv2_block1_2_conv/Conv2D" />
			</rt_info>
			<input>
				<port id="0" precision="FP32">
					<dim>1</dim>
					<dim>64</dim>
					<dim>160</dim>
					<dim>160</dim>
				</port>
				<port id="1" precision="FP32">
					<dim>64</dim>
					<dim>64</dim>
					<dim>3</dim>
					<dim>3</dim>
				</port>
			</input>
			<output>
				<port id="2" precision="FP32">
					<dim>1</dim>
					<dim>64</dim>
					<dim>160</dim>
					<dim>160</dim>
				</port>
			</output>
		</layer>
		<layer id="67" name="data_add_494314943697022291" type="Const" version="opset1">
			<data element_type="f16" shape="1, 64, 1, 1" offset="71170" size="128" />
			<output>
				<port id="0" precision="FP16">
					<dim>1</dim>
					<dim>64</dim>
					<dim>1</dim>
					<dim>1</dim>
				</port>
			</output>
		</layer>
		<layer id="68" name="data_add_494314943697012589/restored_convert" type="Convert" version="opset1">
			<data destination_type="f32" />
			<rt_info>
				<attribute name="decompression" version="0" />
				<attribute name="fused_names" version="0" value="data_add_4943149436" />
			</rt_info>
			<input>
				<port id="0" precision="FP16">
					<dim>1</dim>
					<dim>64</dim>
					<dim>1</dim>
					<dim>1</dim>
				</port>
			</input>
			<output>
				<port id="1" precision="FP32">
					<dim>1</dim>
					<dim>64</dim>
					<dim>1</dim>
					<dim>1</dim>
				</port>
			</output>
		</layer>
		<layer id="69" name="StatefulPartitionedCall/ResNet50V1_FPN/model/conv2_block1_2_bn/FusedBatchNormV3/variance/Fused_Add_" type="Add" version="opset1">
			<data auto_broadcast="numpy" />
			<rt_info>
				<attribute name="fused_names" version="0" value="StatefulPartitionedCall/ResNet50V1_FPN/model/conv2_block1_2_bn/FusedBatchNormV3/variance/Fused_Add_" />
			</rt_info>
			<input>
				<port id="0" precision="FP32">
					<dim>1</dim>
					<dim>64</dim>
					<dim>160</dim>
					<dim>160</dim>
				</port>
				<port id="1" precision="FP32">
					<dim>1</dim>
					<dim>64</dim>
					<dim>1</dim>
					<dim>1</dim>
				</port>
			</input>
			<output>
				<port id="2" precision="FP32" names="StatefulPartitionedCall/ResNet50V1_FPN/model/conv2_block1_2_bn/FusedBatchNormV3:0">
					<dim>1</dim>
					<dim>64</dim>
					<dim>160</dim>
					<dim>160</dim>
				</port>
			</output>
		</layer>
		<layer id="70" name="StatefulPartitionedCall/ResNet50V1_FPN/model/conv2_block1_2_relu/Relu6" type="Clamp" version="opset1">
			<data min="0" max="6" />
			<rt_info>
				<attribute name="fused_names" version="0" value="StatefulPartitionedCall/ResNet50V1_FPN/model/conv2_block1_2_relu/Relu6" />
			</rt_info>
			<input>
				<port id="0" precision="FP32">
					<dim>1</dim>
					<dim>64</dim>
					<dim>160</dim>
					<dim>160</dim>
				</port>
			</input>
			<output>
				<port id="1" precision="FP32" names="StatefulPartitionedCall/ResNet50V1_FPN/model/conv2_block1_2_relu/Relu6:0">
					<dim>1</dim>
					<dim>64</dim>
					<dim>160</dim>
					<dim>160</dim>
				</port>
			</output>
		</layer>
		<layer id="71" name="5601560523176" type="Const" version="opset1">
			<data element_type="f32" shape="" offset="10094" size="4" />
			<output>
				<port id="0" precision="FP32" />
			</output>
		</layer>
		<layer id="72" name="5602560623950" type="Const" version="opset1">
			<data element_type="f32" shape="" offset="10098" size="4" />
			<output>
				<port id="0" precision="FP32" />
			</output>
		</layer>
		<layer id="73" name="5603560723395" type="Const" version="opset1">
			<data element_type="f32" shape="" offset="10094" size="4" />
			<output>
				<port id="0" precision="FP32" />
			</output>
		</layer>
		<layer id="74" name="5604560824424" type="Const" version="opset1">
			<data element_type="f32" shape="" offset="10098" size="4" />
			<output>
				<port id="0" precision="FP32" />
			</output>
		</layer>
		<layer id="75" name="StatefulPartitionedCall/ResNet50V1_FPN/model/conv2_block1_3_conv/Conv2D/fq_input_0" type="FakeQuantize" version="opset1">
			<data levels="256" auto_broadcast="numpy" />
			<input>
				<port id="0" precision="FP32">
					<dim>1</dim>
					<dim>64</dim>
					<dim>160</dim>
					<dim>160</dim>
				</port>
				<port id="1" precision="FP32" />
				<port id="2" precision="FP32" />
				<port id="3" precision="FP32" />
				<port id="4" precision="FP32" />
			</input>
			<output>
				<port id="5" precision="FP32">
					<dim>1</dim>
					<dim>64</dim>
					<dim>160</dim>
					<dim>160</dim>
				</port>
			</output>
		</layer>
		<layer id="76" name="StatefulPartitionedCall/ResNet50V1_FPN/model/conv2_block1_3_bn/FusedBatchNormV3/mean/Fused_Mul__copy97412590/restored_convert/quantized1610724343" type="Const" version="opset1">
			<data element_type="i8" shape="256, 64, 1, 1" offset="71298" size="16384" />
			<output>
				<port id="0" precision="I8">
					<dim>256</dim>
					<dim>64</dim>
					<dim>1</dim>
					<dim>1</dim>
				</port>
			</output>
		</layer>
		<layer id="77" name="StatefulPartitionedCall/ResNet50V1_FPN/model/conv2_block1_3_bn/FusedBatchNormV3/mean/Fused_Mul__copy97412590/restored_convert/quantized/to_f32" type="Convert" version="opset1">
			<data destination_type="f32" />
			<input>
				<port id="0" precision="I8">
					<dim>256</dim>
					<dim>64</dim>
					<dim>1</dim>
					<dim>1</dim>
				</port>
			</input>
			<output>
				<port id="1" precision="FP32">
					<dim>256</dim>
					<dim>64</dim>
					<dim>1</dim>
					<dim>1</dim>
				</port>
			</output>
		</layer>
		<layer id="78" name="StatefulPartitionedCall/ResNet50V1_FPN/model/conv2_block1_3_conv/Conv2D/fq_weights_1/zero_point1612623965" type="Const" version="opset1">
			<data element_type="f32" shape="256, 1, 1, 1" offset="87682" size="1024" />
			<output>
				<port id="0" precision="FP32">
					<dim>256</dim>
					<dim>1</dim>
					<dim>1</dim>
					<dim>1</dim>
				</port>
			</output>
		</layer>
		<layer id="79" name="StatefulPartitionedCall/ResNet50V1_FPN/model/conv2_block1_3_conv/Conv2D/fq_weights_1/minus_zp" type="Subtract" version="opset1">
			<data auto_broadcast="numpy" />
			<input>
				<port id="0" precision="FP32">
					<dim>256</dim>
					<dim>64</dim>
					<dim>1</dim>
					<dim>1</dim>
				</port>
				<port id="1" precision="FP32">
					<dim>256</dim>
					<dim>1</dim>
					<dim>1</dim>
					<dim>1</dim>
				</port>
			</input>
			<output>
				<port id="2" precision="FP32">
					<dim>256</dim>
					<dim>64</dim>
					<dim>1</dim>
					<dim>1</dim>
				</port>
			</output>
		</layer>
		<layer id="80" name="StatefulPartitionedCall/ResNet50V1_FPN/model/conv2_block1_3_conv/Conv2D/fq_weights_1/scale1611521781" type="Const" version="opset1">
			<data element_type="f32" shape="256, 1, 1, 1" offset="88706" size="1024" />
			<output>
				<port id="0" precision="FP32">
					<dim>256</dim>
					<dim>1</dim>
					<dim>1</dim>
					<dim>1</dim>
				</port>
			</output>
		</layer>
		<layer id="81" name="StatefulPartitionedCall/ResNet50V1_FPN/model/conv2_block1_3_conv/Conv2D/fq_weights_1/mulpiply_by_scale" type="Multiply" version="opset1">
			<data auto_broadcast="numpy" />
			<input>
				<port id="0" precision="FP32">
					<dim>256</dim>
					<dim>64</dim>
					<dim>1</dim>
					<dim>1</dim>
				</port>
				<port id="1" precision="FP32">
					<dim>256</dim>
					<dim>1</dim>
					<dim>1</dim>
					<dim>1</dim>
				</port>
			</input>
			<output>
				<port id="2" precision="FP32">
					<dim>256</dim>
					<dim>64</dim>
					<dim>1</dim>
					<dim>1</dim>
				</port>
			</output>
		</layer>
		<layer id="82" name="StatefulPartitionedCall/ResNet50V1_FPN/model/conv2_block1_3_conv/Conv2D" type="Convolution" version="opset1">
			<data strides="1, 1" dilations="1, 1" pads_begin="0, 0" pads_end="0, 0" auto_pad="same_upper" />
			<rt_info>
				<attribute name="fused_names" version="0" value="StatefulPartitionedCall/ResNet50V1_FPN/model/conv2_block1_3_conv/Conv2D" />
			</rt_info>
			<input>
				<port id="0" precision="FP32">
					<dim>1</dim>
					<dim>64</dim>
					<dim>160</dim>
					<dim>160</dim>
				</port>
				<port id="1" precision="FP32">
					<dim>256</dim>
					<dim>64</dim>
					<dim>1</dim>
					<dim>1</dim>
				</port>
			</input>
			<output>
				<port id="2" precision="FP32">
					<dim>1</dim>
					<dim>256</dim>
					<dim>160</dim>
					<dim>160</dim>
				</port>
			</output>
		</layer>
		<layer id="83" name="data_add_494394944497724391" type="Const" version="opset1">
			<data element_type="f16" shape="1, 256, 1, 1" offset="89730" size="512" />
			<output>
				<port id="0" precision="FP16">
					<dim>1</dim>
					<dim>256</dim>
					<dim>1</dim>
					<dim>1</dim>
				</port>
			</output>
		</layer>
		<layer id="84" name="data_add_494394944497712591/restored_convert" type="Convert" version="opset1">
			<data destination_type="f32" />
			<rt_info>
				<attribute name="decompression" version="0" />
				<attribute name="fused_names" version="0" value="data_add_4943949444" />
			</rt_info>
			<input>
				<port id="0" precision="FP16">
					<dim>1</dim>
					<dim>256</dim>
					<dim>1</dim>
					<dim>1</dim>
				</port>
			</input>
			<output>
				<port id="1" precision="FP32">
					<dim>1</dim>
					<dim>256</dim>
					<dim>1</dim>
					<dim>1</dim>
				</port>
			</output>
		</layer>
		<layer id="85" name="StatefulPartitionedCall/ResNet50V1_FPN/model/conv2_block1_3_bn/FusedBatchNormV3/variance/Fused_Add_" type="Add" version="opset1">
			<data auto_broadcast="numpy" />
			<rt_info>
				<attribute name="fused_names" version="0" value="StatefulPartitionedCall/ResNet50V1_FPN/model/conv2_block1_3_bn/FusedBatchNormV3/variance/Fused_Add_" />
			</rt_info>
			<input>
				<port id="0" precision="FP32">
					<dim>1</dim>
					<dim>256</dim>
					<dim>160</dim>
					<dim>160</dim>
				</port>
				<port id="1" precision="FP32">
					<dim>1</dim>
					<dim>256</dim>
					<dim>1</dim>
					<dim>1</dim>
				</port>
			</input>
			<output>
				<port id="2" precision="FP32" names="StatefulPartitionedCall/ResNet50V1_FPN/model/conv2_block1_3_bn/FusedBatchNormV3:0">
					<dim>1</dim>
					<dim>256</dim>
					<dim>160</dim>
					<dim>160</dim>
				</port>
			</output>
		</layer>
		<layer id="86" name="3491349523323" type="Const" version="opset1">
			<data element_type="f32" shape="" offset="90242" size="4" />
			<output>
				<port id="0" precision="FP32" />
			</output>
		</layer>
		<layer id="87" name="3492349623518" type="Const" version="opset1">
			<data element_type="f32" shape="" offset="90246" size="4" />
			<output>
				<port id="0" precision="FP32" />
			</output>
		</layer>
		<layer id="88" name="3493349722312" type="Const" version="opset1">
			<data element_type="f32" shape="" offset="90242" size="4" />
			<output>
				<port id="0" precision="FP32" />
			</output>
		</layer>
		<layer id="89" name="3494349823431" type="Const" version="opset1">
			<data element_type="f32" shape="" offset="90246" size="4" />
			<output>
				<port id="0" precision="FP32" />
			</output>
		</layer>
		<layer id="90" name="StatefulPartitionedCall/ResNet50V1_FPN/model/conv2_block1_add/add/fq_input_1" type="FakeQuantize" version="opset1">
			<data levels="256" auto_broadcast="numpy" />
			<input>
				<port id="0" precision="FP32">
					<dim>1</dim>
					<dim>256</dim>
					<dim>160</dim>
					<dim>160</dim>
				</port>
				<port id="1" precision="FP32" />
				<port id="2" precision="FP32" />
				<port id="3" precision="FP32" />
				<port id="4" precision="FP32" />
			</input>
			<output>
				<port id="5" precision="FP32">
					<dim>1</dim>
					<dim>256</dim>
					<dim>160</dim>
					<dim>160</dim>
				</port>
			</output>
		</layer>
		<layer id="91" name="StatefulPartitionedCall/ResNet50V1_FPN/model/conv2_block1_add/add" type="Add" version="opset1">
			<data auto_broadcast="numpy" />
			<rt_info>
				<attribute name="fused_names" version="0" value="StatefulPartitionedCall/ResNet50V1_FPN/model/conv2_block1_add/add" />
			</rt_info>
			<input>
				<port id="0" precision="FP32">
					<dim>1</dim>
					<dim>256</dim>
					<dim>160</dim>
					<dim>160</dim>
				</port>
				<port id="1" precision="FP32">
					<dim>1</dim>
					<dim>256</dim>
					<dim>160</dim>
					<dim>160</dim>
				</port>
			</input>
			<output>
				<port id="2" precision="FP32" names="StatefulPartitionedCall/ResNet50V1_FPN/model/conv2_block1_add/add:0">
					<dim>1</dim>
					<dim>256</dim>
					<dim>160</dim>
					<dim>160</dim>
				</port>
			</output>
		</layer>
		<layer id="92" name="StatefulPartitionedCall/ResNet50V1_FPN/model/conv2_block1_out/Relu6" type="Clamp" version="opset1">
			<data min="0" max="6" />
			<rt_info>
				<attribute name="fused_names" version="0" value="StatefulPartitionedCall/ResNet50V1_FPN/model/conv2_block1_out/Relu6" />
			</rt_info>
			<input>
				<port id="0" precision="FP32">
					<dim>1</dim>
					<dim>256</dim>
					<dim>160</dim>
					<dim>160</dim>
				</port>
			</input>
			<output>
				<port id="1" precision="FP32" names="StatefulPartitionedCall/ResNet50V1_FPN/model/conv2_block1_out/Relu6:0">
					<dim>1</dim>
					<dim>256</dim>
					<dim>160</dim>
					<dim>160</dim>
				</port>
			</output>
		</layer>
		<layer id="93" name="4701470522084" type="Const" version="opset1">
			<data element_type="f32" shape="" offset="10094" size="4" />
			<output>
				<port id="0" precision="FP32" />
			</output>
		</layer>
		<layer id="94" name="4702470624262" type="Const" version="opset1">
			<data element_type="f32" shape="" offset="10098" size="4" />
			<output>
				<port id="0" precision="FP32" />
			</output>
		</layer>
		<layer id="95" name="4703470724145" type="Const" version="opset1">
			<data element_type="f32" shape="" offset="10094" size="4" />
			<output>
				<port id="0" precision="FP32" />
			</output>
		</layer>
		<layer id="96" name="4704470824295" type="Const" version="opset1">
			<data element_type="f32" shape="" offset="10098" size="4" />
			<output>
				<port id="0" precision="FP32" />
			</output>
		</layer>
		<layer id="97" name="StatefulPartitionedCall/ResNet50V1_FPN/model/conv2_block2_1_conv/Conv2D/fq_input_0" type="FakeQuantize" version="opset1">
			<data levels="256" auto_broadcast="numpy" />
			<input>
				<port id="0" precision="FP32">
					<dim>1</dim>
					<dim>256</dim>
					<dim>160</dim>
					<dim>160</dim>
				</port>
				<port id="1" precision="FP32" />
				<port id="2" precision="FP32" />
				<port id="3" precision="FP32" />
				<port id="4" precision="FP32" />
			</input>
			<output>
				<port id="5" precision="FP32">
					<dim>1</dim>
					<dim>256</dim>
					<dim>160</dim>
					<dim>160</dim>
				</port>
			</output>
		</layer>
		<layer id="98" name="StatefulPartitionedCall/ResNet50V1_FPN/model/conv2_block2_1_bn/FusedBatchNormV3/mean/Fused_Mul__copy98212592/restored_convert/quantized1529723629" type="Const" version="opset1">
			<data element_type="i8" shape="64, 256, 1, 1" offset="90250" size="16384" />
			<output>
				<port id="0" precision="I8">
					<dim>64</dim>
					<dim>256</dim>
					<dim>1</dim>
					<dim>1</dim>
				</port>
			</output>
		</layer>
		<layer id="99" name="StatefulPartitionedCall/ResNet50V1_FPN/model/conv2_block2_1_bn/FusedBatchNormV3/mean/Fused_Mul__copy98212592/restored_convert/quantized/to_f32" type="Convert" version="opset1">
			<data destination_type="f32" />
			<input>
				<port id="0" precision="I8">
					<dim>64</dim>
					<dim>256</dim>
					<dim>1</dim>
					<dim>1</dim>
				</port>
			</input>
			<output>
				<port id="1" precision="FP32">
					<dim>64</dim>
					<dim>256</dim>
					<dim>1</dim>
					<dim>1</dim>
				</port>
			</output>
		</layer>
		<layer id="100" name="StatefulPartitionedCall/ResNet50V1_FPN/model/conv2_block2_1_conv/Conv2D/fq_weights_1/zero_point1531624319" type="Const" version="opset1">
			<data element_type="f32" shape="64, 1, 1, 1" offset="106634" size="256" />
			<output>
				<port id="0" precision="FP32">
					<dim>64</dim>
					<dim>1</dim>
					<dim>1</dim>
					<dim>1</dim>
				</port>
			</output>
		</layer>
		<layer id="101" name="StatefulPartitionedCall/ResNet50V1_FPN/model/conv2_block2_1_conv/Conv2D/fq_weights_1/minus_zp" type="Subtract" version="opset1">
			<data auto_broadcast="numpy" />
			<input>
				<port id="0" precision="FP32">
					<dim>64</dim>
					<dim>256</dim>
					<dim>1</dim>
					<dim>1</dim>
				</port>
				<port id="1" precision="FP32">
					<dim>64</dim>
					<dim>1</dim>
					<dim>1</dim>
					<dim>1</dim>
				</port>
			</input>
			<output>
				<port id="2" precision="FP32">
					<dim>64</dim>
					<dim>256</dim>
					<dim>1</dim>
					<dim>1</dim>
				</port>
			</output>
		</layer>
		<layer id="102" name="StatefulPartitionedCall/ResNet50V1_FPN/model/conv2_block2_1_conv/Conv2D/fq_weights_1/scale1530522132" type="Const" version="opset1">
			<data element_type="f32" shape="64, 1, 1, 1" offset="106890" size="256" />
			<output>
				<port id="0" precision="FP32">
					<dim>64</dim>
					<dim>1</dim>
					<dim>1</dim>
					<dim>1</dim>
				</port>
			</output>
		</layer>
		<layer id="103" name="StatefulPartitionedCall/ResNet50V1_FPN/model/conv2_block2_1_conv/Conv2D/fq_weights_1/mulpiply_by_scale" type="Multiply" version="opset1">
			<data auto_broadcast="numpy" />
			<input>
				<port id="0" precision="FP32">
					<dim>64</dim>
					<dim>256</dim>
					<dim>1</dim>
					<dim>1</dim>
				</port>
				<port id="1" precision="FP32">
					<dim>64</dim>
					<dim>1</dim>
					<dim>1</dim>
					<dim>1</dim>
				</port>
			</input>
			<output>
				<port id="2" precision="FP32">
					<dim>64</dim>
					<dim>256</dim>
					<dim>1</dim>
					<dim>1</dim>
				</port>
			</output>
		</layer>
		<layer id="104" name="StatefulPartitionedCall/ResNet50V1_FPN/model/conv2_block2_1_conv/Conv2D" type="Convolution" version="opset1">
			<data strides="1, 1" dilations="1, 1" pads_begin="0, 0" pads_end="0, 0" auto_pad="same_upper" />
			<rt_info>
				<attribute name="fused_names" version="0" value="StatefulPartitionedCall/ResNet50V1_FPN/model/conv2_block2_1_conv/Conv2D" />
			</rt_info>
			<input>
				<port id="0" precision="FP32">
					<dim>1</dim>
					<dim>256</dim>
					<dim>160</dim>
					<dim>160</dim>
				</port>
				<port id="1" precision="FP32">
					<dim>64</dim>
					<dim>256</dim>
					<dim>1</dim>
					<dim>1</dim>
				</port>
			</input>
			<output>
				<port id="2" precision="FP32">
					<dim>1</dim>
					<dim>64</dim>
					<dim>160</dim>
					<dim>160</dim>
				</port>
			</output>
		</layer>
		<layer id="105" name="data_add_494554946098521919" type="Const" version="opset1">
			<data element_type="f16" shape="1, 64, 1, 1" offset="107146" size="128" />
			<output>
				<port id="0" precision="FP16">
					<dim>1</dim>
					<dim>64</dim>
					<dim>1</dim>
					<dim>1</dim>
				</port>
			</output>
		</layer>
		<layer id="106" name="data_add_494554946098512593/restored_convert" type="Convert" version="opset1">
			<data destination_type="f32" />
			<rt_info>
				<attribute name="decompression" version="0" />
				<attribute name="fused_names" version="0" value="data_add_4945549460" />
			</rt_info>
			<input>
				<port id="0" precision="FP16">
					<dim>1</dim>
					<dim>64</dim>
					<dim>1</dim>
					<dim>1</dim>
				</port>
			</input>
			<output>
				<port id="1" precision="FP32">
					<dim>1</dim>
					<dim>64</dim>
					<dim>1</dim>
					<dim>1</dim>
				</port>
			</output>
		</layer>
		<layer id="107" name="StatefulPartitionedCall/ResNet50V1_FPN/model/conv2_block2_1_bn/FusedBatchNormV3/variance/Fused_Add_" type="Add" version="opset1">
			<data auto_broadcast="numpy" />
			<rt_info>
				<attribute name="fused_names" version="0" value="StatefulPartitionedCall/ResNet50V1_FPN/model/conv2_block2_1_bn/FusedBatchNormV3/variance/Fused_Add_" />
			</rt_info>
			<input>
				<port id="0" precision="FP32">
					<dim>1</dim>
					<dim>64</dim>
					<dim>160</dim>
					<dim>160</dim>
				</port>
				<port id="1" precision="FP32">
					<dim>1</dim>
					<dim>64</dim>
					<dim>1</dim>
					<dim>1</dim>
				</port>
			</input>
			<output>
				<port id="2" precision="FP32" names="StatefulPartitionedCall/ResNet50V1_FPN/model/conv2_block2_1_bn/FusedBatchNormV3:0">
					<dim>1</dim>
					<dim>64</dim>
					<dim>160</dim>
					<dim>160</dim>
				</port>
			</output>
		</layer>
		<layer id="108" name="StatefulPartitionedCall/ResNet50V1_FPN/model/conv2_block2_1_relu/Relu6" type="Clamp" version="opset1">
			<data min="0" max="6" />
			<rt_info>
				<attribute name="fused_names" version="0" value="StatefulPartitionedCall/ResNet50V1_FPN/model/conv2_block2_1_relu/Relu6" />
			</rt_info>
			<input>
				<port id="0" precision="FP32">
					<dim>1</dim>
					<dim>64</dim>
					<dim>160</dim>
					<dim>160</dim>
				</port>
			</input>
			<output>
				<port id="1" precision="FP32" names="StatefulPartitionedCall/ResNet50V1_FPN/model/conv2_block2_1_relu/Relu6:0">
					<dim>1</dim>
					<dim>64</dim>
					<dim>160</dim>
					<dim>160</dim>
				</port>
			</output>
		</layer>
		<layer id="109" name="4461446523977" type="Const" version="opset1">
			<data element_type="f32" shape="" offset="10094" size="4" />
			<output>
				<port id="0" precision="FP32" />
			</output>
		</layer>
		<layer id="110" name="4462446622186" type="Const" version="opset1">
			<data element_type="f32" shape="" offset="107274" size="4" />
			<output>
				<port id="0" precision="FP32" />
			</output>
		</layer>
		<layer id="111" name="4463446722369" type="Const" version="opset1">
			<data element_type="f32" shape="" offset="10094" size="4" />
			<output>
				<port id="0" precision="FP32" />
			</output>
		</layer>
		<layer id="112" name="4464446822087" type="Const" version="opset1">
			<data element_type="f32" shape="" offset="107274" size="4" />
			<output>
				<port id="0" precision="FP32" />
			</output>
		</layer>
		<layer id="113" name="StatefulPartitionedCall/ResNet50V1_FPN/model/conv2_block2_2_conv/Conv2D/fq_input_0" type="FakeQuantize" version="opset1">
			<data levels="256" auto_broadcast="numpy" />
			<input>
				<port id="0" precision="FP32">
					<dim>1</dim>
					<dim>64</dim>
					<dim>160</dim>
					<dim>160</dim>
				</port>
				<port id="1" precision="FP32" />
				<port id="2" precision="FP32" />
				<port id="3" precision="FP32" />
				<port id="4" precision="FP32" />
			</input>
			<output>
				<port id="5" precision="FP32">
					<dim>1</dim>
					<dim>64</dim>
					<dim>160</dim>
					<dim>160</dim>
				</port>
			</output>
		</layer>
		<layer id="114" name="StatefulPartitionedCall/ResNet50V1_FPN/model/conv2_block2_2_bn/FusedBatchNormV3/mean/Fused_Mul__copy98912594/restored_convert/quantized1496724271" type="Const" version="opset1">
			<data element_type="i8" shape="64, 64, 3, 3" offset="107278" size="36864" />
			<output>
				<port id="0" precision="I8">
					<dim>64</dim>
					<dim>64</dim>
					<dim>3</dim>
					<dim>3</dim>
				</port>
			</output>
		</layer>
		<layer id="115" name="StatefulPartitionedCall/ResNet50V1_FPN/model/conv2_block2_2_bn/FusedBatchNormV3/mean/Fused_Mul__copy98912594/restored_convert/quantized/to_f32" type="Convert" version="opset1">
			<data destination_type="f32" />
			<input>
				<port id="0" precision="I8">
					<dim>64</dim>
					<dim>64</dim>
					<dim>3</dim>
					<dim>3</dim>
				</port>
			</input>
			<output>
				<port id="1" precision="FP32">
					<dim>64</dim>
					<dim>64</dim>
					<dim>3</dim>
					<dim>3</dim>
				</port>
			</output>
		</layer>
		<layer id="116" name="StatefulPartitionedCall/ResNet50V1_FPN/model/conv2_block2_2_conv/Conv2D/fq_weights_1/zero_point1498621901" type="Const" version="opset1">
			<data element_type="f32" shape="64, 1, 1, 1" offset="144142" size="256" />
			<output>
				<port id="0" precision="FP32">
					<dim>64</dim>
					<dim>1</dim>
					<dim>1</dim>
					<dim>1</dim>
				</port>
			</output>
		</layer>
		<layer id="117" name="StatefulPartitionedCall/ResNet50V1_FPN/model/conv2_block2_2_conv/Conv2D/fq_weights_1/minus_zp" type="Subtract" version="opset1">
			<data auto_broadcast="numpy" />
			<input>
				<port id="0" precision="FP32">
					<dim>64</dim>
					<dim>64</dim>
					<dim>3</dim>
					<dim>3</dim>
				</port>
				<port id="1" precision="FP32">
					<dim>64</dim>
					<dim>1</dim>
					<dim>1</dim>
					<dim>1</dim>
				</port>
			</input>
			<output>
				<port id="2" precision="FP32">
					<dim>64</dim>
					<dim>64</dim>
					<dim>3</dim>
					<dim>3</dim>
				</port>
			</output>
		</layer>
		<layer id="118" name="StatefulPartitionedCall/ResNet50V1_FPN/model/conv2_block2_2_conv/Conv2D/fq_weights_1/scale1497524364" type="Const" version="opset1">
			<data element_type="f32" shape="64, 1, 1, 1" offset="144398" size="256" />
			<output>
				<port id="0" precision="FP32">
					<dim>64</dim>
					<dim>1</dim>
					<dim>1</dim>
					<dim>1</dim>
				</port>
			</output>
		</layer>
		<layer id="119" name="StatefulPartitionedCall/ResNet50V1_FPN/model/conv2_block2_2_conv/Conv2D/fq_weights_1/mulpiply_by_scale" type="Multiply" version="opset1">
			<data auto_broadcast="numpy" />
			<input>
				<port id="0" precision="FP32">
					<dim>64</dim>
					<dim>64</dim>
					<dim>3</dim>
					<dim>3</dim>
				</port>
				<port id="1" precision="FP32">
					<dim>64</dim>
					<dim>1</dim>
					<dim>1</dim>
					<dim>1</dim>
				</port>
			</input>
			<output>
				<port id="2" precision="FP32">
					<dim>64</dim>
					<dim>64</dim>
					<dim>3</dim>
					<dim>3</dim>
				</port>
			</output>
		</layer>
		<layer id="120" name="StatefulPartitionedCall/ResNet50V1_FPN/model/conv2_block2_2_conv/Conv2D" type="Convolution" version="opset1">
			<data strides="1, 1" dilations="1, 1" pads_begin="0, 0" pads_end="0, 0" auto_pad="same_upper" />
			<rt_info>
				<attribute name="fused_names" version="0" value="StatefulPartitionedCall/ResNet50V1_FPN/model/conv2_block2_2_conv/Conv2D" />
			</rt_info>
			<input>
				<port id="0" precision="FP32">
					<dim>1</dim>
					<dim>64</dim>
					<dim>160</dim>
					<dim>160</dim>
				</port>
				<port id="1" precision="FP32">
					<dim>64</dim>
					<dim>64</dim>
					<dim>3</dim>
					<dim>3</dim>
				</port>
			</input>
			<output>
				<port id="2" precision="FP32">
					<dim>1</dim>
					<dim>64</dim>
					<dim>160</dim>
					<dim>160</dim>
				</port>
			</output>
		</layer>
		<layer id="121" name="data_add_494634946899222468" type="Const" version="opset1">
			<data element_type="f16" shape="1, 64, 1, 1" offset="144654" size="128" />
			<output>
				<port id="0" precision="FP16">
					<dim>1</dim>
					<dim>64</dim>
					<dim>1</dim>
					<dim>1</dim>
				</port>
			</output>
		</layer>
		<layer id="122" name="data_add_494634946899212595/restored_convert" type="Convert" version="opset1">
			<data destination_type="f32" />
			<rt_info>
				<attribute name="decompression" version="0" />
				<attribute name="fused_names" version="0" value="data_add_4946349468" />
			</rt_info>
			<input>
				<port id="0" precision="FP16">
					<dim>1</dim>
					<dim>64</dim>
					<dim>1</dim>
					<dim>1</dim>
				</port>
			</input>
			<output>
				<port id="1" precision="FP32">
					<dim>1</dim>
					<dim>64</dim>
					<dim>1</dim>
					<dim>1</dim>
				</port>
			</output>
		</layer>
		<layer id="123" name="StatefulPartitionedCall/ResNet50V1_FPN/model/conv2_block2_2_bn/FusedBatchNormV3/variance/Fused_Add_" type="Add" version="opset1">
			<data auto_broadcast="numpy" />
			<rt_info>
				<attribute name="fused_names" version="0" value="StatefulPartitionedCall/ResNet50V1_FPN/model/conv2_block2_2_bn/FusedBatchNormV3/variance/Fused_Add_" />
			</rt_info>
			<input>
				<port id="0" precision="FP32">
					<dim>1</dim>
					<dim>64</dim>
					<dim>160</dim>
					<dim>160</dim>
				</port>
				<port id="1" precision="FP32">
					<dim>1</dim>
					<dim>64</dim>
					<dim>1</dim>
					<dim>1</dim>
				</port>
			</input>
			<output>
				<port id="2" precision="FP32" names="StatefulPartitionedCall/ResNet50V1_FPN/model/conv2_block2_2_bn/FusedBatchNormV3:0">
					<dim>1</dim>
					<dim>64</dim>
					<dim>160</dim>
					<dim>160</dim>
				</port>
			</output>
		</layer>
		<layer id="124" name="StatefulPartitionedCall/ResNet50V1_FPN/model/conv2_block2_2_relu/Relu6" type="Clamp" version="opset1">
			<data min="0" max="6" />
			<rt_info>
				<attribute name="fused_names" version="0" value="StatefulPartitionedCall/ResNet50V1_FPN/model/conv2_block2_2_relu/Relu6" />
			</rt_info>
			<input>
				<port id="0" precision="FP32">
					<dim>1</dim>
					<dim>64</dim>
					<dim>160</dim>
					<dim>160</dim>
				</port>
			</input>
			<output>
				<port id="1" precision="FP32" names="StatefulPartitionedCall/ResNet50V1_FPN/model/conv2_block2_2_relu/Relu6:0">
					<dim>1</dim>
					<dim>64</dim>
					<dim>160</dim>
					<dim>160</dim>
				</port>
			</output>
		</layer>
		<layer id="125" name="4721472523566" type="Const" version="opset1">
			<data element_type="f32" shape="" offset="10094" size="4" />
			<output>
				<port id="0" precision="FP32" />
			</output>
		</layer>
		<layer id="126" name="4722472623011" type="Const" version="opset1">
			<data element_type="f32" shape="" offset="144782" size="4" />
			<output>
				<port id="0" precision="FP32" />
			</output>
		</layer>
		<layer id="127" name="4723472722297" type="Const" version="opset1">
			<data element_type="f32" shape="" offset="10094" size="4" />
			<output>
				<port id="0" precision="FP32" />
			</output>
		</layer>
		<layer id="128" name="4724472821787" type="Const" version="opset1">
			<data element_type="f32" shape="" offset="144782" size="4" />
			<output>
				<port id="0" precision="FP32" />
			</output>
		</layer>
		<layer id="129" name="StatefulPartitionedCall/ResNet50V1_FPN/model/conv2_block2_3_conv/Conv2D/fq_input_0" type="FakeQuantize" version="opset1">
			<data levels="256" auto_broadcast="numpy" />
			<input>
				<port id="0" precision="FP32">
					<dim>1</dim>
					<dim>64</dim>
					<dim>160</dim>
					<dim>160</dim>
				</port>
				<port id="1" precision="FP32" />
				<port id="2" precision="FP32" />
				<port id="3" precision="FP32" />
				<port id="4" precision="FP32" />
			</input>
			<output>
				<port id="5" precision="FP32">
					<dim>1</dim>
					<dim>64</dim>
					<dim>160</dim>
					<dim>160</dim>
				</port>
			</output>
		</layer>
		<layer id="130" name="StatefulPartitionedCall/ResNet50V1_FPN/model/conv2_block2_3_bn/FusedBatchNormV3/mean/Fused_Mul__copy99612596/restored_convert/quantized1493723947" type="Const" version="opset1">
			<data element_type="i8" shape="256, 64, 1, 1" offset="144786" size="16384" />
			<output>
				<port id="0" precision="I8">
					<dim>256</dim>
					<dim>64</dim>
					<dim>1</dim>
					<dim>1</dim>
				</port>
			</output>
		</layer>
		<layer id="131" name="StatefulPartitionedCall/ResNet50V1_FPN/model/conv2_block2_3_bn/FusedBatchNormV3/mean/Fused_Mul__copy99612596/restored_convert/quantized/to_f32" type="Convert" version="opset1">
			<data destination_type="f32" />
			<input>
				<port id="0" precision="I8">
					<dim>256</dim>
					<dim>64</dim>
					<dim>1</dim>
					<dim>1</dim>
				</port>
			</input>
			<output>
				<port id="1" precision="FP32">
					<dim>256</dim>
					<dim>64</dim>
					<dim>1</dim>
					<dim>1</dim>
				</port>
			</output>
		</layer>
		<layer id="132" name="StatefulPartitionedCall/ResNet50V1_FPN/model/conv2_block2_3_conv/Conv2D/fq_weights_1/zero_point1495621730" type="Const" version="opset1">
			<data element_type="f32" shape="256, 1, 1, 1" offset="161170" size="1024" />
			<output>
				<port id="0" precision="FP32">
					<dim>256</dim>
					<dim>1</dim>
					<dim>1</dim>
					<dim>1</dim>
				</port>
			</output>
		</layer>
		<layer id="133" name="StatefulPartitionedCall/ResNet50V1_FPN/model/conv2_block2_3_conv/Conv2D/fq_weights_1/minus_zp" type="Subtract" version="opset1">
			<data auto_broadcast="numpy" />
			<input>
				<port id="0" precision="FP32">
					<dim>256</dim>
					<dim>64</dim>
					<dim>1</dim>
					<dim>1</dim>
				</port>
				<port id="1" precision="FP32">
					<dim>256</dim>
					<dim>1</dim>
					<dim>1</dim>
					<dim>1</dim>
				</port>
			</input>
			<output>
				<port id="2" precision="FP32">
					<dim>256</dim>
					<dim>64</dim>
					<dim>1</dim>
					<dim>1</dim>
				</port>
			</output>
		</layer>
		<layer id="134" name="StatefulPartitionedCall/ResNet50V1_FPN/model/conv2_block2_3_conv/Conv2D/fq_weights_1/scale1494521586" type="Const" version="opset1">
			<data element_type="f32" shape="256, 1, 1, 1" offset="162194" size="1024" />
			<output>
				<port id="0" precision="FP32">
					<dim>256</dim>
					<dim>1</dim>
					<dim>1</dim>
					<dim>1</dim>
				</port>
			</output>
		</layer>
		<layer id="135" name="StatefulPartitionedCall/ResNet50V1_FPN/model/conv2_block2_3_conv/Conv2D/fq_weights_1/mulpiply_by_scale" type="Multiply" version="opset1">
			<data auto_broadcast="numpy" />
			<input>
				<port id="0" precision="FP32">
					<dim>256</dim>
					<dim>64</dim>
					<dim>1</dim>
					<dim>1</dim>
				</port>
				<port id="1" precision="FP32">
					<dim>256</dim>
					<dim>1</dim>
					<dim>1</dim>
					<dim>1</dim>
				</port>
			</input>
			<output>
				<port id="2" precision="FP32">
					<dim>256</dim>
					<dim>64</dim>
					<dim>1</dim>
					<dim>1</dim>
				</port>
			</output>
		</layer>
		<layer id="136" name="StatefulPartitionedCall/ResNet50V1_FPN/model/conv2_block2_3_conv/Conv2D" type="Convolution" version="opset1">
			<data strides="1, 1" dilations="1, 1" pads_begin="0, 0" pads_end="0, 0" auto_pad="same_upper" />
			<rt_info>
				<attribute name="fused_names" version="0" value="StatefulPartitionedCall/ResNet50V1_FPN/model/conv2_block2_3_conv/Conv2D" />
			</rt_info>
			<input>
				<port id="0" precision="FP32">
					<dim>1</dim>
					<dim>64</dim>
					<dim>160</dim>
					<dim>160</dim>
				</port>
				<port id="1" precision="FP32">
					<dim>256</dim>
					<dim>64</dim>
					<dim>1</dim>
					<dim>1</dim>
				</port>
			</input>
			<output>
				<port id="2" precision="FP32">
					<dim>1</dim>
					<dim>256</dim>
					<dim>160</dim>
					<dim>160</dim>
				</port>
			</output>
		</layer>
		<layer id="137" name="data_add_494714947699921694" type="Const" version="opset1">
			<data element_type="f16" shape="1, 256, 1, 1" offset="163218" size="512" />
			<output>
				<port id="0" precision="FP16">
					<dim>1</dim>
					<dim>256</dim>
					<dim>1</dim>
					<dim>1</dim>
				</port>
			</output>
		</layer>
		<layer id="138" name="data_add_494714947699912597/restored_convert" type="Convert" version="opset1">
			<data destination_type="f32" />
			<rt_info>
				<attribute name="decompression" version="0" />
				<attribute name="fused_names" version="0" value="data_add_4947149476" />
			</rt_info>
			<input>
				<port id="0" precision="FP16">
					<dim>1</dim>
					<dim>256</dim>
					<dim>1</dim>
					<dim>1</dim>
				</port>
			</input>
			<output>
				<port id="1" precision="FP32">
					<dim>1</dim>
					<dim>256</dim>
					<dim>1</dim>
					<dim>1</dim>
				</port>
			</output>
		</layer>
		<layer id="139" name="StatefulPartitionedCall/ResNet50V1_FPN/model/conv2_block2_3_bn/FusedBatchNormV3/variance/Fused_Add_" type="Add" version="opset1">
			<data auto_broadcast="numpy" />
			<rt_info>
				<attribute name="fused_names" version="0" value="StatefulPartitionedCall/ResNet50V1_FPN/model/conv2_block2_3_bn/FusedBatchNormV3/variance/Fused_Add_" />
			</rt_info>
			<input>
				<port id="0" precision="FP32">
					<dim>1</dim>
					<dim>256</dim>
					<dim>160</dim>
					<dim>160</dim>
				</port>
				<port id="1" precision="FP32">
					<dim>1</dim>
					<dim>256</dim>
					<dim>1</dim>
					<dim>1</dim>
				</port>
			</input>
			<output>
				<port id="2" precision="FP32" names="StatefulPartitionedCall/ResNet50V1_FPN/model/conv2_block2_3_bn/FusedBatchNormV3:0">
					<dim>1</dim>
					<dim>256</dim>
					<dim>160</dim>
					<dim>160</dim>
				</port>
			</output>
		</layer>
		<layer id="140" name="4271427521688" type="Const" version="opset1">
			<data element_type="f32" shape="" offset="163730" size="4" />
			<output>
				<port id="0" precision="FP32" />
			</output>
		</layer>
		<layer id="141" name="4272427621985" type="Const" version="opset1">
			<data element_type="f32" shape="" offset="163734" size="4" />
			<output>
				<port id="0" precision="FP32" />
			</output>
		</layer>
		<layer id="142" name="4273427722405" type="Const" version="opset1">
			<data element_type="f32" shape="" offset="163730" size="4" />
			<output>
				<port id="0" precision="FP32" />
			</output>
		</layer>
		<layer id="143" name="4274427824442" type="Const" version="opset1">
			<data element_type="f32" shape="" offset="163734" size="4" />
			<output>
				<port id="0" precision="FP32" />
			</output>
		</layer>
		<layer id="144" name="StatefulPartitionedCall/ResNet50V1_FPN/model/conv2_block2_add/add/fq_input_1" type="FakeQuantize" version="opset1">
			<data levels="256" auto_broadcast="numpy" />
			<input>
				<port id="0" precision="FP32">
					<dim>1</dim>
					<dim>256</dim>
					<dim>160</dim>
					<dim>160</dim>
				</port>
				<port id="1" precision="FP32" />
				<port id="2" precision="FP32" />
				<port id="3" precision="FP32" />
				<port id="4" precision="FP32" />
			</input>
			<output>
				<port id="5" precision="FP32">
					<dim>1</dim>
					<dim>256</dim>
					<dim>160</dim>
					<dim>160</dim>
				</port>
			</output>
		</layer>
		<layer id="145" name="StatefulPartitionedCall/ResNet50V1_FPN/model/conv2_block2_add/add" type="Add" version="opset1">
			<data auto_broadcast="numpy" />
			<rt_info>
				<attribute name="fused_names" version="0" value="StatefulPartitionedCall/ResNet50V1_FPN/model/conv2_block2_add/add" />
			</rt_info>
			<input>
				<port id="0" precision="FP32">
					<dim>1</dim>
					<dim>256</dim>
					<dim>160</dim>
					<dim>160</dim>
				</port>
				<port id="1" precision="FP32">
					<dim>1</dim>
					<dim>256</dim>
					<dim>160</dim>
					<dim>160</dim>
				</port>
			</input>
			<output>
				<port id="2" precision="FP32" names="StatefulPartitionedCall/ResNet50V1_FPN/model/conv2_block2_add/add:0">
					<dim>1</dim>
					<dim>256</dim>
					<dim>160</dim>
					<dim>160</dim>
				</port>
			</output>
		</layer>
		<layer id="146" name="StatefulPartitionedCall/ResNet50V1_FPN/model/conv2_block2_out/Relu6" type="Clamp" version="opset1">
			<data min="0" max="6" />
			<rt_info>
				<attribute name="fused_names" version="0" value="StatefulPartitionedCall/ResNet50V1_FPN/model/conv2_block2_out/Relu6" />
			</rt_info>
			<input>
				<port id="0" precision="FP32">
					<dim>1</dim>
					<dim>256</dim>
					<dim>160</dim>
					<dim>160</dim>
				</port>
			</input>
			<output>
				<port id="1" precision="FP32" names="StatefulPartitionedCall/ResNet50V1_FPN/model/conv2_block2_out/Relu6:0">
					<dim>1</dim>
					<dim>256</dim>
					<dim>160</dim>
					<dim>160</dim>
				</port>
			</output>
		</layer>
		<layer id="147" name="3361336521619" type="Const" version="opset1">
			<data element_type="f32" shape="" offset="10094" size="4" />
			<output>
				<port id="0" precision="FP32" />
			</output>
		</layer>
		<layer id="148" name="3362336622159" type="Const" version="opset1">
			<data element_type="f32" shape="" offset="10098" size="4" />
			<output>
				<port id="0" precision="FP32" />
			</output>
		</layer>
		<layer id="149" name="3363336722876" type="Const" version="opset1">
			<data element_type="f32" shape="" offset="10094" size="4" />
			<output>
				<port id="0" precision="FP32" />
			</output>
		</layer>
		<layer id="150" name="3364336824487" type="Const" version="opset1">
			<data element_type="f32" shape="" offset="10098" size="4" />
			<output>
				<port id="0" precision="FP32" />
			</output>
		</layer>
		<layer id="151" name="StatefulPartitionedCall/ResNet50V1_FPN/model/conv2_block3_1_conv/Conv2D/fq_input_0" type="FakeQuantize" version="opset1">
			<data levels="256" auto_broadcast="numpy" />
			<input>
				<port id="0" precision="FP32">
					<dim>1</dim>
					<dim>256</dim>
					<dim>160</dim>
					<dim>160</dim>
				</port>
				<port id="1" precision="FP32" />
				<port id="2" precision="FP32" />
				<port id="3" precision="FP32" />
				<port id="4" precision="FP32" />
			</input>
			<output>
				<port id="5" precision="FP32">
					<dim>1</dim>
					<dim>256</dim>
					<dim>160</dim>
					<dim>160</dim>
				</port>
			</output>
		</layer>
		<layer id="152" name="StatefulPartitionedCall/ResNet50V1_FPN/model/conv2_block3_1_bn/FusedBatchNormV3/mean/Fused_Mul__copy100412598/restored_convert/quantized1589722786" type="Const" version="opset1">
			<data element_type="i8" shape="64, 256, 1, 1" offset="163738" size="16384" />
			<output>
				<port id="0" precision="I8">
					<dim>64</dim>
					<dim>256</dim>
					<dim>1</dim>
					<dim>1</dim>
				</port>
			</output>
		</layer>
		<layer id="153" name="StatefulPartitionedCall/ResNet50V1_FPN/model/conv2_block3_1_bn/FusedBatchNormV3/mean/Fused_Mul__copy100412598/restored_convert/quantized/to_f32" type="Convert" version="opset1">
			<data destination_type="f32" />
			<input>
				<port id="0" precision="I8">
					<dim>64</dim>
					<dim>256</dim>
					<dim>1</dim>
					<dim>1</dim>
				</port>
			</input>
			<output>
				<port id="1" precision="FP32">
					<dim>64</dim>
					<dim>256</dim>
					<dim>1</dim>
					<dim>1</dim>
				</port>
			</output>
		</layer>
		<layer id="154" name="StatefulPartitionedCall/ResNet50V1_FPN/model/conv2_block3_1_conv/Conv2D/fq_weights_1/zero_point1591622411" type="Const" version="opset1">
			<data element_type="f32" shape="64, 1, 1, 1" offset="180122" size="256" />
			<output>
				<port id="0" precision="FP32">
					<dim>64</dim>
					<dim>1</dim>
					<dim>1</dim>
					<dim>1</dim>
				</port>
			</output>
		</layer>
		<layer id="155" name="StatefulPartitionedCall/ResNet50V1_FPN/model/conv2_block3_1_conv/Conv2D/fq_weights_1/minus_zp" type="Subtract" version="opset1">
			<data auto_broadcast="numpy" />
			<input>
				<port id="0" precision="FP32">
					<dim>64</dim>
					<dim>256</dim>
					<dim>1</dim>
					<dim>1</dim>
				</port>
				<port id="1" precision="FP32">
					<dim>64</dim>
					<dim>1</dim>
					<dim>1</dim>
					<dim>1</dim>
				</port>
			</input>
			<output>
				<port id="2" precision="FP32">
					<dim>64</dim>
					<dim>256</dim>
					<dim>1</dim>
					<dim>1</dim>
				</port>
			</output>
		</layer>
		<layer id="156" name="StatefulPartitionedCall/ResNet50V1_FPN/model/conv2_block3_1_conv/Conv2D/fq_weights_1/scale1590521988" type="Const" version="opset1">
			<data element_type="f32" shape="64, 1, 1, 1" offset="180378" size="256" />
			<output>
				<port id="0" precision="FP32">
					<dim>64</dim>
					<dim>1</dim>
					<dim>1</dim>
					<dim>1</dim>
				</port>
			</output>
		</layer>
		<layer id="157" name="StatefulPartitionedCall/ResNet50V1_FPN/model/conv2_block3_1_conv/Conv2D/fq_weights_1/mulpiply_by_scale" type="Multiply" version="opset1">
			<data auto_broadcast="numpy" />
			<input>
				<port id="0" precision="FP32">
					<dim>64</dim>
					<dim>256</dim>
					<dim>1</dim>
					<dim>1</dim>
				</port>
				<port id="1" precision="FP32">
					<dim>64</dim>
					<dim>1</dim>
					<dim>1</dim>
					<dim>1</dim>
				</port>
			</input>
			<output>
				<port id="2" precision="FP32">
					<dim>64</dim>
					<dim>256</dim>
					<dim>1</dim>
					<dim>1</dim>
				</port>
			</output>
		</layer>
		<layer id="158" name="StatefulPartitionedCall/ResNet50V1_FPN/model/conv2_block3_1_conv/Conv2D" type="Convolution" version="opset1">
			<data strides="1, 1" dilations="1, 1" pads_begin="0, 0" pads_end="0, 0" auto_pad="same_upper" />
			<rt_info>
				<attribute name="fused_names" version="0" value="StatefulPartitionedCall/ResNet50V1_FPN/model/conv2_block3_1_conv/Conv2D" />
			</rt_info>
			<input>
				<port id="0" precision="FP32">
					<dim>1</dim>
					<dim>256</dim>
					<dim>160</dim>
					<dim>160</dim>
				</port>
				<port id="1" precision="FP32">
					<dim>64</dim>
					<dim>256</dim>
					<dim>1</dim>
					<dim>1</dim>
				</port>
			</input>
			<output>
				<port id="2" precision="FP32">
					<dim>1</dim>
					<dim>64</dim>
					<dim>160</dim>
					<dim>160</dim>
				</port>
			</output>
		</layer>
		<layer id="159" name="data_add_4947949484100722156" type="Const" version="opset1">
			<data element_type="f16" shape="1, 64, 1, 1" offset="180634" size="128" />
			<output>
				<port id="0" precision="FP16">
					<dim>1</dim>
					<dim>64</dim>
					<dim>1</dim>
					<dim>1</dim>
				</port>
			</output>
		</layer>
		<layer id="160" name="data_add_4947949484100712599/restored_convert" type="Convert" version="opset1">
			<data destination_type="f32" />
			<rt_info>
				<attribute name="decompression" version="0" />
				<attribute name="fused_names" version="0" value="data_add_4947949484" />
			</rt_info>
			<input>
				<port id="0" precision="FP16">
					<dim>1</dim>
					<dim>64</dim>
					<dim>1</dim>
					<dim>1</dim>
				</port>
			</input>
			<output>
				<port id="1" precision="FP32">
					<dim>1</dim>
					<dim>64</dim>
					<dim>1</dim>
					<dim>1</dim>
				</port>
			</output>
		</layer>
		<layer id="161" name="StatefulPartitionedCall/ResNet50V1_FPN/model/conv2_block3_1_bn/FusedBatchNormV3/variance/Fused_Add_" type="Add" version="opset1">
			<data auto_broadcast="numpy" />
			<rt_info>
				<attribute name="fused_names" version="0" value="StatefulPartitionedCall/ResNet50V1_FPN/model/conv2_block3_1_bn/FusedBatchNormV3/variance/Fused_Add_" />
			</rt_info>
			<input>
				<port id="0" precision="FP32">
					<dim>1</dim>
					<dim>64</dim>
					<dim>160</dim>
					<dim>160</dim>
				</port>
				<port id="1" precision="FP32">
					<dim>1</dim>
					<dim>64</dim>
					<dim>1</dim>
					<dim>1</dim>
				</port>
			</input>
			<output>
				<port id="2" precision="FP32" names="StatefulPartitionedCall/ResNet50V1_FPN/model/conv2_block3_1_bn/FusedBatchNormV3:0">
					<dim>1</dim>
					<dim>64</dim>
					<dim>160</dim>
					<dim>160</dim>
				</port>
			</output>
		</layer>
		<layer id="162" name="StatefulPartitionedCall/ResNet50V1_FPN/model/conv2_block3_1_relu/Relu6" type="Clamp" version="opset1">
			<data min="0" max="6" />
			<rt_info>
				<attribute name="fused_names" version="0" value="StatefulPartitionedCall/ResNet50V1_FPN/model/conv2_block3_1_relu/Relu6" />
			</rt_info>
			<input>
				<port id="0" precision="FP32">
					<dim>1</dim>
					<dim>64</dim>
					<dim>160</dim>
					<dim>160</dim>
				</port>
			</input>
			<output>
				<port id="1" precision="FP32" names="StatefulPartitionedCall/ResNet50V1_FPN/model/conv2_block3_1_relu/Relu6:0">
					<dim>1</dim>
					<dim>64</dim>
					<dim>160</dim>
					<dim>160</dim>
				</port>
			</output>
		</layer>
		<layer id="163" name="4561456522345" type="Const" version="opset1">
			<data element_type="f32" shape="" offset="10094" size="4" />
			<output>
				<port id="0" precision="FP32" />
			</output>
		</layer>
		<layer id="164" name="4562456624526" type="Const" version="opset1">
			<data element_type="f32" shape="" offset="180762" size="4" />
			<output>
				<port id="0" precision="FP32" />
			</output>
		</layer>
		<layer id="165" name="4563456722324" type="Const" version="opset1">
			<data element_type="f32" shape="" offset="10094" size="4" />
			<output>
				<port id="0" precision="FP32" />
			</output>
		</layer>
		<layer id="166" name="4564456822837" type="Const" version="opset1">
			<data element_type="f32" shape="" offset="180762" size="4" />
			<output>
				<port id="0" precision="FP32" />
			</output>
		</layer>
		<layer id="167" name="StatefulPartitionedCall/ResNet50V1_FPN/model/conv2_block3_2_conv/Conv2D/fq_input_0" type="FakeQuantize" version="opset1">
			<data levels="256" auto_broadcast="numpy" />
			<input>
				<port id="0" precision="FP32">
					<dim>1</dim>
					<dim>64</dim>
					<dim>160</dim>
					<dim>160</dim>
				</port>
				<port id="1" precision="FP32" />
				<port id="2" precision="FP32" />
				<port id="3" precision="FP32" />
				<port id="4" precision="FP32" />
			</input>
			<output>
				<port id="5" precision="FP32">
					<dim>1</dim>
					<dim>64</dim>
					<dim>160</dim>
					<dim>160</dim>
				</port>
			</output>
		</layer>
		<layer id="168" name="StatefulPartitionedCall/ResNet50V1_FPN/model/conv2_block3_2_bn/FusedBatchNormV3/mean/Fused_Mul__copy101112600/restored_convert/quantized1598722384" type="Const" version="opset1">
			<data element_type="i8" shape="64, 64, 3, 3" offset="180766" size="36864" />
			<output>
				<port id="0" precision="I8">
					<dim>64</dim>
					<dim>64</dim>
					<dim>3</dim>
					<dim>3</dim>
				</port>
			</output>
		</layer>
		<layer id="169" name="StatefulPartitionedCall/ResNet50V1_FPN/model/conv2_block3_2_bn/FusedBatchNormV3/mean/Fused_Mul__copy101112600/restored_convert/quantized/to_f32" type="Convert" version="opset1">
			<data destination_type="f32" />
			<input>
				<port id="0" precision="I8">
					<dim>64</dim>
					<dim>64</dim>
					<dim>3</dim>
					<dim>3</dim>
				</port>
			</input>
			<output>
				<port id="1" precision="FP32">
					<dim>64</dim>
					<dim>64</dim>
					<dim>3</dim>
					<dim>3</dim>
				</port>
			</output>
		</layer>
		<layer id="170" name="StatefulPartitionedCall/ResNet50V1_FPN/model/conv2_block3_2_conv/Conv2D/fq_weights_1/zero_point1600624481" type="Const" version="opset1">
			<data element_type="f32" shape="64, 1, 1, 1" offset="217630" size="256" />
			<output>
				<port id="0" precision="FP32">
					<dim>64</dim>
					<dim>1</dim>
					<dim>1</dim>
					<dim>1</dim>
				</port>
			</output>
		</layer>
		<layer id="171" name="StatefulPartitionedCall/ResNet50V1_FPN/model/conv2_block3_2_conv/Conv2D/fq_weights_1/minus_zp" type="Subtract" version="opset1">
			<data auto_broadcast="numpy" />
			<input>
				<port id="0" precision="FP32">
					<dim>64</dim>
					<dim>64</dim>
					<dim>3</dim>
					<dim>3</dim>
				</port>
				<port id="1" precision="FP32">
					<dim>64</dim>
					<dim>1</dim>
					<dim>1</dim>
					<dim>1</dim>
				</port>
			</input>
			<output>
				<port id="2" precision="FP32">
					<dim>64</dim>
					<dim>64</dim>
					<dim>3</dim>
					<dim>3</dim>
				</port>
			</output>
		</layer>
		<layer id="172" name="StatefulPartitionedCall/ResNet50V1_FPN/model/conv2_block3_2_conv/Conv2D/fq_weights_1/scale1599524301" type="Const" version="opset1">
			<data element_type="f32" shape="64, 1, 1, 1" offset="217886" size="256" />
			<output>
				<port id="0" precision="FP32">
					<dim>64</dim>
					<dim>1</dim>
					<dim>1</dim>
					<dim>1</dim>
				</port>
			</output>
		</layer>
		<layer id="173" name="StatefulPartitionedCall/ResNet50V1_FPN/model/conv2_block3_2_conv/Conv2D/fq_weights_1/mulpiply_by_scale" type="Multiply" version="opset1">
			<data auto_broadcast="numpy" />
			<input>
				<port id="0" precision="FP32">
					<dim>64</dim>
					<dim>64</dim>
					<dim>3</dim>
					<dim>3</dim>
				</port>
				<port id="1" precision="FP32">
					<dim>64</dim>
					<dim>1</dim>
					<dim>1</dim>
					<dim>1</dim>
				</port>
			</input>
			<output>
				<port id="2" precision="FP32">
					<dim>64</dim>
					<dim>64</dim>
					<dim>3</dim>
					<dim>3</dim>
				</port>
			</output>
		</layer>
		<layer id="174" name="StatefulPartitionedCall/ResNet50V1_FPN/model/conv2_block3_2_conv/Conv2D" type="Convolution" version="opset1">
			<data strides="1, 1" dilations="1, 1" pads_begin="0, 0" pads_end="0, 0" auto_pad="same_upper" />
			<rt_info>
				<attribute name="fused_names" version="0" value="StatefulPartitionedCall/ResNet50V1_FPN/model/conv2_block3_2_conv/Conv2D" />
			</rt_info>
			<input>
				<port id="0" precision="FP32">
					<dim>1</dim>
					<dim>64</dim>
					<dim>160</dim>
					<dim>160</dim>
				</port>
				<port id="1" precision="FP32">
					<dim>64</dim>
					<dim>64</dim>
					<dim>3</dim>
					<dim>3</dim>
				</port>
			</input>
			<output>
				<port id="2" precision="FP32">
					<dim>1</dim>
					<dim>64</dim>
					<dim>160</dim>
					<dim>160</dim>
				</port>
			</output>
		</layer>
		<layer id="175" name="data_add_4948749492101423389" type="Const" version="opset1">
			<data element_type="f16" shape="1, 64, 1, 1" offset="218142" size="128" />
			<output>
				<port id="0" precision="FP16">
					<dim>1</dim>
					<dim>64</dim>
					<dim>1</dim>
					<dim>1</dim>
				</port>
			</output>
		</layer>
		<layer id="176" name="data_add_4948749492101412601/restored_convert" type="Convert" version="opset1">
			<data destination_type="f32" />
			<rt_info>
				<attribute name="decompression" version="0" />
				<attribute name="fused_names" version="0" value="data_add_4948749492" />
			</rt_info>
			<input>
				<port id="0" precision="FP16">
					<dim>1</dim>
					<dim>64</dim>
					<dim>1</dim>
					<dim>1</dim>
				</port>
			</input>
			<output>
				<port id="1" precision="FP32">
					<dim>1</dim>
					<dim>64</dim>
					<dim>1</dim>
					<dim>1</dim>
				</port>
			</output>
		</layer>
		<layer id="177" name="StatefulPartitionedCall/ResNet50V1_FPN/model/conv2_block3_2_bn/FusedBatchNormV3/variance/Fused_Add_" type="Add" version="opset1">
			<data auto_broadcast="numpy" />
			<rt_info>
				<attribute name="fused_names" version="0" value="StatefulPartitionedCall/ResNet50V1_FPN/model/conv2_block3_2_bn/FusedBatchNormV3/variance/Fused_Add_" />
			</rt_info>
			<input>
				<port id="0" precision="FP32">
					<dim>1</dim>
					<dim>64</dim>
					<dim>160</dim>
					<dim>160</dim>
				</port>
				<port id="1" precision="FP32">
					<dim>1</dim>
					<dim>64</dim>
					<dim>1</dim>
					<dim>1</dim>
				</port>
			</input>
			<output>
				<port id="2" precision="FP32" names="StatefulPartitionedCall/ResNet50V1_FPN/model/conv2_block3_2_bn/FusedBatchNormV3:0">
					<dim>1</dim>
					<dim>64</dim>
					<dim>160</dim>
					<dim>160</dim>
				</port>
			</output>
		</layer>
		<layer id="178" name="StatefulPartitionedCall/ResNet50V1_FPN/model/conv2_block3_2_relu/Relu6" type="Clamp" version="opset1">
			<data min="0" max="6" />
			<rt_info>
				<attribute name="fused_names" version="0" value="StatefulPartitionedCall/ResNet50V1_FPN/model/conv2_block3_2_relu/Relu6" />
			</rt_info>
			<input>
				<port id="0" precision="FP32">
					<dim>1</dim>
					<dim>64</dim>
					<dim>160</dim>
					<dim>160</dim>
				</port>
			</input>
			<output>
				<port id="1" precision="FP32" names="StatefulPartitionedCall/ResNet50V1_FPN/model/conv2_block3_2_relu/Relu6:0">
					<dim>1</dim>
					<dim>64</dim>
					<dim>160</dim>
					<dim>160</dim>
				</port>
			</output>
		</layer>
		<layer id="179" name="3901390522924" type="Const" version="opset1">
			<data element_type="f32" shape="" offset="10094" size="4" />
			<output>
				<port id="0" precision="FP32" />
			</output>
		</layer>
		<layer id="180" name="3902390622996" type="Const" version="opset1">
			<data element_type="f32" shape="" offset="10098" size="4" />
			<output>
				<port id="0" precision="FP32" />
			</output>
		</layer>
		<layer id="181" name="3903390723884" type="Const" version="opset1">
			<data element_type="f32" shape="" offset="10094" size="4" />
			<output>
				<port id="0" precision="FP32" />
			</output>
		</layer>
		<layer id="182" name="3904390824349" type="Const" version="opset1">
			<data element_type="f32" shape="" offset="10098" size="4" />
			<output>
				<port id="0" precision="FP32" />
			</output>
		</layer>
		<layer id="183" name="StatefulPartitionedCall/ResNet50V1_FPN/model/conv2_block3_3_conv/Conv2D/fq_input_0" type="FakeQuantize" version="opset1">
			<data levels="256" auto_broadcast="numpy" />
			<input>
				<port id="0" precision="FP32">
					<dim>1</dim>
					<dim>64</dim>
					<dim>160</dim>
					<dim>160</dim>
				</port>
				<port id="1" precision="FP32" />
				<port id="2" precision="FP32" />
				<port id="3" precision="FP32" />
				<port id="4" precision="FP32" />
			</input>
			<output>
				<port id="5" precision="FP32">
					<dim>1</dim>
					<dim>64</dim>
					<dim>160</dim>
					<dim>160</dim>
				</port>
			</output>
		</layer>
		<layer id="184" name="StatefulPartitionedCall/ResNet50V1_FPN/model/conv2_block3_3_bn/FusedBatchNormV3/mean/Fused_Mul__copy101812602/restored_convert/quantized1619722855" type="Const" version="opset1">
			<data element_type="i8" shape="256, 64, 1, 1" offset="218270" size="16384" />
			<output>
				<port id="0" precision="I8">
					<dim>256</dim>
					<dim>64</dim>
					<dim>1</dim>
					<dim>1</dim>
				</port>
			</output>
		</layer>
		<layer id="185" name="StatefulPartitionedCall/ResNet50V1_FPN/model/conv2_block3_3_bn/FusedBatchNormV3/mean/Fused_Mul__copy101812602/restored_convert/quantized/to_f32" type="Convert" version="opset1">
			<data destination_type="f32" />
			<input>
				<port id="0" precision="I8">
					<dim>256</dim>
					<dim>64</dim>
					<dim>1</dim>
					<dim>1</dim>
				</port>
			</input>
			<output>
				<port id="1" precision="FP32">
					<dim>256</dim>
					<dim>64</dim>
					<dim>1</dim>
					<dim>1</dim>
				</port>
			</output>
		</layer>
		<layer id="186" name="StatefulPartitionedCall/ResNet50V1_FPN/model/conv2_block3_3_conv/Conv2D/fq_weights_1/zero_point1621623260" type="Const" version="opset1">
			<data element_type="f32" shape="256, 1, 1, 1" offset="234654" size="1024" />
			<output>
				<port id="0" precision="FP32">
					<dim>256</dim>
					<dim>1</dim>
					<dim>1</dim>
					<dim>1</dim>
				</port>
			</output>
		</layer>
		<layer id="187" name="StatefulPartitionedCall/ResNet50V1_FPN/model/conv2_block3_3_conv/Conv2D/fq_weights_1/minus_zp" type="Subtract" version="opset1">
			<data auto_broadcast="numpy" />
			<input>
				<port id="0" precision="FP32">
					<dim>256</dim>
					<dim>64</dim>
					<dim>1</dim>
					<dim>1</dim>
				</port>
				<port id="1" precision="FP32">
					<dim>256</dim>
					<dim>1</dim>
					<dim>1</dim>
					<dim>1</dim>
				</port>
			</input>
			<output>
				<port id="2" precision="FP32">
					<dim>256</dim>
					<dim>64</dim>
					<dim>1</dim>
					<dim>1</dim>
				</port>
			</output>
		</layer>
		<layer id="188" name="StatefulPartitionedCall/ResNet50V1_FPN/model/conv2_block3_3_conv/Conv2D/fq_weights_1/scale1620523941" type="Const" version="opset1">
			<data element_type="f32" shape="256, 1, 1, 1" offset="235678" size="1024" />
			<output>
				<port id="0" precision="FP32">
					<dim>256</dim>
					<dim>1</dim>
					<dim>1</dim>
					<dim>1</dim>
				</port>
			</output>
		</layer>
		<layer id="189" name="StatefulPartitionedCall/ResNet50V1_FPN/model/conv2_block3_3_conv/Conv2D/fq_weights_1/mulpiply_by_scale" type="Multiply" version="opset1">
			<data auto_broadcast="numpy" />
			<input>
				<port id="0" precision="FP32">
					<dim>256</dim>
					<dim>64</dim>
					<dim>1</dim>
					<dim>1</dim>
				</port>
				<port id="1" precision="FP32">
					<dim>256</dim>
					<dim>1</dim>
					<dim>1</dim>
					<dim>1</dim>
				</port>
			</input>
			<output>
				<port id="2" precision="FP32">
					<dim>256</dim>
					<dim>64</dim>
					<dim>1</dim>
					<dim>1</dim>
				</port>
			</output>
		</layer>
		<layer id="190" name="StatefulPartitionedCall/ResNet50V1_FPN/model/conv2_block3_3_conv/Conv2D" type="Convolution" version="opset1">
			<data strides="1, 1" dilations="1, 1" pads_begin="0, 0" pads_end="0, 0" auto_pad="same_upper" />
			<rt_info>
				<attribute name="fused_names" version="0" value="StatefulPartitionedCall/ResNet50V1_FPN/model/conv2_block3_3_conv/Conv2D" />
			</rt_info>
			<input>
				<port id="0" precision="FP32">
					<dim>1</dim>
					<dim>64</dim>
					<dim>160</dim>
					<dim>160</dim>
				</port>
				<port id="1" precision="FP32">
					<dim>256</dim>
					<dim>64</dim>
					<dim>1</dim>
					<dim>1</dim>
				</port>
			</input>
			<output>
				<port id="2" precision="FP32">
					<dim>1</dim>
					<dim>256</dim>
					<dim>160</dim>
					<dim>160</dim>
				</port>
			</output>
		</layer>
		<layer id="191" name="data_add_4949549500102124421" type="Const" version="opset1">
			<data element_type="f16" shape="1, 256, 1, 1" offset="236702" size="512" />
			<output>
				<port id="0" precision="FP16">
					<dim>1</dim>
					<dim>256</dim>
					<dim>1</dim>
					<dim>1</dim>
				</port>
			</output>
		</layer>
		<layer id="192" name="data_add_4949549500102112603/restored_convert" type="Convert" version="opset1">
			<data destination_type="f32" />
			<rt_info>
				<attribute name="decompression" version="0" />
				<attribute name="fused_names" version="0" value="data_add_4949549500" />
			</rt_info>
			<input>
				<port id="0" precision="FP16">
					<dim>1</dim>
					<dim>256</dim>
					<dim>1</dim>
					<dim>1</dim>
				</port>
			</input>
			<output>
				<port id="1" precision="FP32">
					<dim>1</dim>
					<dim>256</dim>
					<dim>1</dim>
					<dim>1</dim>
				</port>
			</output>
		</layer>
		<layer id="193" name="StatefulPartitionedCall/ResNet50V1_FPN/model/conv2_block3_3_bn/FusedBatchNormV3/variance/Fused_Add_" type="Add" version="opset1">
			<data auto_broadcast="numpy" />
			<rt_info>
				<attribute name="fused_names" version="0" value="StatefulPartitionedCall/ResNet50V1_FPN/model/conv2_block3_3_bn/FusedBatchNormV3/variance/Fused_Add_" />
			</rt_info>
			<input>
				<port id="0" precision="FP32">
					<dim>1</dim>
					<dim>256</dim>
					<dim>160</dim>
					<dim>160</dim>
				</port>
				<port id="1" precision="FP32">
					<dim>1</dim>
					<dim>256</dim>
					<dim>1</dim>
					<dim>1</dim>
				</port>
			</input>
			<output>
				<port id="2" precision="FP32" names="StatefulPartitionedCall/ResNet50V1_FPN/model/conv2_block3_3_bn/FusedBatchNormV3:0">
					<dim>1</dim>
					<dim>256</dim>
					<dim>160</dim>
					<dim>160</dim>
				</port>
			</output>
		</layer>
		<layer id="194" name="3471347521733" type="Const" version="opset1">
			<data element_type="f32" shape="" offset="237214" size="4" />
			<output>
				<port id="0" precision="FP32" />
			</output>
		</layer>
		<layer id="195" name="3472347623848" type="Const" version="opset1">
			<data element_type="f32" shape="" offset="237218" size="4" />
			<output>
				<port id="0" precision="FP32" />
			</output>
		</layer>
		<layer id="196" name="3473347724361" type="Const" version="opset1">
			<data element_type="f32" shape="" offset="237214" size="4" />
			<output>
				<port id="0" precision="FP32" />
			</output>
		</layer>
		<layer id="197" name="3474347823380" type="Const" version="opset1">
			<data element_type="f32" shape="" offset="237218" size="4" />
			<output>
				<port id="0" precision="FP32" />
			</output>
		</layer>
		<layer id="198" name="StatefulPartitionedCall/ResNet50V1_FPN/model/conv2_block3_add/add/fq_input_1" type="FakeQuantize" version="opset1">
			<data levels="256" auto_broadcast="numpy" />
			<input>
				<port id="0" precision="FP32">
					<dim>1</dim>
					<dim>256</dim>
					<dim>160</dim>
					<dim>160</dim>
				</port>
				<port id="1" precision="FP32" />
				<port id="2" precision="FP32" />
				<port id="3" precision="FP32" />
				<port id="4" precision="FP32" />
			</input>
			<output>
				<port id="5" precision="FP32">
					<dim>1</dim>
					<dim>256</dim>
					<dim>160</dim>
					<dim>160</dim>
				</port>
			</output>
		</layer>
		<layer id="199" name="StatefulPartitionedCall/ResNet50V1_FPN/model/conv2_block3_add/add" type="Add" version="opset1">
			<data auto_broadcast="numpy" />
			<rt_info>
				<attribute name="fused_names" version="0" value="StatefulPartitionedCall/ResNet50V1_FPN/model/conv2_block3_add/add" />
			</rt_info>
			<input>
				<port id="0" precision="FP32">
					<dim>1</dim>
					<dim>256</dim>
					<dim>160</dim>
					<dim>160</dim>
				</port>
				<port id="1" precision="FP32">
					<dim>1</dim>
					<dim>256</dim>
					<dim>160</dim>
					<dim>160</dim>
				</port>
			</input>
			<output>
				<port id="2" precision="FP32" names="StatefulPartitionedCall/ResNet50V1_FPN/model/conv2_block3_add/add:0">
					<dim>1</dim>
					<dim>256</dim>
					<dim>160</dim>
					<dim>160</dim>
				</port>
			</output>
		</layer>
		<layer id="200" name="StatefulPartitionedCall/ResNet50V1_FPN/model/conv2_block3_out/Relu6" type="Clamp" version="opset1">
			<data min="0" max="6" />
			<rt_info>
				<attribute name="fused_names" version="0" value="StatefulPartitionedCall/ResNet50V1_FPN/model/conv2_block3_out/Relu6" />
			</rt_info>
			<input>
				<port id="0" precision="FP32">
					<dim>1</dim>
					<dim>256</dim>
					<dim>160</dim>
					<dim>160</dim>
				</port>
			</input>
			<output>
				<port id="1" precision="FP32" names="StatefulPartitionedCall/ResNet50V1_FPN/model/conv2_block3_out/Relu6:0">
					<dim>1</dim>
					<dim>256</dim>
					<dim>160</dim>
					<dim>160</dim>
				</port>
			</output>
		</layer>
		<layer id="201" name="4021402524550" type="Const" version="opset1">
			<data element_type="f32" shape="" offset="10094" size="4" />
			<output>
				<port id="0" precision="FP32" />
			</output>
		</layer>
		<layer id="202" name="4022402623881" type="Const" version="opset1">
			<data element_type="f32" shape="" offset="10098" size="4" />
			<output>
				<port id="0" precision="FP32" />
			</output>
		</layer>
		<layer id="203" name="4023402721892" type="Const" version="opset1">
			<data element_type="f32" shape="" offset="10094" size="4" />
			<output>
				<port id="0" precision="FP32" />
			</output>
		</layer>
		<layer id="204" name="4024402822894" type="Const" version="opset1">
			<data element_type="f32" shape="" offset="10098" size="4" />
			<output>
				<port id="0" precision="FP32" />
			</output>
		</layer>
		<layer id="205" name="StatefulPartitionedCall/ResNet50V1_FPN/model/conv3_block1_0_conv/Conv2D/fq_input_0" type="FakeQuantize" version="opset1">
			<data levels="256" auto_broadcast="numpy" />
			<input>
				<port id="0" precision="FP32">
					<dim>1</dim>
					<dim>256</dim>
					<dim>160</dim>
					<dim>160</dim>
				</port>
				<port id="1" precision="FP32" />
				<port id="2" precision="FP32" />
				<port id="3" precision="FP32" />
				<port id="4" precision="FP32" />
			</input>
			<output>
				<port id="5" precision="FP32">
					<dim>1</dim>
					<dim>256</dim>
					<dim>160</dim>
					<dim>160</dim>
				</port>
			</output>
		</layer>
		<layer id="206" name="StatefulPartitionedCall/ResNet50V1_FPN/model/conv3_block1_0_bn/FusedBatchNormV3/mean/Fused_Mul__copy102612604/restored_convert/quantized1580722510" type="Const" version="opset1">
			<data element_type="i8" shape="512, 256, 1, 1" offset="237222" size="131072" />
			<output>
				<port id="0" precision="I8">
					<dim>512</dim>
					<dim>256</dim>
					<dim>1</dim>
					<dim>1</dim>
				</port>
			</output>
		</layer>
		<layer id="207" name="StatefulPartitionedCall/ResNet50V1_FPN/model/conv3_block1_0_bn/FusedBatchNormV3/mean/Fused_Mul__copy102612604/restored_convert/quantized/to_f32" type="Convert" version="opset1">
			<data destination_type="f32" />
			<input>
				<port id="0" precision="I8">
					<dim>512</dim>
					<dim>256</dim>
					<dim>1</dim>
					<dim>1</dim>
				</port>
			</input>
			<output>
				<port id="1" precision="FP32">
					<dim>512</dim>
					<dim>256</dim>
					<dim>1</dim>
					<dim>1</dim>
				</port>
			</output>
		</layer>
		<layer id="208" name="StatefulPartitionedCall/ResNet50V1_FPN/model/conv3_block1_0_conv/Conv2D/fq_weights_1/zero_point1582622699" type="Const" version="opset1">
			<data element_type="f32" shape="512, 1, 1, 1" offset="368294" size="2048" />
			<output>
				<port id="0" precision="FP32">
					<dim>512</dim>
					<dim>1</dim>
					<dim>1</dim>
					<dim>1</dim>
				</port>
			</output>
		</layer>
		<layer id="209" name="StatefulPartitionedCall/ResNet50V1_FPN/model/conv3_block1_0_conv/Conv2D/fq_weights_1/minus_zp" type="Subtract" version="opset1">
			<data auto_broadcast="numpy" />
			<input>
				<port id="0" precision="FP32">
					<dim>512</dim>
					<dim>256</dim>
					<dim>1</dim>
					<dim>1</dim>
				</port>
				<port id="1" precision="FP32">
					<dim>512</dim>
					<dim>1</dim>
					<dim>1</dim>
					<dim>1</dim>
				</port>
			</input>
			<output>
				<port id="2" precision="FP32">
					<dim>512</dim>
					<dim>256</dim>
					<dim>1</dim>
					<dim>1</dim>
				</port>
			</output>
		</layer>
		<layer id="210" name="StatefulPartitionedCall/ResNet50V1_FPN/model/conv3_block1_0_conv/Conv2D/fq_weights_1/scale1581524151" type="Const" version="opset1">
			<data element_type="f32" shape="512, 1, 1, 1" offset="370342" size="2048" />
			<output>
				<port id="0" precision="FP32">
					<dim>512</dim>
					<dim>1</dim>
					<dim>1</dim>
					<dim>1</dim>
				</port>
			</output>
		</layer>
		<layer id="211" name="StatefulPartitionedCall/ResNet50V1_FPN/model/conv3_block1_0_conv/Conv2D/fq_weights_1/mulpiply_by_scale" type="Multiply" version="opset1">
			<data auto_broadcast="numpy" />
			<input>
				<port id="0" precision="FP32">
					<dim>512</dim>
					<dim>256</dim>
					<dim>1</dim>
					<dim>1</dim>
				</port>
				<port id="1" precision="FP32">
					<dim>512</dim>
					<dim>1</dim>
					<dim>1</dim>
					<dim>1</dim>
				</port>
			</input>
			<output>
				<port id="2" precision="FP32">
					<dim>512</dim>
					<dim>256</dim>
					<dim>1</dim>
					<dim>1</dim>
				</port>
			</output>
		</layer>
		<layer id="212" name="StatefulPartitionedCall/ResNet50V1_FPN/model/conv3_block1_0_conv/Conv2D" type="Convolution" version="opset1">
			<data strides="2, 2" dilations="1, 1" pads_begin="0, 0" pads_end="0, 0" auto_pad="same_upper" />
			<rt_info>
				<attribute name="fused_names" version="0" value="StatefulPartitionedCall/ResNet50V1_FPN/model/conv3_block1_0_conv/Conv2D" />
			</rt_info>
			<input>
				<port id="0" precision="FP32">
					<dim>1</dim>
					<dim>256</dim>
					<dim>160</dim>
					<dim>160</dim>
				</port>
				<port id="1" precision="FP32">
					<dim>512</dim>
					<dim>256</dim>
					<dim>1</dim>
					<dim>1</dim>
				</port>
			</input>
			<output>
				<port id="2" precision="FP32">
					<dim>1</dim>
					<dim>512</dim>
					<dim>80</dim>
					<dim>80</dim>
				</port>
			</output>
		</layer>
		<layer id="213" name="data_add_4952749532102922459" type="Const" version="opset1">
			<data element_type="f16" shape="1, 512, 1, 1" offset="372390" size="1024" />
			<output>
				<port id="0" precision="FP16">
					<dim>1</dim>
					<dim>512</dim>
					<dim>1</dim>
					<dim>1</dim>
				</port>
			</output>
		</layer>
		<layer id="214" name="data_add_4952749532102912605/restored_convert" type="Convert" version="opset1">
			<data destination_type="f32" />
			<rt_info>
				<attribute name="decompression" version="0" />
				<attribute name="fused_names" version="0" value="data_add_4952749532" />
			</rt_info>
			<input>
				<port id="0" precision="FP16">
					<dim>1</dim>
					<dim>512</dim>
					<dim>1</dim>
					<dim>1</dim>
				</port>
			</input>
			<output>
				<port id="1" precision="FP32">
					<dim>1</dim>
					<dim>512</dim>
					<dim>1</dim>
					<dim>1</dim>
				</port>
			</output>
		</layer>
		<layer id="215" name="StatefulPartitionedCall/ResNet50V1_FPN/model/conv3_block1_0_bn/FusedBatchNormV3/variance/Fused_Add_" type="Add" version="opset1">
			<data auto_broadcast="numpy" />
			<rt_info>
				<attribute name="fused_names" version="0" value="StatefulPartitionedCall/ResNet50V1_FPN/model/conv3_block1_0_bn/FusedBatchNormV3/variance/Fused_Add_" />
			</rt_info>
			<input>
				<port id="0" precision="FP32">
					<dim>1</dim>
					<dim>512</dim>
					<dim>80</dim>
					<dim>80</dim>
				</port>
				<port id="1" precision="FP32">
					<dim>1</dim>
					<dim>512</dim>
					<dim>1</dim>
					<dim>1</dim>
				</port>
			</input>
			<output>
				<port id="2" precision="FP32" names="StatefulPartitionedCall/ResNet50V1_FPN/model/conv3_block1_0_bn/FusedBatchNormV3:0">
					<dim>1</dim>
					<dim>512</dim>
					<dim>80</dim>
					<dim>80</dim>
				</port>
			</output>
		</layer>
		<layer id="216" name="3621362521766" type="Const" version="opset1">
			<data element_type="f32" shape="" offset="373414" size="4" />
			<output>
				<port id="0" precision="FP32" />
			</output>
		</layer>
		<layer id="217" name="3622362622690" type="Const" version="opset1">
			<data element_type="f32" shape="" offset="373418" size="4" />
			<output>
				<port id="0" precision="FP32" />
			</output>
		</layer>
		<layer id="218" name="3623362723173" type="Const" version="opset1">
			<data element_type="f32" shape="" offset="373414" size="4" />
			<output>
				<port id="0" precision="FP32" />
			</output>
		</layer>
		<layer id="219" name="3624362824379" type="Const" version="opset1">
			<data element_type="f32" shape="" offset="373418" size="4" />
			<output>
				<port id="0" precision="FP32" />
			</output>
		</layer>
		<layer id="220" name="StatefulPartitionedCall/ResNet50V1_FPN/model/conv3_block1_add/add/fq_input_0" type="FakeQuantize" version="opset1">
			<data levels="256" auto_broadcast="numpy" />
			<input>
				<port id="0" precision="FP32">
					<dim>1</dim>
					<dim>512</dim>
					<dim>80</dim>
					<dim>80</dim>
				</port>
				<port id="1" precision="FP32" />
				<port id="2" precision="FP32" />
				<port id="3" precision="FP32" />
				<port id="4" precision="FP32" />
			</input>
			<output>
				<port id="5" precision="FP32">
					<dim>1</dim>
					<dim>512</dim>
					<dim>80</dim>
					<dim>80</dim>
				</port>
			</output>
		</layer>
		<layer id="221" name="StatefulPartitionedCall/ResNet50V1_FPN/model/conv3_block1_1_bn/FusedBatchNormV3/mean/Fused_Mul__copy103212606/restored_convert/quantized1688723080" type="Const" version="opset1">
			<data element_type="i8" shape="128, 256, 1, 1" offset="373422" size="32768" />
			<output>
				<port id="0" precision="I8">
					<dim>128</dim>
					<dim>256</dim>
					<dim>1</dim>
					<dim>1</dim>
				</port>
			</output>
		</layer>
		<layer id="222" name="StatefulPartitionedCall/ResNet50V1_FPN/model/conv3_block1_1_bn/FusedBatchNormV3/mean/Fused_Mul__copy103212606/restored_convert/quantized/to_f32" type="Convert" version="opset1">
			<data destination_type="f32" />
			<input>
				<port id="0" precision="I8">
					<dim>128</dim>
					<dim>256</dim>
					<dim>1</dim>
					<dim>1</dim>
				</port>
			</input>
			<output>
				<port id="1" precision="FP32">
					<dim>128</dim>
					<dim>256</dim>
					<dim>1</dim>
					<dim>1</dim>
				</port>
			</output>
		</layer>
		<layer id="223" name="StatefulPartitionedCall/ResNet50V1_FPN/model/conv3_block1_1_conv/Conv2D/fq_weights_1/zero_point1690624103" type="Const" version="opset1">
			<data element_type="f32" shape="128, 1, 1, 1" offset="406190" size="512" />
			<output>
				<port id="0" precision="FP32">
					<dim>128</dim>
					<dim>1</dim>
					<dim>1</dim>
					<dim>1</dim>
				</port>
			</output>
		</layer>
		<layer id="224" name="StatefulPartitionedCall/ResNet50V1_FPN/model/conv3_block1_1_conv/Conv2D/fq_weights_1/minus_zp" type="Subtract" version="opset1">
			<data auto_broadcast="numpy" />
			<input>
				<port id="0" precision="FP32">
					<dim>128</dim>
					<dim>256</dim>
					<dim>1</dim>
					<dim>1</dim>
				</port>
				<port id="1" precision="FP32">
					<dim>128</dim>
					<dim>1</dim>
					<dim>1</dim>
					<dim>1</dim>
				</port>
			</input>
			<output>
				<port id="2" precision="FP32">
					<dim>128</dim>
					<dim>256</dim>
					<dim>1</dim>
					<dim>1</dim>
				</port>
			</output>
		</layer>
		<layer id="225" name="StatefulPartitionedCall/ResNet50V1_FPN/model/conv3_block1_1_conv/Conv2D/fq_weights_1/scale1689523578" type="Const" version="opset1">
			<data element_type="f32" shape="128, 1, 1, 1" offset="406702" size="512" />
			<output>
				<port id="0" precision="FP32">
					<dim>128</dim>
					<dim>1</dim>
					<dim>1</dim>
					<dim>1</dim>
				</port>
			</output>
		</layer>
		<layer id="226" name="StatefulPartitionedCall/ResNet50V1_FPN/model/conv3_block1_1_conv/Conv2D/fq_weights_1/mulpiply_by_scale" type="Multiply" version="opset1">
			<data auto_broadcast="numpy" />
			<input>
				<port id="0" precision="FP32">
					<dim>128</dim>
					<dim>256</dim>
					<dim>1</dim>
					<dim>1</dim>
				</port>
				<port id="1" precision="FP32">
					<dim>128</dim>
					<dim>1</dim>
					<dim>1</dim>
					<dim>1</dim>
				</port>
			</input>
			<output>
				<port id="2" precision="FP32">
					<dim>128</dim>
					<dim>256</dim>
					<dim>1</dim>
					<dim>1</dim>
				</port>
			</output>
		</layer>
		<layer id="227" name="StatefulPartitionedCall/ResNet50V1_FPN/model/conv3_block1_1_conv/Conv2D" type="Convolution" version="opset1">
			<data strides="2, 2" dilations="1, 1" pads_begin="0, 0" pads_end="0, 0" auto_pad="same_upper" />
			<rt_info>
				<attribute name="fused_names" version="0" value="StatefulPartitionedCall/ResNet50V1_FPN/model/conv3_block1_1_conv/Conv2D" />
			</rt_info>
			<input>
				<port id="0" precision="FP32">
					<dim>1</dim>
					<dim>256</dim>
					<dim>160</dim>
					<dim>160</dim>
				</port>
				<port id="1" precision="FP32">
					<dim>128</dim>
					<dim>256</dim>
					<dim>1</dim>
					<dim>1</dim>
				</port>
			</input>
			<output>
				<port id="2" precision="FP32">
					<dim>1</dim>
					<dim>128</dim>
					<dim>80</dim>
					<dim>80</dim>
				</port>
			</output>
		</layer>
		<layer id="228" name="data_add_4950349508103522804" type="Const" version="opset1">
			<data element_type="f16" shape="1, 128, 1, 1" offset="407214" size="256" />
			<output>
				<port id="0" precision="FP16">
					<dim>1</dim>
					<dim>128</dim>
					<dim>1</dim>
					<dim>1</dim>
				</port>
			</output>
		</layer>
		<layer id="229" name="data_add_4950349508103512607/restored_convert" type="Convert" version="opset1">
			<data destination_type="f32" />
			<rt_info>
				<attribute name="decompression" version="0" />
				<attribute name="fused_names" version="0" value="data_add_4950349508" />
			</rt_info>
			<input>
				<port id="0" precision="FP16">
					<dim>1</dim>
					<dim>128</dim>
					<dim>1</dim>
					<dim>1</dim>
				</port>
			</input>
			<output>
				<port id="1" precision="FP32">
					<dim>1</dim>
					<dim>128</dim>
					<dim>1</dim>
					<dim>1</dim>
				</port>
			</output>
		</layer>
		<layer id="230" name="StatefulPartitionedCall/ResNet50V1_FPN/model/conv3_block1_1_bn/FusedBatchNormV3/variance/Fused_Add_" type="Add" version="opset1">
			<data auto_broadcast="numpy" />
			<rt_info>
				<attribute name="fused_names" version="0" value="StatefulPartitionedCall/ResNet50V1_FPN/model/conv3_block1_1_bn/FusedBatchNormV3/variance/Fused_Add_" />
			</rt_info>
			<input>
				<port id="0" precision="FP32">
					<dim>1</dim>
					<dim>128</dim>
					<dim>80</dim>
					<dim>80</dim>
				</port>
				<port id="1" precision="FP32">
					<dim>1</dim>
					<dim>128</dim>
					<dim>1</dim>
					<dim>1</dim>
				</port>
			</input>
			<output>
				<port id="2" precision="FP32" names="StatefulPartitionedCall/ResNet50V1_FPN/model/conv3_block1_1_bn/FusedBatchNormV3:0">
					<dim>1</dim>
					<dim>128</dim>
					<dim>80</dim>
					<dim>80</dim>
				</port>
			</output>
		</layer>
		<layer id="231" name="StatefulPartitionedCall/ResNet50V1_FPN/model/conv3_block1_1_relu/Relu6" type="Clamp" version="opset1">
			<data min="0" max="6" />
			<rt_info>
				<attribute name="fused_names" version="0" value="StatefulPartitionedCall/ResNet50V1_FPN/model/conv3_block1_1_relu/Relu6" />
			</rt_info>
			<input>
				<port id="0" precision="FP32">
					<dim>1</dim>
					<dim>128</dim>
					<dim>80</dim>
					<dim>80</dim>
				</port>
			</input>
			<output>
				<port id="1" precision="FP32" names="StatefulPartitionedCall/ResNet50V1_FPN/model/conv3_block1_1_relu/Relu6:0">
					<dim>1</dim>
					<dim>128</dim>
					<dim>80</dim>
					<dim>80</dim>
				</port>
			</output>
		</layer>
		<layer id="232" name="5021502521895" type="Const" version="opset1">
			<data element_type="f32" shape="" offset="10094" size="4" />
			<output>
				<port id="0" precision="FP32" />
			</output>
		</layer>
		<layer id="233" name="5022502623143" type="Const" version="opset1">
			<data element_type="f32" shape="" offset="407470" size="4" />
			<output>
				<port id="0" precision="FP32" />
			</output>
		</layer>
		<layer id="234" name="5023502723383" type="Const" version="opset1">
			<data element_type="f32" shape="" offset="10094" size="4" />
			<output>
				<port id="0" precision="FP32" />
			</output>
		</layer>
		<layer id="235" name="5024502822408" type="Const" version="opset1">
			<data element_type="f32" shape="" offset="407470" size="4" />
			<output>
				<port id="0" precision="FP32" />
			</output>
		</layer>
		<layer id="236" name="StatefulPartitionedCall/ResNet50V1_FPN/model/conv3_block1_2_conv/Conv2D/fq_input_0" type="FakeQuantize" version="opset1">
			<data levels="256" auto_broadcast="numpy" />
			<input>
				<port id="0" precision="FP32">
					<dim>1</dim>
					<dim>128</dim>
					<dim>80</dim>
					<dim>80</dim>
				</port>
				<port id="1" precision="FP32" />
				<port id="2" precision="FP32" />
				<port id="3" precision="FP32" />
				<port id="4" precision="FP32" />
			</input>
			<output>
				<port id="5" precision="FP32">
					<dim>1</dim>
					<dim>128</dim>
					<dim>80</dim>
					<dim>80</dim>
				</port>
			</output>
		</layer>
		<layer id="237" name="StatefulPartitionedCall/ResNet50V1_FPN/model/conv3_block1_2_bn/FusedBatchNormV3/mean/Fused_Mul__copy103912608/restored_convert/quantized1631722120" type="Const" version="opset1">
			<data element_type="i8" shape="128, 128, 3, 3" offset="407474" size="147456" />
			<output>
				<port id="0" precision="I8">
					<dim>128</dim>
					<dim>128</dim>
					<dim>3</dim>
					<dim>3</dim>
				</port>
			</output>
		</layer>
		<layer id="238" name="StatefulPartitionedCall/ResNet50V1_FPN/model/conv3_block1_2_bn/FusedBatchNormV3/mean/Fused_Mul__copy103912608/restored_convert/quantized/to_f32" type="Convert" version="opset1">
			<data destination_type="f32" />
			<input>
				<port id="0" precision="I8">
					<dim>128</dim>
					<dim>128</dim>
					<dim>3</dim>
					<dim>3</dim>
				</port>
			</input>
			<output>
				<port id="1" precision="FP32">
					<dim>128</dim>
					<dim>128</dim>
					<dim>3</dim>
					<dim>3</dim>
				</port>
			</output>
		</layer>
		<layer id="239" name="StatefulPartitionedCall/ResNet50V1_FPN/model/conv3_block1_2_conv/Conv2D/fq_weights_1/zero_point1633621958" type="Const" version="opset1">
			<data element_type="f32" shape="128, 1, 1, 1" offset="554930" size="512" />
			<output>
				<port id="0" precision="FP32">
					<dim>128</dim>
					<dim>1</dim>
					<dim>1</dim>
					<dim>1</dim>
				</port>
			</output>
		</layer>
		<layer id="240" name="StatefulPartitionedCall/ResNet50V1_FPN/model/conv3_block1_2_conv/Conv2D/fq_weights_1/minus_zp" type="Subtract" version="opset1">
			<data auto_broadcast="numpy" />
			<input>
				<port id="0" precision="FP32">
					<dim>128</dim>
					<dim>128</dim>
					<dim>3</dim>
					<dim>3</dim>
				</port>
				<port id="1" precision="FP32">
					<dim>128</dim>
					<dim>1</dim>
					<dim>1</dim>
					<dim>1</dim>
				</port>
			</input>
			<output>
				<port id="2" precision="FP32">
					<dim>128</dim>
					<dim>128</dim>
					<dim>3</dim>
					<dim>3</dim>
				</port>
			</output>
		</layer>
		<layer id="241" name="StatefulPartitionedCall/ResNet50V1_FPN/model/conv3_block1_2_conv/Conv2D/fq_weights_1/scale1632522396" type="Const" version="opset1">
			<data element_type="f32" shape="128, 1, 1, 1" offset="555442" size="512" />
			<output>
				<port id="0" precision="FP32">
					<dim>128</dim>
					<dim>1</dim>
					<dim>1</dim>
					<dim>1</dim>
				</port>
			</output>
		</layer>
		<layer id="242" name="StatefulPartitionedCall/ResNet50V1_FPN/model/conv3_block1_2_conv/Conv2D/fq_weights_1/mulpiply_by_scale" type="Multiply" version="opset1">
			<data auto_broadcast="numpy" />
			<input>
				<port id="0" precision="FP32">
					<dim>128</dim>
					<dim>128</dim>
					<dim>3</dim>
					<dim>3</dim>
				</port>
				<port id="1" precision="FP32">
					<dim>128</dim>
					<dim>1</dim>
					<dim>1</dim>
					<dim>1</dim>
				</port>
			</input>
			<output>
				<port id="2" precision="FP32">
					<dim>128</dim>
					<dim>128</dim>
					<dim>3</dim>
					<dim>3</dim>
				</port>
			</output>
		</layer>
		<layer id="243" name="StatefulPartitionedCall/ResNet50V1_FPN/model/conv3_block1_2_conv/Conv2D" type="Convolution" version="opset1">
			<data strides="1, 1" dilations="1, 1" pads_begin="0, 0" pads_end="0, 0" auto_pad="same_upper" />
			<rt_info>
				<attribute name="fused_names" version="0" value="StatefulPartitionedCall/ResNet50V1_FPN/model/conv3_block1_2_conv/Conv2D" />
			</rt_info>
			<input>
				<port id="0" precision="FP32">
					<dim>1</dim>
					<dim>128</dim>
					<dim>80</dim>
					<dim>80</dim>
				</port>
				<port id="1" precision="FP32">
					<dim>128</dim>
					<dim>128</dim>
					<dim>3</dim>
					<dim>3</dim>
				</port>
			</input>
			<output>
				<port id="2" precision="FP32">
					<dim>1</dim>
					<dim>128</dim>
					<dim>80</dim>
					<dim>80</dim>
				</port>
			</output>
		</layer>
		<layer id="244" name="data_add_4951149516104223734" type="Const" version="opset1">
			<data element_type="f16" shape="1, 128, 1, 1" offset="555954" size="256" />
			<output>
				<port id="0" precision="FP16">
					<dim>1</dim>
					<dim>128</dim>
					<dim>1</dim>
					<dim>1</dim>
				</port>
			</output>
		</layer>
		<layer id="245" name="data_add_4951149516104212609/restored_convert" type="Convert" version="opset1">
			<data destination_type="f32" />
			<rt_info>
				<attribute name="decompression" version="0" />
				<attribute name="fused_names" version="0" value="data_add_4951149516" />
			</rt_info>
			<input>
				<port id="0" precision="FP16">
					<dim>1</dim>
					<dim>128</dim>
					<dim>1</dim>
					<dim>1</dim>
				</port>
			</input>
			<output>
				<port id="1" precision="FP32">
					<dim>1</dim>
					<dim>128</dim>
					<dim>1</dim>
					<dim>1</dim>
				</port>
			</output>
		</layer>
		<layer id="246" name="StatefulPartitionedCall/ResNet50V1_FPN/model/conv3_block1_2_bn/FusedBatchNormV3/variance/Fused_Add_" type="Add" version="opset1">
			<data auto_broadcast="numpy" />
			<rt_info>
				<attribute name="fused_names" version="0" value="StatefulPartitionedCall/ResNet50V1_FPN/model/conv3_block1_2_bn/FusedBatchNormV3/variance/Fused_Add_" />
			</rt_info>
			<input>
				<port id="0" precision="FP32">
					<dim>1</dim>
					<dim>128</dim>
					<dim>80</dim>
					<dim>80</dim>
				</port>
				<port id="1" precision="FP32">
					<dim>1</dim>
					<dim>128</dim>
					<dim>1</dim>
					<dim>1</dim>
				</port>
			</input>
			<output>
				<port id="2" precision="FP32" names="StatefulPartitionedCall/ResNet50V1_FPN/model/conv3_block1_2_bn/FusedBatchNormV3:0">
					<dim>1</dim>
					<dim>128</dim>
					<dim>80</dim>
					<dim>80</dim>
				</port>
			</output>
		</layer>
		<layer id="247" name="StatefulPartitionedCall/ResNet50V1_FPN/model/conv3_block1_2_relu/Relu6" type="Clamp" version="opset1">
			<data min="0" max="6" />
			<rt_info>
				<attribute name="fused_names" version="0" value="StatefulPartitionedCall/ResNet50V1_FPN/model/conv3_block1_2_relu/Relu6" />
			</rt_info>
			<input>
				<port id="0" precision="FP32">
					<dim>1</dim>
					<dim>128</dim>
					<dim>80</dim>
					<dim>80</dim>
				</port>
			</input>
			<output>
				<port id="1" precision="FP32" names="StatefulPartitionedCall/ResNet50V1_FPN/model/conv3_block1_2_relu/Relu6:0">
					<dim>1</dim>
					<dim>128</dim>
					<dim>80</dim>
					<dim>80</dim>
				</port>
			</output>
		</layer>
		<layer id="248" name="3801380523278" type="Const" version="opset1">
			<data element_type="f32" shape="" offset="10094" size="4" />
			<output>
				<port id="0" precision="FP32" />
			</output>
		</layer>
		<layer id="249" name="3802380622669" type="Const" version="opset1">
			<data element_type="f32" shape="" offset="10098" size="4" />
			<output>
				<port id="0" precision="FP32" />
			</output>
		</layer>
		<layer id="250" name="3803380722951" type="Const" version="opset1">
			<data element_type="f32" shape="" offset="10094" size="4" />
			<output>
				<port id="0" precision="FP32" />
			</output>
		</layer>
		<layer id="251" name="3804380823905" type="Const" version="opset1">
			<data element_type="f32" shape="" offset="10098" size="4" />
			<output>
				<port id="0" precision="FP32" />
			</output>
		</layer>
		<layer id="252" name="StatefulPartitionedCall/ResNet50V1_FPN/model/conv3_block1_3_conv/Conv2D/fq_input_0" type="FakeQuantize" version="opset1">
			<data levels="256" auto_broadcast="numpy" />
			<input>
				<port id="0" precision="FP32">
					<dim>1</dim>
					<dim>128</dim>
					<dim>80</dim>
					<dim>80</dim>
				</port>
				<port id="1" precision="FP32" />
				<port id="2" precision="FP32" />
				<port id="3" precision="FP32" />
				<port id="4" precision="FP32" />
			</input>
			<output>
				<port id="5" precision="FP32">
					<dim>1</dim>
					<dim>128</dim>
					<dim>80</dim>
					<dim>80</dim>
				</port>
			</output>
		</layer>
		<layer id="253" name="StatefulPartitionedCall/ResNet50V1_FPN/model/conv3_block1_3_bn/FusedBatchNormV3/mean/Fused_Mul__copy104612610/restored_convert/quantized1559723149" type="Const" version="opset1">
			<data element_type="i8" shape="512, 128, 1, 1" offset="556210" size="65536" />
			<output>
				<port id="0" precision="I8">
					<dim>512</dim>
					<dim>128</dim>
					<dim>1</dim>
					<dim>1</dim>
				</port>
			</output>
		</layer>
		<layer id="254" name="StatefulPartitionedCall/ResNet50V1_FPN/model/conv3_block1_3_bn/FusedBatchNormV3/mean/Fused_Mul__copy104612610/restored_convert/quantized/to_f32" type="Convert" version="opset1">
			<data destination_type="f32" />
			<input>
				<port id="0" precision="I8">
					<dim>512</dim>
					<dim>128</dim>
					<dim>1</dim>
					<dim>1</dim>
				</port>
			</input>
			<output>
				<port id="1" precision="FP32">
					<dim>512</dim>
					<dim>128</dim>
					<dim>1</dim>
					<dim>1</dim>
				</port>
			</output>
		</layer>
		<layer id="255" name="StatefulPartitionedCall/ResNet50V1_FPN/model/conv3_block1_3_conv/Conv2D/fq_weights_1/zero_point1561624325" type="Const" version="opset1">
			<data element_type="f32" shape="512, 1, 1, 1" offset="621746" size="2048" />
			<output>
				<port id="0" precision="FP32">
					<dim>512</dim>
					<dim>1</dim>
					<dim>1</dim>
					<dim>1</dim>
				</port>
			</output>
		</layer>
		<layer id="256" name="StatefulPartitionedCall/ResNet50V1_FPN/model/conv3_block1_3_conv/Conv2D/fq_weights_1/minus_zp" type="Subtract" version="opset1">
			<data auto_broadcast="numpy" />
			<input>
				<port id="0" precision="FP32">
					<dim>512</dim>
					<dim>128</dim>
					<dim>1</dim>
					<dim>1</dim>
				</port>
				<port id="1" precision="FP32">
					<dim>512</dim>
					<dim>1</dim>
					<dim>1</dim>
					<dim>1</dim>
				</port>
			</input>
			<output>
				<port id="2" precision="FP32">
					<dim>512</dim>
					<dim>128</dim>
					<dim>1</dim>
					<dim>1</dim>
				</port>
			</output>
		</layer>
		<layer id="257" name="StatefulPartitionedCall/ResNet50V1_FPN/model/conv3_block1_3_conv/Conv2D/fq_weights_1/scale1560522216" type="Const" version="opset1">
			<data element_type="f32" shape="512, 1, 1, 1" offset="623794" size="2048" />
			<output>
				<port id="0" precision="FP32">
					<dim>512</dim>
					<dim>1</dim>
					<dim>1</dim>
					<dim>1</dim>
				</port>
			</output>
		</layer>
		<layer id="258" name="StatefulPartitionedCall/ResNet50V1_FPN/model/conv3_block1_3_conv/Conv2D/fq_weights_1/mulpiply_by_scale" type="Multiply" version="opset1">
			<data auto_broadcast="numpy" />
			<input>
				<port id="0" precision="FP32">
					<dim>512</dim>
					<dim>128</dim>
					<dim>1</dim>
					<dim>1</dim>
				</port>
				<port id="1" precision="FP32">
					<dim>512</dim>
					<dim>1</dim>
					<dim>1</dim>
					<dim>1</dim>
				</port>
			</input>
			<output>
				<port id="2" precision="FP32">
					<dim>512</dim>
					<dim>128</dim>
					<dim>1</dim>
					<dim>1</dim>
				</port>
			</output>
		</layer>
		<layer id="259" name="StatefulPartitionedCall/ResNet50V1_FPN/model/conv3_block1_3_conv/Conv2D" type="Convolution" version="opset1">
			<data strides="1, 1" dilations="1, 1" pads_begin="0, 0" pads_end="0, 0" auto_pad="same_upper" />
			<rt_info>
				<attribute name="fused_names" version="0" value="StatefulPartitionedCall/ResNet50V1_FPN/model/conv3_block1_3_conv/Conv2D" />
			</rt_info>
			<input>
				<port id="0" precision="FP32">
					<dim>1</dim>
					<dim>128</dim>
					<dim>80</dim>
					<dim>80</dim>
				</port>
				<port id="1" precision="FP32">
					<dim>512</dim>
					<dim>128</dim>
					<dim>1</dim>
					<dim>1</dim>
				</port>
			</input>
			<output>
				<port id="2" precision="FP32">
					<dim>1</dim>
					<dim>512</dim>
					<dim>80</dim>
					<dim>80</dim>
				</port>
			</output>
		</layer>
		<layer id="260" name="data_add_4951949524104923737" type="Const" version="opset1">
			<data element_type="f16" shape="1, 512, 1, 1" offset="625842" size="1024" />
			<output>
				<port id="0" precision="FP16">
					<dim>1</dim>
					<dim>512</dim>
					<dim>1</dim>
					<dim>1</dim>
				</port>
			</output>
		</layer>
		<layer id="261" name="data_add_4951949524104912611/restored_convert" type="Convert" version="opset1">
			<data destination_type="f32" />
			<rt_info>
				<attribute name="decompression" version="0" />
				<attribute name="fused_names" version="0" value="data_add_4951949524" />
			</rt_info>
			<input>
				<port id="0" precision="FP16">
					<dim>1</dim>
					<dim>512</dim>
					<dim>1</dim>
					<dim>1</dim>
				</port>
			</input>
			<output>
				<port id="1" precision="FP32">
					<dim>1</dim>
					<dim>512</dim>
					<dim>1</dim>
					<dim>1</dim>
				</port>
			</output>
		</layer>
		<layer id="262" name="StatefulPartitionedCall/ResNet50V1_FPN/model/conv3_block1_3_bn/FusedBatchNormV3/variance/Fused_Add_" type="Add" version="opset1">
			<data auto_broadcast="numpy" />
			<rt_info>
				<attribute name="fused_names" version="0" value="StatefulPartitionedCall/ResNet50V1_FPN/model/conv3_block1_3_bn/FusedBatchNormV3/variance/Fused_Add_" />
			</rt_info>
			<input>
				<port id="0" precision="FP32">
					<dim>1</dim>
					<dim>512</dim>
					<dim>80</dim>
					<dim>80</dim>
				</port>
				<port id="1" precision="FP32">
					<dim>1</dim>
					<dim>512</dim>
					<dim>1</dim>
					<dim>1</dim>
				</port>
			</input>
			<output>
				<port id="2" precision="FP32" names="StatefulPartitionedCall/ResNet50V1_FPN/model/conv3_block1_3_bn/FusedBatchNormV3:0">
					<dim>1</dim>
					<dim>512</dim>
					<dim>80</dim>
					<dim>80</dim>
				</port>
			</output>
		</layer>
		<layer id="263" name="3631363522993" type="Const" version="opset1">
			<data element_type="f32" shape="" offset="626866" size="4" />
			<output>
				<port id="0" precision="FP32" />
			</output>
		</layer>
		<layer id="264" name="3632363622579" type="Const" version="opset1">
			<data element_type="f32" shape="" offset="626870" size="4" />
			<output>
				<port id="0" precision="FP32" />
			</output>
		</layer>
		<layer id="265" name="3633363723533" type="Const" version="opset1">
			<data element_type="f32" shape="" offset="626866" size="4" />
			<output>
				<port id="0" precision="FP32" />
			</output>
		</layer>
		<layer id="266" name="3634363823992" type="Const" version="opset1">
			<data element_type="f32" shape="" offset="626870" size="4" />
			<output>
				<port id="0" precision="FP32" />
			</output>
		</layer>
		<layer id="267" name="StatefulPartitionedCall/ResNet50V1_FPN/model/conv3_block1_add/add/fq_input_1" type="FakeQuantize" version="opset1">
			<data levels="256" auto_broadcast="numpy" />
			<input>
				<port id="0" precision="FP32">
					<dim>1</dim>
					<dim>512</dim>
					<dim>80</dim>
					<dim>80</dim>
				</port>
				<port id="1" precision="FP32" />
				<port id="2" precision="FP32" />
				<port id="3" precision="FP32" />
				<port id="4" precision="FP32" />
			</input>
			<output>
				<port id="5" precision="FP32">
					<dim>1</dim>
					<dim>512</dim>
					<dim>80</dim>
					<dim>80</dim>
				</port>
			</output>
		</layer>
		<layer id="268" name="StatefulPartitionedCall/ResNet50V1_FPN/model/conv3_block1_add/add" type="Add" version="opset1">
			<data auto_broadcast="numpy" />
			<rt_info>
				<attribute name="fused_names" version="0" value="StatefulPartitionedCall/ResNet50V1_FPN/model/conv3_block1_add/add" />
			</rt_info>
			<input>
				<port id="0" precision="FP32">
					<dim>1</dim>
					<dim>512</dim>
					<dim>80</dim>
					<dim>80</dim>
				</port>
				<port id="1" precision="FP32">
					<dim>1</dim>
					<dim>512</dim>
					<dim>80</dim>
					<dim>80</dim>
				</port>
			</input>
			<output>
				<port id="2" precision="FP32" names="StatefulPartitionedCall/ResNet50V1_FPN/model/conv3_block1_add/add:0">
					<dim>1</dim>
					<dim>512</dim>
					<dim>80</dim>
					<dim>80</dim>
				</port>
			</output>
		</layer>
		<layer id="269" name="StatefulPartitionedCall/ResNet50V1_FPN/model/conv3_block1_out/Relu6" type="Clamp" version="opset1">
			<data min="0" max="6" />
			<rt_info>
				<attribute name="fused_names" version="0" value="StatefulPartitionedCall/ResNet50V1_FPN/model/conv3_block1_out/Relu6" />
			</rt_info>
			<input>
				<port id="0" precision="FP32">
					<dim>1</dim>
					<dim>512</dim>
					<dim>80</dim>
					<dim>80</dim>
				</port>
			</input>
			<output>
				<port id="1" precision="FP32" names="StatefulPartitionedCall/ResNet50V1_FPN/model/conv3_block1_out/Relu6:0">
					<dim>1</dim>
					<dim>512</dim>
					<dim>80</dim>
					<dim>80</dim>
				</port>
			</output>
		</layer>
		<layer id="270" name="5141514524559" type="Const" version="opset1">
			<data element_type="f32" shape="" offset="10094" size="4" />
			<output>
				<port id="0" precision="FP32" />
			</output>
		</layer>
		<layer id="271" name="5142514623902" type="Const" version="opset1">
			<data element_type="f32" shape="" offset="10098" size="4" />
			<output>
				<port id="0" precision="FP32" />
			</output>
		</layer>
		<layer id="272" name="5143514723458" type="Const" version="opset1">
			<data element_type="f32" shape="" offset="10094" size="4" />
			<output>
				<port id="0" precision="FP32" />
			</output>
		</layer>
		<layer id="273" name="5144514823524" type="Const" version="opset1">
			<data element_type="f32" shape="" offset="10098" size="4" />
			<output>
				<port id="0" precision="FP32" />
			</output>
		</layer>
		<layer id="274" name="StatefulPartitionedCall/ResNet50V1_FPN/model/conv3_block2_1_conv/Conv2D/fq_input_0" type="FakeQuantize" version="opset1">
			<data levels="256" auto_broadcast="numpy" />
			<input>
				<port id="0" precision="FP32">
					<dim>1</dim>
					<dim>512</dim>
					<dim>80</dim>
					<dim>80</dim>
				</port>
				<port id="1" precision="FP32" />
				<port id="2" precision="FP32" />
				<port id="3" precision="FP32" />
				<port id="4" precision="FP32" />
			</input>
			<output>
				<port id="5" precision="FP32">
					<dim>1</dim>
					<dim>512</dim>
					<dim>80</dim>
					<dim>80</dim>
				</port>
			</output>
		</layer>
		<layer id="275" name="StatefulPartitionedCall/ResNet50V1_FPN/model/conv3_block2_1_bn/FusedBatchNormV3/mean/Fused_Mul__copy105412612/restored_convert/quantized1502721829" type="Const" version="opset1">
			<data element_type="i8" shape="128, 512, 1, 1" offset="626874" size="65536" />
			<output>
				<port id="0" precision="I8">
					<dim>128</dim>
					<dim>512</dim>
					<dim>1</dim>
					<dim>1</dim>
				</port>
			</output>
		</layer>
		<layer id="276" name="StatefulPartitionedCall/ResNet50V1_FPN/model/conv3_block2_1_bn/FusedBatchNormV3/mean/Fused_Mul__copy105412612/restored_convert/quantized/to_f32" type="Convert" version="opset1">
			<data destination_type="f32" />
			<input>
				<port id="0" precision="I8">
					<dim>128</dim>
					<dim>512</dim>
					<dim>1</dim>
					<dim>1</dim>
				</port>
			</input>
			<output>
				<port id="1" precision="FP32">
					<dim>128</dim>
					<dim>512</dim>
					<dim>1</dim>
					<dim>1</dim>
				</port>
			</output>
		</layer>
		<layer id="277" name="StatefulPartitionedCall/ResNet50V1_FPN/model/conv3_block2_1_conv/Conv2D/fq_weights_1/zero_point1504622279" type="Const" version="opset1">
			<data element_type="f32" shape="128, 1, 1, 1" offset="692410" size="512" />
			<output>
				<port id="0" precision="FP32">
					<dim>128</dim>
					<dim>1</dim>
					<dim>1</dim>
					<dim>1</dim>
				</port>
			</output>
		</layer>
		<layer id="278" name="StatefulPartitionedCall/ResNet50V1_FPN/model/conv3_block2_1_conv/Conv2D/fq_weights_1/minus_zp" type="Subtract" version="opset1">
			<data auto_broadcast="numpy" />
			<input>
				<port id="0" precision="FP32">
					<dim>128</dim>
					<dim>512</dim>
					<dim>1</dim>
					<dim>1</dim>
				</port>
				<port id="1" precision="FP32">
					<dim>128</dim>
					<dim>1</dim>
					<dim>1</dim>
					<dim>1</dim>
				</port>
			</input>
			<output>
				<port id="2" precision="FP32">
					<dim>128</dim>
					<dim>512</dim>
					<dim>1</dim>
					<dim>1</dim>
				</port>
			</output>
		</layer>
		<layer id="279" name="StatefulPartitionedCall/ResNet50V1_FPN/model/conv3_block2_1_conv/Conv2D/fq_weights_1/scale1503521886" type="Const" version="opset1">
			<data element_type="f32" shape="128, 1, 1, 1" offset="692922" size="512" />
			<output>
				<port id="0" precision="FP32">
					<dim>128</dim>
					<dim>1</dim>
					<dim>1</dim>
					<dim>1</dim>
				</port>
			</output>
		</layer>
		<layer id="280" name="StatefulPartitionedCall/ResNet50V1_FPN/model/conv3_block2_1_conv/Conv2D/fq_weights_1/mulpiply_by_scale" type="Multiply" version="opset1">
			<data auto_broadcast="numpy" />
			<input>
				<port id="0" precision="FP32">
					<dim>128</dim>
					<dim>512</dim>
					<dim>1</dim>
					<dim>1</dim>
				</port>
				<port id="1" precision="FP32">
					<dim>128</dim>
					<dim>1</dim>
					<dim>1</dim>
					<dim>1</dim>
				</port>
			</input>
			<output>
				<port id="2" precision="FP32">
					<dim>128</dim>
					<dim>512</dim>
					<dim>1</dim>
					<dim>1</dim>
				</port>
			</output>
		</layer>
		<layer id="281" name="StatefulPartitionedCall/ResNet50V1_FPN/model/conv3_block2_1_conv/Conv2D" type="Convolution" version="opset1">
			<data strides="1, 1" dilations="1, 1" pads_begin="0, 0" pads_end="0, 0" auto_pad="same_upper" />
			<rt_info>
				<attribute name="fused_names" version="0" value="StatefulPartitionedCall/ResNet50V1_FPN/model/conv3_block2_1_conv/Conv2D" />
			</rt_info>
			<input>
				<port id="0" precision="FP32">
					<dim>1</dim>
					<dim>512</dim>
					<dim>80</dim>
					<dim>80</dim>
				</port>
				<port id="1" precision="FP32">
					<dim>128</dim>
					<dim>512</dim>
					<dim>1</dim>
					<dim>1</dim>
				</port>
			</input>
			<output>
				<port id="2" precision="FP32">
					<dim>1</dim>
					<dim>128</dim>
					<dim>80</dim>
					<dim>80</dim>
				</port>
			</output>
		</layer>
		<layer id="282" name="data_add_4953549540105723104" type="Const" version="opset1">
			<data element_type="f16" shape="1, 128, 1, 1" offset="693434" size="256" />
			<output>
				<port id="0" precision="FP16">
					<dim>1</dim>
					<dim>128</dim>
					<dim>1</dim>
					<dim>1</dim>
				</port>
			</output>
		</layer>
		<layer id="283" name="data_add_4953549540105712613/restored_convert" type="Convert" version="opset1">
			<data destination_type="f32" />
			<rt_info>
				<attribute name="decompression" version="0" />
				<attribute name="fused_names" version="0" value="data_add_4953549540" />
			</rt_info>
			<input>
				<port id="0" precision="FP16">
					<dim>1</dim>
					<dim>128</dim>
					<dim>1</dim>
					<dim>1</dim>
				</port>
			</input>
			<output>
				<port id="1" precision="FP32">
					<dim>1</dim>
					<dim>128</dim>
					<dim>1</dim>
					<dim>1</dim>
				</port>
			</output>
		</layer>
		<layer id="284" name="StatefulPartitionedCall/ResNet50V1_FPN/model/conv3_block2_1_bn/FusedBatchNormV3/variance/Fused_Add_" type="Add" version="opset1">
			<data auto_broadcast="numpy" />
			<rt_info>
				<attribute name="fused_names" version="0" value="StatefulPartitionedCall/ResNet50V1_FPN/model/conv3_block2_1_bn/FusedBatchNormV3/variance/Fused_Add_" />
			</rt_info>
			<input>
				<port id="0" precision="FP32">
					<dim>1</dim>
					<dim>128</dim>
					<dim>80</dim>
					<dim>80</dim>
				</port>
				<port id="1" precision="FP32">
					<dim>1</dim>
					<dim>128</dim>
					<dim>1</dim>
					<dim>1</dim>
				</port>
			</input>
			<output>
				<port id="2" precision="FP32" names="StatefulPartitionedCall/ResNet50V1_FPN/model/conv3_block2_1_bn/FusedBatchNormV3:0">
					<dim>1</dim>
					<dim>128</dim>
					<dim>80</dim>
					<dim>80</dim>
				</port>
			</output>
		</layer>
		<layer id="285" name="StatefulPartitionedCall/ResNet50V1_FPN/model/conv3_block2_1_relu/Relu6" type="Clamp" version="opset1">
			<data min="0" max="6" />
			<rt_info>
				<attribute name="fused_names" version="0" value="StatefulPartitionedCall/ResNet50V1_FPN/model/conv3_block2_1_relu/Relu6" />
			</rt_info>
			<input>
				<port id="0" precision="FP32">
					<dim>1</dim>
					<dim>128</dim>
					<dim>80</dim>
					<dim>80</dim>
				</port>
			</input>
			<output>
				<port id="1" precision="FP32" names="StatefulPartitionedCall/ResNet50V1_FPN/model/conv3_block2_1_relu/Relu6:0">
					<dim>1</dim>
					<dim>128</dim>
					<dim>80</dim>
					<dim>80</dim>
				</port>
			</output>
		</layer>
		<layer id="286" name="4301430523704" type="Const" version="opset1">
			<data element_type="f32" shape="" offset="10094" size="4" />
			<output>
				<port id="0" precision="FP32" />
			</output>
		</layer>
		<layer id="287" name="4302430623092" type="Const" version="opset1">
			<data element_type="f32" shape="" offset="693690" size="4" />
			<output>
				<port id="0" precision="FP32" />
			</output>
		</layer>
		<layer id="288" name="4303430721841" type="Const" version="opset1">
			<data element_type="f32" shape="" offset="10094" size="4" />
			<output>
				<port id="0" precision="FP32" />
			</output>
		</layer>
		<layer id="289" name="4304430821643" type="Const" version="opset1">
			<data element_type="f32" shape="" offset="693690" size="4" />
			<output>
				<port id="0" precision="FP32" />
			</output>
		</layer>
		<layer id="290" name="StatefulPartitionedCall/ResNet50V1_FPN/model/conv3_block2_2_conv/Conv2D/fq_input_0" type="FakeQuantize" version="opset1">
			<data levels="256" auto_broadcast="numpy" />
			<input>
				<port id="0" precision="FP32">
					<dim>1</dim>
					<dim>128</dim>
					<dim>80</dim>
					<dim>80</dim>
				</port>
				<port id="1" precision="FP32" />
				<port id="2" precision="FP32" />
				<port id="3" precision="FP32" />
				<port id="4" precision="FP32" />
			</input>
			<output>
				<port id="5" precision="FP32">
					<dim>1</dim>
					<dim>128</dim>
					<dim>80</dim>
					<dim>80</dim>
				</port>
			</output>
		</layer>
		<layer id="291" name="StatefulPartitionedCall/ResNet50V1_FPN/model/conv3_block2_2_bn/FusedBatchNormV3/mean/Fused_Mul__copy106112614/restored_convert/quantized1565721751" type="Const" version="opset1">
			<data element_type="i8" shape="128, 128, 3, 3" offset="693694" size="147456" />
			<output>
				<port id="0" precision="I8">
					<dim>128</dim>
					<dim>128</dim>
					<dim>3</dim>
					<dim>3</dim>
				</port>
			</output>
		</layer>
		<layer id="292" name="StatefulPartitionedCall/ResNet50V1_FPN/model/conv3_block2_2_bn/FusedBatchNormV3/mean/Fused_Mul__copy106112614/restored_convert/quantized/to_f32" type="Convert" version="opset1">
			<data destination_type="f32" />
			<input>
				<port id="0" precision="I8">
					<dim>128</dim>
					<dim>128</dim>
					<dim>3</dim>
					<dim>3</dim>
				</port>
			</input>
			<output>
				<port id="1" precision="FP32">
					<dim>128</dim>
					<dim>128</dim>
					<dim>3</dim>
					<dim>3</dim>
				</port>
			</output>
		</layer>
		<layer id="293" name="StatefulPartitionedCall/ResNet50V1_FPN/model/conv3_block2_2_conv/Conv2D/fq_weights_1/zero_point1567623191" type="Const" version="opset1">
			<data element_type="f32" shape="128, 1, 1, 1" offset="841150" size="512" />
			<output>
				<port id="0" precision="FP32">
					<dim>128</dim>
					<dim>1</dim>
					<dim>1</dim>
					<dim>1</dim>
				</port>
			</output>
		</layer>
		<layer id="294" name="StatefulPartitionedCall/ResNet50V1_FPN/model/conv3_block2_2_conv/Conv2D/fq_weights_1/minus_zp" type="Subtract" version="opset1">
			<data auto_broadcast="numpy" />
			<input>
				<port id="0" precision="FP32">
					<dim>128</dim>
					<dim>128</dim>
					<dim>3</dim>
					<dim>3</dim>
				</port>
				<port id="1" precision="FP32">
					<dim>128</dim>
					<dim>1</dim>
					<dim>1</dim>
					<dim>1</dim>
				</port>
			</input>
			<output>
				<port id="2" precision="FP32">
					<dim>128</dim>
					<dim>128</dim>
					<dim>3</dim>
					<dim>3</dim>
				</port>
			</output>
		</layer>
		<layer id="295" name="StatefulPartitionedCall/ResNet50V1_FPN/model/conv3_block2_2_conv/Conv2D/fq_weights_1/scale1566522987" type="Const" version="opset1">
			<data element_type="f32" shape="128, 1, 1, 1" offset="841662" size="512" />
			<output>
				<port id="0" precision="FP32">
					<dim>128</dim>
					<dim>1</dim>
					<dim>1</dim>
					<dim>1</dim>
				</port>
			</output>
		</layer>
		<layer id="296" name="StatefulPartitionedCall/ResNet50V1_FPN/model/conv3_block2_2_conv/Conv2D/fq_weights_1/mulpiply_by_scale" type="Multiply" version="opset1">
			<data auto_broadcast="numpy" />
			<input>
				<port id="0" precision="FP32">
					<dim>128</dim>
					<dim>128</dim>
					<dim>3</dim>
					<dim>3</dim>
				</port>
				<port id="1" precision="FP32">
					<dim>128</dim>
					<dim>1</dim>
					<dim>1</dim>
					<dim>1</dim>
				</port>
			</input>
			<output>
				<port id="2" precision="FP32">
					<dim>128</dim>
					<dim>128</dim>
					<dim>3</dim>
					<dim>3</dim>
				</port>
			</output>
		</layer>
		<layer id="297" name="StatefulPartitionedCall/ResNet50V1_FPN/model/conv3_block2_2_conv/Conv2D" type="Convolution" version="opset1">
			<data strides="1, 1" dilations="1, 1" pads_begin="0, 0" pads_end="0, 0" auto_pad="same_upper" />
			<rt_info>
				<attribute name="fused_names" version="0" value="StatefulPartitionedCall/ResNet50V1_FPN/model/conv3_block2_2_conv/Conv2D" />
			</rt_info>
			<input>
				<port id="0" precision="FP32">
					<dim>1</dim>
					<dim>128</dim>
					<dim>80</dim>
					<dim>80</dim>
				</port>
				<port id="1" precision="FP32">
					<dim>128</dim>
					<dim>128</dim>
					<dim>3</dim>
					<dim>3</dim>
				</port>
			</input>
			<output>
				<port id="2" precision="FP32">
					<dim>1</dim>
					<dim>128</dim>
					<dim>80</dim>
					<dim>80</dim>
				</port>
			</output>
		</layer>
		<layer id="298" name="data_add_4954349548106422591" type="Const" version="opset1">
			<data element_type="f16" shape="1, 128, 1, 1" offset="842174" size="256" />
			<output>
				<port id="0" precision="FP16">
					<dim>1</dim>
					<dim>128</dim>
					<dim>1</dim>
					<dim>1</dim>
				</port>
			</output>
		</layer>
		<layer id="299" name="data_add_4954349548106412615/restored_convert" type="Convert" version="opset1">
			<data destination_type="f32" />
			<rt_info>
				<attribute name="decompression" version="0" />
				<attribute name="fused_names" version="0" value="data_add_4954349548" />
			</rt_info>
			<input>
				<port id="0" precision="FP16">
					<dim>1</dim>
					<dim>128</dim>
					<dim>1</dim>
					<dim>1</dim>
				</port>
			</input>
			<output>
				<port id="1" precision="FP32">
					<dim>1</dim>
					<dim>128</dim>
					<dim>1</dim>
					<dim>1</dim>
				</port>
			</output>
		</layer>
		<layer id="300" name="StatefulPartitionedCall/ResNet50V1_FPN/model/conv3_block2_2_bn/FusedBatchNormV3/variance/Fused_Add_" type="Add" version="opset1">
			<data auto_broadcast="numpy" />
			<rt_info>
				<attribute name="fused_names" version="0" value="StatefulPartitionedCall/ResNet50V1_FPN/model/conv3_block2_2_bn/FusedBatchNormV3/variance/Fused_Add_" />
			</rt_info>
			<input>
				<port id="0" precision="FP32">
					<dim>1</dim>
					<dim>128</dim>
					<dim>80</dim>
					<dim>80</dim>
				</port>
				<port id="1" precision="FP32">
					<dim>1</dim>
					<dim>128</dim>
					<dim>1</dim>
					<dim>1</dim>
				</port>
			</input>
			<output>
				<port id="2" precision="FP32" names="StatefulPartitionedCall/ResNet50V1_FPN/model/conv3_block2_2_bn/FusedBatchNormV3:0">
					<dim>1</dim>
					<dim>128</dim>
					<dim>80</dim>
					<dim>80</dim>
				</port>
			</output>
		</layer>
		<layer id="301" name="StatefulPartitionedCall/ResNet50V1_FPN/model/conv3_block2_2_relu/Relu6" type="Clamp" version="opset1">
			<data min="0" max="6" />
			<rt_info>
				<attribute name="fused_names" version="0" value="StatefulPartitionedCall/ResNet50V1_FPN/model/conv3_block2_2_relu/Relu6" />
			</rt_info>
			<input>
				<port id="0" precision="FP32">
					<dim>1</dim>
					<dim>128</dim>
					<dim>80</dim>
					<dim>80</dim>
				</port>
			</input>
			<output>
				<port id="1" precision="FP32" names="StatefulPartitionedCall/ResNet50V1_FPN/model/conv3_block2_2_relu/Relu6:0">
					<dim>1</dim>
					<dim>128</dim>
					<dim>80</dim>
					<dim>80</dim>
				</port>
			</output>
		</layer>
		<layer id="302" name="3841384522549" type="Const" version="opset1">
			<data element_type="f32" shape="" offset="10094" size="4" />
			<output>
				<port id="0" precision="FP32" />
			</output>
		</layer>
		<layer id="303" name="3842384623710" type="Const" version="opset1">
			<data element_type="f32" shape="" offset="842430" size="4" />
			<output>
				<port id="0" precision="FP32" />
			</output>
…
		<edge from-layer="1279" from-port="2" to-layer="1280" to-port="1" />
		<edge from-layer="1280" from-port="2" to-layer="1283" to-port="0" />
		<edge from-layer="1281" from-port="0" to-layer="1282" to-port="0" />
		<edge from-layer="1282" from-port="1" to-layer="1283" to-port="1" />
		<edge from-layer="1283" from-port="2" to-layer="1284" to-port="0" />
		<edge from-layer="1284" from-port="1" to-layer="1289" to-port="0" />
		<edge from-layer="1285" from-port="0" to-layer="1289" to-port="1" />
		<edge from-layer="1286" from-port="0" to-layer="1289" to-port="2" />
		<edge from-layer="1287" from-port="0" to-layer="1289" to-port="3" />
		<edge from-layer="1288" from-port="0" to-layer="1289" to-port="4" />
		<edge from-layer="1289" from-port="5" to-layer="1296" to-port="0" />
		<edge from-layer="1290" from-port="0" to-layer="1291" to-port="0" />
		<edge from-layer="1291" from-port="1" to-layer="1293" to-port="0" />
		<edge from-layer="1292" from-port="0" to-layer="1293" to-port="1" />
		<edge from-layer="1293" from-port="2" to-layer="1295" to-port="0" />
		<edge from-layer="1294" from-port="0" to-layer="1295" to-port="1" />
		<edge from-layer="1295" from-port="2" to-layer="1296" to-port="1" />
		<edge from-layer="1296" from-port="2" to-layer="1299" to-port="0" />
		<edge from-layer="1297" from-port="0" to-layer="1298" to-port="0" />
		<edge from-layer="1298" from-port="1" to-layer="1299" to-port="1" />
		<edge from-layer="1299" from-port="2" to-layer="1300" to-port="0" />
		<edge from-layer="1300" from-port="1" to-layer="1305" to-port="0" />
		<edge from-layer="1301" from-port="0" to-layer="1305" to-port="1" />
		<edge from-layer="1302" from-port="0" to-layer="1305" to-port="2" />
		<edge from-layer="1303" from-port="0" to-layer="1305" to-port="3" />
		<edge from-layer="1304" from-port="0" to-layer="1305" to-port="4" />
		<edge from-layer="1305" from-port="5" to-layer="1312" to-port="0" />
		<edge from-layer="1306" from-port="0" to-layer="1307" to-port="0" />
		<edge from-layer="1307" from-port="1" to-layer="1309" to-port="0" />
		<edge from-layer="1308" from-port="0" to-layer="1309" to-port="1" />
		<edge from-layer="1309" from-port="2" to-layer="1311" to-port="0" />
		<edge from-layer="1310" from-port="0" to-layer="1311" to-port="1" />
		<edge from-layer="1311" from-port="2" to-layer="1312" to-port="1" />
		<edge from-layer="1312" from-port="2" to-layer="1315" to-port="0" />
		<edge from-layer="1313" from-port="0" to-layer="1314" to-port="0" />
		<edge from-layer="1314" from-port="1" to-layer="1315" to-port="1" />
		<edge from-layer="1315" from-port="2" to-layer="1316" to-port="0" />
		<edge from-layer="1316" from-port="1" to-layer="1321" to-port="0" />
		<edge from-layer="1317" from-port="0" to-layer="1321" to-port="1" />
		<edge from-layer="1318" from-port="0" to-layer="1321" to-port="2" />
		<edge from-layer="1319" from-port="0" to-layer="1321" to-port="3" />
		<edge from-layer="1320" from-port="0" to-layer="1321" to-port="4" />
		<edge from-layer="1321" from-port="5" to-layer="1328" to-port="0" />
		<edge from-layer="1322" from-port="0" to-layer="1323" to-port="0" />
		<edge from-layer="1323" from-port="1" to-layer="1325" to-port="0" />
		<edge from-layer="1324" from-port="0" to-layer="1325" to-port="1" />
		<edge from-layer="1325" from-port="2" to-layer="1327" to-port="0" />
		<edge from-layer="1326" from-port="0" to-layer="1327" to-port="1" />
		<edge from-layer="1327" from-port="2" to-layer="1328" to-port="1" />
		<edge from-layer="1328" from-port="2" to-layer="1331" to-port="0" />
		<edge from-layer="1329" from-port="0" to-layer="1330" to-port="0" />
		<edge from-layer="1330" from-port="1" to-layer="1331" to-port="1" />
		<edge from-layer="1331" from-port="2" to-layer="1332" to-port="0" />
		<edge from-layer="1332" from-port="1" to-layer="1337" to-port="0" />
		<edge from-layer="1333" from-port="0" to-layer="1337" to-port="1" />
		<edge from-layer="1334" from-port="0" to-layer="1337" to-port="2" />
		<edge from-layer="1335" from-port="0" to-layer="1337" to-port="3" />
		<edge from-layer="1336" from-port="0" to-layer="1337" to-port="4" />
		<edge from-layer="1337" from-port="5" to-layer="1344" to-port="0" />
		<edge from-layer="1338" from-port="0" to-layer="1339" to-port="0" />
		<edge from-layer="1339" from-port="1" to-layer="1341" to-port="0" />
		<edge from-layer="1340" from-port="0" to-layer="1341" to-port="1" />
		<edge from-layer="1341" from-port="2" to-layer="1343" to-port="0" />
		<edge from-layer="1342" from-port="0" to-layer="1343" to-port="1" />
		<edge from-layer="1343" from-port="2" to-layer="1344" to-port="1" />
		<edge from-layer="1344" from-port="2" to-layer="1347" to-port="0" />
		<edge from-layer="1345" from-port="0" to-layer="1346" to-port="0" />
		<edge from-layer="1346" from-port="1" to-layer="1347" to-port="1" />
		<edge from-layer="1347" from-port="2" to-layer="1349" to-port="0" />
		<edge from-layer="1348" from-port="0" to-layer="1349" to-port="1" />
		<edge from-layer="1349" from-port="2" to-layer="1351" to-port="0" />
		<edge from-layer="1350" from-port="0" to-layer="1351" to-port="1" />
		<edge from-layer="1351" from-port="2" to-layer="1540" to-port="2" />
		<edge from-layer="1352" from-port="0" to-layer="1353" to-port="0" />
		<edge from-layer="1353" from-port="1" to-layer="1355" to-port="0" />
		<edge from-layer="1354" from-port="0" to-layer="1355" to-port="1" />
		<edge from-layer="1355" from-port="2" to-layer="1357" to-port="0" />
		<edge from-layer="1356" from-port="0" to-layer="1357" to-port="1" />
		<edge from-layer="1357" from-port="2" to-layer="1358" to-port="1" />
		<edge from-layer="1358" from-port="2" to-layer="1361" to-port="0" />
		<edge from-layer="1359" from-port="0" to-layer="1360" to-port="0" />
		<edge from-layer="1360" from-port="1" to-layer="1361" to-port="1" />
		<edge from-layer="1361" from-port="2" to-layer="1362" to-port="0" />
		<edge from-layer="1362" from-port="1" to-layer="1367" to-port="0" />
		<edge from-layer="1363" from-port="0" to-layer="1367" to-port="1" />
		<edge from-layer="1364" from-port="0" to-layer="1367" to-port="2" />
		<edge from-layer="1365" from-port="0" to-layer="1367" to-port="3" />
		<edge from-layer="1366" from-port="0" to-layer="1367" to-port="4" />
		<edge from-layer="1367" from-port="5" to-layer="1374" to-port="0" />
		<edge from-layer="1367" from-port="5" to-layer="1789" to-port="0" />
		<edge from-layer="1367" from-port="5" to-layer="1452" to-port="0" />
		<edge from-layer="1368" from-port="0" to-layer="1369" to-port="0" />
		<edge from-layer="1369" from-port="1" to-layer="1371" to-port="0" />
		<edge from-layer="1370" from-port="0" to-layer="1371" to-port="1" />
		<edge from-layer="1371" from-port="2" to-layer="1373" to-port="0" />
		<edge from-layer="1372" from-port="0" to-layer="1373" to-port="1" />
		<edge from-layer="1373" from-port="2" to-layer="1374" to-port="1" />
		<edge from-layer="1374" from-port="2" to-layer="1377" to-port="0" />
		<edge from-layer="1375" from-port="0" to-layer="1376" to-port="0" />
		<edge from-layer="1376" from-port="1" to-layer="1377" to-port="1" />
		<edge from-layer="1377" from-port="2" to-layer="1378" to-port="0" />
		<edge from-layer="1378" from-port="1" to-layer="1383" to-port="0" />
		<edge from-layer="1379" from-port="0" to-layer="1383" to-port="1" />
		<edge from-layer="1380" from-port="0" to-layer="1383" to-port="2" />
		<edge from-layer="1381" from-port="0" to-layer="1383" to-port="3" />
		<edge from-layer="1382" from-port="0" to-layer="1383" to-port="4" />
		<edge from-layer="1383" from-port="5" to-layer="1390" to-port="0" />
		<edge from-layer="1384" from-port="0" to-layer="1385" to-port="0" />
		<edge from-layer="1385" from-port="1" to-layer="1387" to-port="0" />
		<edge from-layer="1386" from-port="0" to-layer="1387" to-port="1" />
		<edge from-layer="1387" from-port="2" to-layer="1389" to-port="0" />
		<edge from-layer="1388" from-port="0" to-layer="1389" to-port="1" />
		<edge from-layer="1389" from-port="2" to-layer="1390" to-port="1" />
		<edge from-layer="1390" from-port="2" to-layer="1393" to-port="0" />
		<edge from-layer="1391" from-port="0" to-layer="1392" to-port="0" />
		<edge from-layer="1392" from-port="1" to-layer="1393" to-port="1" />
		<edge from-layer="1393" from-port="2" to-layer="1394" to-port="0" />
		<edge from-layer="1394" from-port="1" to-layer="1399" to-port="0" />
		<edge from-layer="1395" from-port="0" to-layer="1399" to-port="1" />
		<edge from-layer="1396" from-port="0" to-layer="1399" to-port="2" />
		<edge from-layer="1397" from-port="0" to-layer="1399" to-port="3" />
		<edge from-layer="1398" from-port="0" to-layer="1399" to-port="4" />
		<edge from-layer="1399" from-port="5" to-layer="1406" to-port="0" />
		<edge from-layer="1400" from-port="0" to-layer="1401" to-port="0" />
		<edge from-layer="1401" from-port="1" to-layer="1403" to-port="0" />
		<edge from-layer="1402" from-port="0" to-layer="1403" to-port="1" />
		<edge from-layer="1403" from-port="2" to-layer="1405" to-port="0" />
		<edge from-layer="1404" from-port="0" to-layer="1405" to-port="1" />
		<edge from-layer="1405" from-port="2" to-layer="1406" to-port="1" />
		<edge from-layer="1406" from-port="2" to-layer="1409" to-port="0" />
		<edge from-layer="1407" from-port="0" to-layer="1408" to-port="0" />
		<edge from-layer="1408" from-port="1" to-layer="1409" to-port="1" />
		<edge from-layer="1409" from-port="2" to-layer="1410" to-port="0" />
		<edge from-layer="1410" from-port="1" to-layer="1415" to-port="0" />
		<edge from-layer="1411" from-port="0" to-layer="1415" to-port="1" />
		<edge from-layer="1412" from-port="0" to-layer="1415" to-port="2" />
		<edge from-layer="1413" from-port="0" to-layer="1415" to-port="3" />
		<edge from-layer="1414" from-port="0" to-layer="1415" to-port="4" />
		<edge from-layer="1415" from-port="5" to-layer="1422" to-port="0" />
		<edge from-layer="1416" from-port="0" to-layer="1417" to-port="0" />
		<edge from-layer="1417" from-port="1" to-layer="1419" to-port="0" />
		<edge from-layer="1418" from-port="0" to-layer="1419" to-port="1" />
		<edge from-layer="1419" from-port="2" to-layer="1421" to-port="0" />
		<edge from-layer="1420" from-port="0" to-layer="1421" to-port="1" />
		<edge from-layer="1421" from-port="2" to-layer="1422" to-port="1" />
		<edge from-layer="1422" from-port="2" to-layer="1425" to-port="0" />
		<edge from-layer="1423" from-port="0" to-layer="1424" to-port="0" />
		<edge from-layer="1424" from-port="1" to-layer="1425" to-port="1" />
		<edge from-layer="1425" from-port="2" to-layer="1426" to-port="0" />
		<edge from-layer="1426" from-port="1" to-layer="1431" to-port="0" />
		<edge from-layer="1427" from-port="0" to-layer="1431" to-port="1" />
		<edge from-layer="1428" from-port="0" to-layer="1431" to-port="2" />
		<edge from-layer="1429" from-port="0" to-layer="1431" to-port="3" />
		<edge from-layer="1430" from-port="0" to-layer="1431" to-port="4" />
		<edge from-layer="1431" from-port="5" to-layer="1438" to-port="0" />
		<edge from-layer="1432" from-port="0" to-layer="1433" to-port="0" />
		<edge from-layer="1433" from-port="1" to-layer="1435" to-port="0" />
		<edge from-layer="1434" from-port="0" to-layer="1435" to-port="1" />
		<edge from-layer="1435" from-port="2" to-layer="1437" to-port="0" />
		<edge from-layer="1436" from-port="0" to-layer="1437" to-port="1" />
		<edge from-layer="1437" from-port="2" to-layer="1438" to-port="1" />
		<edge from-layer="1438" from-port="2" to-layer="1441" to-port="0" />
		<edge from-layer="1439" from-port="0" to-layer="1440" to-port="0" />
		<edge from-layer="1440" from-port="1" to-layer="1441" to-port="1" />
		<edge from-layer="1441" from-port="2" to-layer="1443" to-port="0" />
		<edge from-layer="1442" from-port="0" to-layer="1443" to-port="1" />
		<edge from-layer="1443" from-port="2" to-layer="1445" to-port="0" />
		<edge from-layer="1444" from-port="0" to-layer="1445" to-port="1" />
		<edge from-layer="1445" from-port="2" to-layer="1540" to-port="3" />
		<edge from-layer="1446" from-port="0" to-layer="1447" to-port="0" />
		<edge from-layer="1447" from-port="1" to-layer="1449" to-port="0" />
		<edge from-layer="1448" from-port="0" to-layer="1449" to-port="1" />
		<edge from-layer="1449" from-port="2" to-layer="1451" to-port="0" />
		<edge from-layer="1450" from-port="0" to-layer="1451" to-port="1" />
		<edge from-layer="1451" from-port="2" to-layer="1452" to-port="1" />
		<edge from-layer="1452" from-port="2" to-layer="1455" to-port="0" />
		<edge from-layer="1453" from-port="0" to-layer="1454" to-port="0" />
		<edge from-layer="1454" from-port="1" to-layer="1455" to-port="1" />
		<edge from-layer="1455" from-port="2" to-layer="1456" to-port="0" />
		<edge from-layer="1456" from-port="1" to-layer="1461" to-port="0" />
		<edge from-layer="1457" from-port="0" to-layer="1461" to-port="1" />
		<edge from-layer="1458" from-port="0" to-layer="1461" to-port="2" />
		<edge from-layer="1459" from-port="0" to-layer="1461" to-port="3" />
		<edge from-layer="1460" from-port="0" to-layer="1461" to-port="4" />
		<edge from-layer="1461" from-port="5" to-layer="1468" to-port="0" />
		<edge from-layer="1461" from-port="5" to-layer="1869" to-port="0" />
		<edge from-layer="1462" from-port="0" to-layer="1463" to-port="0" />
		<edge from-layer="1463" from-port="1" to-layer="1465" to-port="0" />
		<edge from-layer="1464" from-port="0" to-layer="1465" to-port="1" />
		<edge from-layer="1465" from-port="2" to-layer="1467" to-port="0" />
		<edge from-layer="1466" from-port="0" to-layer="1467" to-port="1" />
		<edge from-layer="1467" from-port="2" to-layer="1468" to-port="1" />
		<edge from-layer="1468" from-port="2" to-layer="1471" to-port="0" />
		<edge from-layer="1469" from-port="0" to-layer="1470" to-port="0" />
		<edge from-layer="1470" from-port="1" to-layer="1471" to-port="1" />
		<edge from-layer="1471" from-port="2" to-layer="1472" to-port="0" />
		<edge from-layer="1472" from-port="1" to-layer="1477" to-port="0" />
		<edge from-layer="1473" from-port="0" to-layer="1477" to-port="1" />
		<edge from-layer="1474" from-port="0" to-layer="1477" to-port="2" />
		<edge from-layer="1475" from-port="0" to-layer="1477" to-port="3" />
		<edge from-layer="1476" from-port="0" to-layer="1477" to-port="4" />
		<edge from-layer="1477" from-port="5" to-layer="1484" to-port="0" />
		<edge from-layer="1478" from-port="0" to-layer="1479" to-port="0" />
		<edge from-layer="1479" from-port="1" to-layer="1481" to-port="0" />
		<edge from-layer="1480" from-port="0" to-layer="1481" to-port="1" />
		<edge from-layer="1481" from-port="2" to-layer="1483" to-port="0" />
		<edge from-layer="1482" from-port="0" to-layer="1483" to-port="1" />
		<edge from-layer="1483" from-port="2" to-layer="1484" to-port="1" />
		<edge from-layer="1484" from-port="2" to-layer="1487" to-port="0" />
		<edge from-layer="1485" from-port="0" to-layer="1486" to-port="0" />
		<edge from-layer="1486" from-port="1" to-layer="1487" to-port="1" />
		<edge from-layer="1487" from-port="2" to-layer="1488" to-port="0" />
		<edge from-layer="1488" from-port="1" to-layer="1493" to-port="0" />
		<edge from-layer="1489" from-port="0" to-layer="1493" to-port="1" />
		<edge from-layer="1490" from-port="0" to-layer="1493" to-port="2" />
		<edge from-layer="1491" from-port="0" to-layer="1493" to-port="3" />
		<edge from-layer="1492" from-port="0" to-layer="1493" to-port="4" />
		<edge from-layer="1493" from-port="5" to-layer="1500" to-port="0" />
		<edge from-layer="1494" from-port="0" to-layer="1495" to-port="0" />
		<edge from-layer="1495" from-port="1" to-layer="1497" to-port="0" />
		<edge from-layer="1496" from-port="0" to-layer="1497" to-port="1" />
		<edge from-layer="1497" from-port="2" to-layer="1499" to-port="0" />
		<edge from-layer="1498" from-port="0" to-layer="1499" to-port="1" />
		<edge from-layer="1499" from-port="2" to-layer="1500" to-port="1" />
		<edge from-layer="1500" from-port="2" to-layer="1503" to-port="0" />
		<edge from-layer="1501" from-port="0" to-layer="1502" to-port="0" />
		<edge from-layer="1502" from-port="1" to-layer="1503" to-port="1" />
		<edge from-layer="1503" from-port="2" to-layer="1504" to-port="0" />
		<edge from-layer="1504" from-port="1" to-layer="1509" to-port="0" />
		<edge from-layer="1505" from-port="0" to-layer="1509" to-port="1" />
		<edge from-layer="1506" from-port="0" to-layer="1509" to-port="2" />
		<edge from-layer="1507" from-port="0" to-layer="1509" to-port="3" />
		<edge from-layer="1508" from-port="0" to-layer="1509" to-port="4" />
		<edge from-layer="1509" from-port="5" to-layer="1516" to-port="0" />
		<edge from-layer="1510" from-port="0" to-layer="1511" to-port="0" />
		<edge from-layer="1511" from-port="1" to-layer="1513" to-port="0" />
		<edge from-layer="1512" from-port="0" to-layer="1513" to-port="1" />
		<edge from-layer="1513" from-port="2" to-layer="1515" to-port="0" />
		<edge from-layer="1514" from-port="0" to-layer="1515" to-port="1" />
		<edge from-layer="1515" from-port="2" to-layer="1516" to-port="1" />
		<edge from-layer="1516" from-port="2" to-layer="1519" to-port="0" />
		<edge from-layer="1517" from-port="0" to-layer="1518" to-port="0" />
		<edge from-layer="1518" from-port="1" to-layer="1519" to-port="1" />
		<edge from-layer="1519" from-port="2" to-layer="1520" to-port="0" />
		<edge from-layer="1520" from-port="1" to-layer="1525" to-port="0" />
		<edge from-layer="1521" from-port="0" to-layer="1525" to-port="1" />
		<edge from-layer="1522" from-port="0" to-layer="1525" to-port="2" />
		<edge from-layer="1523" from-port="0" to-layer="1525" to-port="3" />
		<edge from-layer="1524" from-port="0" to-layer="1525" to-port="4" />
		<edge from-layer="1525" from-port="5" to-layer="1532" to-port="0" />
		<edge from-layer="1526" from-port="0" to-layer="1527" to-port="0" />
		<edge from-layer="1527" from-port="1" to-layer="1529" to-port="0" />
		<edge from-layer="1528" from-port="0" to-layer="1529" to-port="1" />
		<edge from-layer="1529" from-port="2" to-layer="1531" to-port="0" />
		<edge from-layer="1530" from-port="0" to-layer="1531" to-port="1" />
		<edge from-layer="1531" from-port="2" to-layer="1532" to-port="1" />
		<edge from-layer="1532" from-port="2" to-layer="1535" to-port="0" />
		<edge from-layer="1533" from-port="0" to-layer="1534" to-port="0" />
		<edge from-layer="1534" from-port="1" to-layer="1535" to-port="1" />
		<edge from-layer="1535" from-port="2" to-layer="1537" to-port="0" />
		<edge from-layer="1536" from-port="0" to-layer="1537" to-port="1" />
		<edge from-layer="1537" from-port="2" to-layer="1539" to-port="0" />
		<edge from-layer="1538" from-port="0" to-layer="1539" to-port="1" />
		<edge from-layer="1539" from-port="2" to-layer="1540" to-port="4" />
		<edge from-layer="1540" from-port="5" to-layer="1542" to-port="0" />
		<edge from-layer="1541" from-port="0" to-layer="1542" to-port="1" />
		<edge from-layer="1542" from-port="2" to-layer="1970" to-port="0" />
		<edge from-layer="1543" from-port="0" to-layer="1544" to-port="0" />
		<edge from-layer="1544" from-port="1" to-layer="1546" to-port="0" />
		<edge from-layer="1545" from-port="0" to-layer="1546" to-port="1" />
		<edge from-layer="1546" from-port="2" to-layer="1548" to-port="0" />
		<edge from-layer="1547" from-port="0" to-layer="1548" to-port="1" />
		<edge from-layer="1548" from-port="2" to-layer="1549" to-port="1" />
		<edge from-layer="1549" from-port="2" to-layer="1552" to-port="0" />
		<edge from-layer="1550" from-port="0" to-layer="1551" to-port="0" />
		<edge from-layer="1551" from-port="1" to-layer="1552" to-port="1" />
		<edge from-layer="1552" from-port="2" to-layer="1553" to-port="0" />
		<edge from-layer="1553" from-port="1" to-layer="1558" to-port="0" />
		<edge from-layer="1554" from-port="0" to-layer="1558" to-port="1" />
		<edge from-layer="1555" from-port="0" to-layer="1558" to-port="2" />
		<edge from-layer="1556" from-port="0" to-layer="1558" to-port="3" />
		<edge from-layer="1557" from-port="0" to-layer="1558" to-port="4" />
		<edge from-layer="1558" from-port="5" to-layer="1565" to-port="0" />
		<edge from-layer="1559" from-port="0" to-layer="1560" to-port="0" />
		<edge from-layer="1560" from-port="1" to-layer="1562" to-port="0" />
		<edge from-layer="1561" from-port="0" to-layer="1562" to-port="1" />
		<edge from-layer="1562" from-port="2" to-layer="1564" to-port="0" />
		<edge from-layer="1563" from-port="0" to-layer="1564" to-port="1" />
		<edge from-layer="1564" from-port="2" to-layer="1565" to-port="1" />
		<edge from-layer="1565" from-port="2" to-layer="1568" to-port="0" />
		<edge from-layer="1566" from-port="0" to-layer="1567" to-port="0" />
		<edge from-layer="1567" from-port="1" to-layer="1568" to-port="1" />
		<edge from-layer="1568" from-port="2" to-layer="1569" to-port="0" />
		<edge from-layer="1569" from-port="1" to-layer="1574" to-port="0" />
		<edge from-layer="1570" from-port="0" to-layer="1574" to-port="1" />
		<edge from-layer="1571" from-port="0" to-layer="1574" to-port="2" />
		<edge from-layer="1572" from-port="0" to-layer="1574" to-port="3" />
		<edge from-layer="1573" from-port="0" to-layer="1574" to-port="4" />
		<edge from-layer="1574" from-port="5" to-layer="1581" to-port="0" />
		<edge from-layer="1575" from-port="0" to-layer="1576" to-port="0" />
		<edge from-layer="1576" from-port="1" to-layer="1578" to-port="0" />
		<edge from-layer="1577" from-port="0" to-layer="1578" to-port="1" />
		<edge from-layer="1578" from-port="2" to-layer="1580" to-port="0" />
		<edge from-layer="1579" from-port="0" to-layer="1580" to-port="1" />
		<edge from-layer="1580" from-port="2" to-layer="1581" to-port="1" />
		<edge from-layer="1581" from-port="2" to-layer="1584" to-port="0" />
		<edge from-layer="1582" from-port="0" to-layer="1583" to-port="0" />
		<edge from-layer="1583" from-port="1" to-layer="1584" to-port="1" />
		<edge from-layer="1584" from-port="2" to-layer="1585" to-port="0" />
		<edge from-layer="1585" from-port="1" to-layer="1590" to-port="0" />
		<edge from-layer="1586" from-port="0" to-layer="1590" to-port="1" />
		<edge from-layer="1587" from-port="0" to-layer="1590" to-port="2" />
		<edge from-layer="1588" from-port="0" to-layer="1590" to-port="3" />
		<edge from-layer="1589" from-port="0" to-layer="1590" to-port="4" />
		<edge from-layer="1590" from-port="5" to-layer="1597" to-port="0" />
		<edge from-layer="1591" from-port="0" to-layer="1592" to-port="0" />
		<edge from-layer="1592" from-port="1" to-layer="1594" to-port="0" />
		<edge from-layer="1593" from-port="0" to-layer="1594" to-port="1" />
		<edge from-layer="1594" from-port="2" to-layer="1596" to-port="0" />
		<edge from-layer="1595" from-port="0" to-layer="1596" to-port="1" />
		<edge from-layer="1596" from-port="2" to-layer="1597" to-port="1" />
		<edge from-layer="1597" from-port="2" to-layer="1600" to-port="0" />
		<edge from-layer="1598" from-port="0" to-layer="1599" to-port="0" />
		<edge from-layer="1599" from-port="1" to-layer="1600" to-port="1" />
		<edge from-layer="1600" from-port="2" to-layer="1601" to-port="0" />
		<edge from-layer="1601" from-port="1" to-layer="1606" to-port="0" />
		<edge from-layer="1602" from-port="0" to-layer="1606" to-port="1" />
		<edge from-layer="1603" from-port="0" to-layer="1606" to-port="2" />
		<edge from-layer="1604" from-port="0" to-layer="1606" to-port="3" />
		<edge from-layer="1605" from-port="0" to-layer="1606" to-port="4" />
		<edge from-layer="1606" from-port="5" to-layer="1613" to-port="0" />
		<edge from-layer="1607" from-port="0" to-layer="1608" to-port="0" />
		<edge from-layer="1608" from-port="1" to-layer="1610" to-port="0" />
		<edge from-layer="1609" from-port="0" to-layer="1610" to-port="1" />
		<edge from-layer="1610" from-port="2" to-layer="1612" to-port="0" />
		<edge from-layer="1611" from-port="0" to-layer="1612" to-port="1" />
		<edge from-layer="1612" from-port="2" to-layer="1613" to-port="1" />
		<edge from-layer="1613" from-port="2" to-layer="1616" to-port="0" />
		<edge from-layer="1614" from-port="0" to-layer="1615" to-port="0" />
		<edge from-layer="1615" from-port="1" to-layer="1616" to-port="1" />
		<edge from-layer="1616" from-port="2" to-layer="1618" to-port="0" />
		<edge from-layer="1617" from-port="0" to-layer="1618" to-port="1" />
		<edge from-layer="1618" from-port="2" to-layer="1620" to-port="0" />
		<edge from-layer="1619" from-port="0" to-layer="1620" to-port="1" />
		<edge from-layer="1620" from-port="2" to-layer="1622" to-port="0" />
		<edge from-layer="1621" from-port="0" to-layer="1622" to-port="1" />
		<edge from-layer="1622" from-port="2" to-layer="1943" to-port="0" />
		<edge from-layer="1623" from-port="0" to-layer="1624" to-port="0" />
		<edge from-layer="1624" from-port="1" to-layer="1626" to-port="0" />
		<edge from-layer="1625" from-port="0" to-layer="1626" to-port="1" />
		<edge from-layer="1626" from-port="2" to-layer="1628" to-port="0" />
		<edge from-layer="1627" from-port="0" to-layer="1628" to-port="1" />
		<edge from-layer="1628" from-port="2" to-layer="1629" to-port="1" />
		<edge from-layer="1629" from-port="2" to-layer="1632" to-port="0" />
		<edge from-layer="1630" from-port="0" to-layer="1631" to-port="0" />
		<edge from-layer="1631" from-port="1" to-layer="1632" to-port="1" />
		<edge from-layer="1632" from-port="2" to-layer="1633" to-port="0" />
		<edge from-layer="1633" from-port="1" to-layer="1638" to-port="0" />
		<edge from-layer="1634" from-port="0" to-layer="1638" to-port="1" />
		<edge from-layer="1635" from-port="0" to-layer="1638" to-port="2" />
		<edge from-layer="1636" from-port="0" to-layer="1638" to-port="3" />
		<edge from-layer="1637" from-port="0" to-layer="1638" to-port="4" />
		<edge from-layer="1638" from-port="5" to-layer="1645" to-port="0" />
		<edge from-layer="1639" from-port="0" to-layer="1640" to-port="0" />
		<edge from-layer="1640" from-port="1" to-layer="1642" to-port="0" />
		<edge from-layer="1641" from-port="0" to-layer="1642" to-port="1" />
		<edge from-layer="1642" from-port="2" to-layer="1644" to-port="0" />
		<edge from-layer="1643" from-port="0" to-layer="1644" to-port="1" />
		<edge from-layer="1644" from-port="2" to-layer="1645" to-port="1" />
		<edge from-layer="1645" from-port="2" to-layer="1648" to-port="0" />
		<edge from-layer="1646" from-port="0" to-layer="1647" to-port="0" />
		<edge from-layer="1647" from-port="1" to-layer="1648" to-port="1" />
		<edge from-layer="1648" from-port="2" to-layer="1649" to-port="0" />
		<edge from-layer="1649" from-port="1" to-layer="1654" to-port="0" />
		<edge from-layer="1650" from-port="0" to-layer="1654" to-port="1" />
		<edge from-layer="1651" from-port="0" to-layer="1654" to-port="2" />
		<edge from-layer="1652" from-port="0" to-layer="1654" to-port="3" />
		<edge from-layer="1653" from-port="0" to-layer="1654" to-port="4" />
		<edge from-layer="1654" from-port="5" to-layer="1661" to-port="0" />
		<edge from-layer="1655" from-port="0" to-layer="1656" to-port="0" />
		<edge from-layer="1656" from-port="1" to-layer="1658" to-port="0" />
		<edge from-layer="1657" from-port="0" to-layer="1658" to-port="1" />
		<edge from-layer="1658" from-port="2" to-layer="1660" to-port="0" />
		<edge from-layer="1659" from-port="0" to-layer="1660" to-port="1" />
		<edge from-layer="1660" from-port="2" to-layer="1661" to-port="1" />
		<edge from-layer="1661" from-port="2" to-layer="1664" to-port="0" />
		<edge from-layer="1662" from-port="0" to-layer="1663" to-port="0" />
		<edge from-layer="1663" from-port="1" to-layer="1664" to-port="1" />
		<edge from-layer="1664" from-port="2" to-layer="1665" to-port="0" />
		<edge from-layer="1665" from-port="1" to-layer="1670" to-port="0" />
		<edge from-layer="1666" from-port="0" to-layer="1670" to-port="1" />
		<edge from-layer="1667" from-port="0" to-layer="1670" to-port="2" />
		<edge from-layer="1668" from-port="0" to-layer="1670" to-port="3" />
		<edge from-layer="1669" from-port="0" to-layer="1670" to-port="4" />
		<edge from-layer="1670" from-port="5" to-layer="1677" to-port="0" />
		<edge from-layer="1671" from-port="0" to-layer="1672" to-port="0" />
		<edge from-layer="1672" from-port="1" to-layer="1674" to-port="0" />
		<edge from-layer="1673" from-port="0" to-layer="1674" to-port="1" />
		<edge from-layer="1674" from-port="2" to-layer="1676" to-port="0" />
		<edge from-layer="1675" from-port="0" to-layer="1676" to-port="1" />
		<edge from-layer="1676" from-port="2" to-layer="1677" to-port="1" />
		<edge from-layer="1677" from-port="2" to-layer="1680" to-port="0" />
		<edge from-layer="1678" from-port="0" to-layer="1679" to-port="0" />
		<edge from-layer="1679" from-port="1" to-layer="1680" to-port="1" />
		<edge from-layer="1680" from-port="2" to-layer="1681" to-port="0" />
		<edge from-layer="1681" from-port="1" to-layer="1686" to-port="0" />
		<edge from-layer="1682" from-port="0" to-layer="1686" to-port="1" />
		<edge from-layer="1683" from-port="0" to-layer="1686" to-port="2" />
		<edge from-layer="1684" from-port="0" to-layer="1686" to-port="3" />
		<edge from-layer="1685" from-port="0" to-layer="1686" to-port="4" />
		<edge from-layer="1686" from-port="5" to-layer="1693" to-port="0" />
		<edge from-layer="1687" from-port="0" to-layer="1688" to-port="0" />
		<edge from-layer="1688" from-port="1" to-layer="1690" to-port="0" />
		<edge from-layer="1689" from-port="0" to-layer="1690" to-port="1" />
		<edge from-layer="1690" from-port="2" to-layer="1692" to-port="0" />
		<edge from-layer="1691" from-port="0" to-layer="1692" to-port="1" />
		<edge from-layer="1692" from-port="2" to-layer="1693" to-port="1" />
		<edge from-layer="1693" from-port="2" to-layer="1696" to-port="0" />
		<edge from-layer="1694" from-port="0" to-layer="1695" to-port="0" />
		<edge from-layer="1695" from-port="1" to-layer="1696" to-port="1" />
		<edge from-layer="1696" from-port="2" to-layer="1698" to-port="0" />
		<edge from-layer="1697" from-port="0" to-layer="1698" to-port="1" />
		<edge from-layer="1698" from-port="2" to-layer="1700" to-port="0" />
		<edge from-layer="1699" from-port="0" to-layer="1700" to-port="1" />
		<edge from-layer="1700" from-port="2" to-layer="1702" to-port="0" />
		<edge from-layer="1701" from-port="0" to-layer="1702" to-port="1" />
		<edge from-layer="1702" from-port="2" to-layer="1943" to-port="1" />
		<edge from-layer="1703" from-port="0" to-layer="1704" to-port="0" />
		<edge from-layer="1704" from-port="1" to-layer="1706" to-port="0" />
		<edge from-layer="1705" from-port="0" to-layer="1706" to-port="1" />
		<edge from-layer="1706" from-port="2" to-layer="1708" to-port="0" />
		<edge from-layer="1707" from-port="0" to-layer="1708" to-port="1" />
		<edge from-layer="1708" from-port="2" to-layer="1709" to-port="1" />
		<edge from-layer="1709" from-port="2" to-layer="1712" to-port="0" />
		<edge from-layer="1710" from-port="0" to-layer="1711" to-port="0" />
		<edge from-layer="1711" from-port="1" to-layer="1712" to-port="1" />
		<edge from-layer="1712" from-port="2" to-layer="1713" to-port="0" />
		<edge from-layer="1713" from-port="1" to-layer="1718" to-port="0" />
		<edge from-layer="1714" from-port="0" to-layer="1718" to-port="1" />
		<edge from-layer="1715" from-port="0" to-layer="1718" to-port="2" />
		<edge from-layer="1716" from-port="0" to-layer="1718" to-port="3" />
		<edge from-layer="1717" from-port="0" to-layer="1718" to-port="4" />
		<edge from-layer="1718" from-port="5" to-layer="1725" to-port="0" />
		<edge from-layer="1719" from-port="0" to-layer="1720" to-port="0" />
		<edge from-layer="1720" from-port="1" to-layer="1722" to-port="0" />
		<edge from-layer="1721" from-port="0" to-layer="1722" to-port="1" />
		<edge from-layer="1722" from-port="2" to-layer="1724" to-port="0" />
		<edge from-layer="1723" from-port="0" to-layer="1724" to-port="1" />
		<edge from-layer="1724" from-port="2" to-layer="1725" to-port="1" />
		<edge from-layer="1725" from-port="2" to-layer="1728" to-port="0" />
		<edge from-layer="1726" from-port="0" to-layer="1727" to-port="0" />
		<edge from-layer="1727" from-port="1" to-layer="1728" to-port="1" />
		<edge from-layer="1728" from-port="2" to-layer="1729" to-port="0" />
		<edge from-layer="1729" from-port="1" to-layer="1734" to-port="0" />
		<edge from-layer="1730" from-port="0" to-layer="1734" to-port="1" />
		<edge from-layer="1731" from-port="0" to-layer="1734" to-port="2" />
		<edge from-layer="1732" from-port="0" to-layer="1734" to-port="3" />
		<edge from-layer="1733" from-port="0" to-layer="1734" to-port="4" />
		<edge from-layer="1734" from-port="5" to-layer="1741" to-port="0" />
		<edge from-layer="1735" from-port="0" to-layer="1736" to-port="0" />
		<edge from-layer="1736" from-port="1" to-layer="1738" to-port="0" />
		<edge from-layer="1737" from-port="0" to-layer="1738" to-port="1" />
		<edge from-layer="1738" from-port="2" to-layer="1740" to-port="0" />
		<edge from-layer="1739" from-port="0" to-layer="1740" to-port="1" />
		<edge from-layer="1740" from-port="2" to-layer="1741" to-port="1" />
		<edge from-layer="1741" from-port="2" to-layer="1744" to-port="0" />
		<edge from-layer="1742" from-port="0" to-layer="1743" to-port="0" />
		<edge from-layer="1743" from-port="1" to-layer="1744" to-port="1" />
		<edge from-layer="1744" from-port="2" to-layer="1745" to-port="0" />
		<edge from-layer="1745" from-port="1" to-layer="1750" to-port="0" />
		<edge from-layer="1746" from-port="0" to-layer="1750" to-port="1" />
		<edge from-layer="1747" from-port="0" to-layer="1750" to-port="2" />
		<edge from-layer="1748" from-port="0" to-layer="1750" to-port="3" />
		<edge from-layer="1749" from-port="0" to-layer="1750" to-port="4" />
		<edge from-layer="1750" from-port="5" to-layer="1757" to-port="0" />
		<edge from-layer="1751" from-port="0" to-layer="1752" to-port="0" />
		<edge from-layer="1752" from-port="1" to-layer="1754" to-port="0" />
		<edge from-layer="1753" from-port="0" to-layer="1754" to-port="1" />
		<edge from-layer="1754" from-port="2" to-layer="1756" to-port="0" />
		<edge from-layer="1755" from-port="0" to-layer="1756" to-port="1" />
		<edge from-layer="1756" from-port="2" to-layer="1757" to-port="1" />
		<edge from-layer="1757" from-port="2" to-layer="1760" to-port="0" />
		<edge from-layer="1758" from-port="0" to-layer="1759" to-port="0" />
		<edge from-layer="1759" from-port="1" to-layer="1760" to-port="1" />
		<edge from-layer="1760" from-port="2" to-layer="1761" to-port="0" />
		<edge from-layer="1761" from-port="1" to-layer="1766" to-port="0" />
		<edge from-layer="1762" from-port="0" to-layer="1766" to-port="1" />
		<edge from-layer="1763" from-port="0" to-layer="1766" to-port="2" />
		<edge from-layer="1764" from-port="0" to-layer="1766" to-port="3" />
		<edge from-layer="1765" from-port="0" to-layer="1766" to-port="4" />
		<edge from-layer="1766" from-port="5" to-layer="1773" to-port="0" />
		<edge from-layer="1767" from-port="0" to-layer="1768" to-port="0" />
		<edge from-layer="1768" from-port="1" to-layer="1770" to-port="0" />
		<edge from-layer="1769" from-port="0" to-layer="1770" to-port="1" />
		<edge from-layer="1770" from-port="2" to-layer="1772" to-port="0" />
		<edge from-layer="1771" from-port="0" to-layer="1772" to-port="1" />
		<edge from-layer="1772" from-port="2" to-layer="1773" to-port="1" />
		<edge from-layer="1773" from-port="2" to-layer="1776" to-port="0" />
		<edge from-layer="1774" from-port="0" to-layer="1775" to-port="0" />
		<edge from-layer="1775" from-port="1" to-layer="1776" to-port="1" />
		<edge from-layer="1776" from-port="2" to-layer="1778" to-port="0" />
		<edge from-layer="1777" from-port="0" to-layer="1778" to-port="1" />
		<edge from-layer="1778" from-port="2" to-layer="1780" to-port="0" />
		<edge from-layer="1779" from-port="0" to-layer="1780" to-port="1" />
		<edge from-layer="1780" from-port="2" to-layer="1782" to-port="0" />
		<edge from-layer="1781" from-port="0" to-layer="1782" to-port="1" />
		<edge from-layer="1782" from-port="2" to-layer="1943" to-port="2" />
		<edge from-layer="1783" from-port="0" to-layer="1784" to-port="0" />
		<edge from-layer="1784" from-port="1" to-layer="1786" to-port="0" />
		<edge from-layer="1785" from-port="0" to-layer="1786" to-port="1" />
		<edge from-layer="1786" from-port="2" to-layer="1788" to-port="0" />
		<edge from-layer="1787" from-port="0" to-layer="1788" to-port="1" />
		<edge from-layer="1788" from-port="2" to-layer="1789" to-port="1" />
		<edge from-layer="1789" from-port="2" to-layer="1792" to-port="0" />
		<edge from-layer="1790" from-port="0" to-layer="1791" to-port="0" />
		<edge from-layer="1791" from-port="1" to-layer="1792" to-port="1" />
		<edge from-layer="1792" from-port="2" to-layer="1793" to-port="0" />
		<edge from-layer="1793" from-port="1" to-layer="1798" to-port="0" />
		<edge from-layer="1794" from-port="0" to-layer="1798" to-port="1" />
		<edge from-layer="1795" from-port="0" to-layer="1798" to-port="2" />
		<edge from-layer="1796" from-port="0" to-layer="1798" to-port="3" />
		<edge from-layer="1797" from-port="0" to-layer="1798" to-port="4" />
		<edge from-layer="1798" from-port="5" to-layer="1805" to-port="0" />
		<edge from-layer="1799" from-port="0" to-layer="1800" to-port="0" />
		<edge from-layer="1800" from-port="1" to-layer="1802" to-port="0" />
		<edge from-layer="1801" from-port="0" to-layer="1802" to-port="1" />
		<edge from-layer="1802" from-port="2" to-layer="1804" to-port="0" />
		<edge from-layer="1803" from-port="0" to-layer="1804" to-port="1" />
		<edge from-layer="1804" from-port="2" to-layer="1805" to-port="1" />
		<edge from-layer="1805" from-port="2" to-layer="1808" to-port="0" />
		<edge from-layer="1806" from-port="0" to-layer="1807" to-port="0" />
		<edge from-layer="1807" from-port="1" to-layer="1808" to-port="1" />
		<edge from-layer="1808" from-port="2" to-layer="1809" to-port="0" />
		<edge from-layer="1809" from-port="1" to-layer="1814" to-port="0" />
		<edge from-layer="1810" from-port="0" to-layer="1814" to-port="1" />
		<edge from-layer="1811" from-port="0" to-layer="1814" to-port="2" />
		<edge from-layer="1812" from-port="0" to-layer="1814" to-port="3" />
		<edge from-layer="1813" from-port="0" to-layer="1814" to-port="4" />
		<edge from-layer="1814" from-port="5" to-layer="1821" to-port="0" />
		<edge from-layer="1815" from-port="0" to-layer="1816" to-port="0" />
		<edge from-layer="1816" from-port="1" to-layer="1818" to-port="0" />
		<edge from-layer="1817" from-port="0" to-layer="1818" to-port="1" />
		<edge from-layer="1818" from-port="2" to-layer="1820" to-port="0" />
		<edge from-layer="1819" from-port="0" to-layer="1820" to-port="1" />
		<edge from-layer="1820" from-port="2" to-layer="1821" to-port="1" />
		<edge from-layer="1821" from-port="2" to-layer="1824" to-port="0" />
		<edge from-layer="1822" from-port="0" to-layer="1823" to-port="0" />
		<edge from-layer="1823" from-port="1" to-layer="1824" to-port="1" />
		<edge from-layer="1824" from-port="2" to-layer="1825" to-port="0" />
		<edge from-layer="1825" from-port="1" to-layer="1830" to-port="0" />
		<edge from-layer="1826" from-port="0" to-layer="1830" to-port="1" />
		<edge from-layer="1827" from-port="0" to-layer="1830" to-port="2" />
		<edge from-layer="1828" from-port="0" to-layer="1830" to-port="3" />
		<edge from-layer="1829" from-port="0" to-layer="1830" to-port="4" />
		<edge from-layer="1830" from-port="5" to-layer="1837" to-port="0" />
		<edge from-layer="1831" from-port="0" to-layer="1832" to-port="0" />
		<edge from-layer="1832" from-port="1" to-layer="1834" to-port="0" />
		<edge from-layer="1833" from-port="0" to-layer="1834" to-port="1" />
		<edge from-layer="1834" from-port="2" to-layer="1836" to-port="0" />
		<edge from-layer="1835" from-port="0" to-layer="1836" to-port="1" />
		<edge from-layer="1836" from-port="2" to-layer="1837" to-port="1" />
		<edge from-layer="1837" from-port="2" to-layer="1840" to-port="0" />
		<edge from-layer="1838" from-port="0" to-layer="1839" to-port="0" />
		<edge from-layer="1839" from-port="1" to-layer="1840" to-port="1" />
		<edge from-layer="1840" from-port="2" to-layer="1841" to-port="0" />
		<edge from-layer="1841" from-port="1" to-layer="1846" to-port="0" />
		<edge from-layer="1842" from-port="0" to-layer="1846" to-port="1" />
		<edge from-layer="1843" from-port="0" to-layer="1846" to-port="2" />
		<edge from-layer="1844" from-port="0" to-layer="1846" to-port="3" />
		<edge from-layer="1845" from-port="0" to-layer="1846" to-port="4" />
		<edge from-layer="1846" from-port="5" to-layer="1853" to-port="0" />
		<edge from-layer="1847" from-port="0" to-layer="1848" to-port="0" />
		<edge from-layer="1848" from-port="1" to-layer="1850" to-port="0" />
		<edge from-layer="1849" from-port="0" to-layer="1850" to-port="1" />
		<edge from-layer="1850" from-port="2" to-layer="1852" to-port="0" />
		<edge from-layer="1851" from-port="0" to-layer="1852" to-port="1" />
		<edge from-layer="1852" from-port="2" to-layer="1853" to-port="1" />
		<edge from-layer="1853" from-port="2" to-layer="1856" to-port="0" />
		<edge from-layer="1854" from-port="0" to-layer="1855" to-port="0" />
		<edge from-layer="1855" from-port="1" to-layer="1856" to-port="1" />
		<edge from-layer="1856" from-port="2" to-layer="1858" to-port="0" />
		<edge from-layer="1857" from-port="0" to-layer="1858" to-port="1" />
		<edge from-layer="1858" from-port="2" to-layer="1860" to-port="0" />
		<edge from-layer="1859" from-port="0" to-layer="1860" to-port="1" />
		<edge from-layer="1860" from-port="2" to-layer="1862" to-port="0" />
		<edge from-layer="1861" from-port="0" to-layer="1862" to-port="1" />
		<edge from-layer="1862" from-port="2" to-layer="1943" to-port="3" />
		<edge from-layer="1863" from-port="0" to-layer="1864" to-port="0" />
		<edge from-layer="1864" from-port="1" to-layer="1866" to-port="0" />
		<edge from-layer="1865" from-port="0" to-layer="1866" to-port="1" />
		<edge from-layer="1866" from-port="2" to-layer="1868" to-port="0" />
		<edge from-layer="1867" from-port="0" to-layer="1868" to-port="1" />
		<edge from-layer="1868" from-port="2" to-layer="1869" to-port="1" />
		<edge from-layer="1869" from-port="2" to-layer="1872" to-port="0" />
		<edge from-layer="1870" from-port="0" to-layer="1871" to-port="0" />
		<edge from-layer="1871" from-port="1" to-layer="1872" to-port="1" />
		<edge from-layer="1872" from-port="2" to-layer="1873" to-port="0" />
		<edge from-layer="1873" from-port="1" to-layer="1878" to-port="0" />
		<edge from-layer="1874" from-port="0" to-layer="1878" to-port="1" />
		<edge from-layer="1875" from-port="0" to-layer="1878" to-port="2" />
		<edge from-layer="1876" from-port="0" to-layer="1878" to-port="3" />
		<edge from-layer="1877" from-port="0" to-layer="1878" to-port="4" />
		<edge from-layer="1878" from-port="5" to-layer="1885" to-port="0" />
		<edge from-layer="1879" from-port="0" to-layer="1880" to-port="0" />
		<edge from-layer="1880" from-port="1" to-layer="1882" to-port="0" />
		<edge from-layer="1881" from-port="0" to-layer="1882" to-port="1" />
		<edge from-layer="1882" from-port="2" to-layer="1884" to-port="0" />
		<edge from-layer="1883" from-port="0" to-layer="1884" to-port="1" />
		<edge from-layer="1884" from-port="2" to-layer="1885" to-port="1" />
		<edge from-layer="1885" from-port="2" to-layer="1888" to-port="0" />
		<edge from-layer="1886" from-port="0" to-layer="1887" to-port="0" />
		<edge from-layer="1887" from-port="1" to-layer="1888" to-port="1" />
		<edge from-layer="1888" from-port="2" to-layer="1889" to-port="0" />
		<edge from-layer="1889" from-port="1" to-layer="1894" to-port="0" />
		<edge from-layer="1890" from-port="0" to-layer="1894" to-port="1" />
		<edge from-layer="1891" from-port="0" to-layer="1894" to-port="2" />
		<edge from-layer="1892" from-port="0" to-layer="1894" to-port="3" />
		<edge from-layer="1893" from-port="0" to-layer="1894" to-port="4" />
		<edge from-layer="1894" from-port="5" to-layer="1901" to-port="0" />
		<edge from-layer="1895" from-port="0" to-layer="1896" to-port="0" />
		<edge from-layer="1896" from-port="1" to-layer="1898" to-port="0" />
		<edge from-layer="1897" from-port="0" to-layer="1898" to-port="1" />
		<edge from-layer="1898" from-port="2" to-layer="1900" to-port="0" />
		<edge from-layer="1899" from-port="0" to-layer="1900" to-port="1" />
		<edge from-layer="1900" from-port="2" to-layer="1901" to-port="1" />
		<edge from-layer="1901" from-port="2" to-layer="1904" to-port="0" />
		<edge from-layer="1902" from-port="0" to-layer="1903" to-port="0" />
		<edge from-layer="1903" from-port="1" to-layer="1904" to-port="1" />
		<edge from-layer="1904" from-port="2" to-layer="1905" to-port="0" />
		<edge from-layer="1905" from-port="1" to-layer="1910" to-port="0" />
		<edge from-layer="1906" from-port="0" to-layer="1910" to-port="1" />
		<edge from-layer="1907" from-port="0" to-layer="1910" to-port="2" />
		<edge from-layer="1908" from-port="0" to-layer="1910" to-port="3" />
		<edge from-layer="1909" from-port="0" to-layer="1910" to-port="4" />
		<edge from-layer="1910" from-port="5" to-layer="1917" to-port="0" />
		<edge from-layer="1911" from-port="0" to-layer="1912" to-port="0" />
		<edge from-layer="1912" from-port="1" to-layer="1914" to-port="0" />
		<edge from-layer="1913" from-port="0" to-layer="1914" to-port="1" />
		<edge from-layer="1914" from-port="2" to-layer="1916" to-port="0" />
		<edge from-layer="1915" from-port="0" to-layer="1916" to-port="1" />
		<edge from-layer="1916" from-port="2" to-layer="1917" to-port="1" />
		<edge from-layer="1917" from-port="2" to-layer="1920" to-port="0" />
		<edge from-layer="1918" from-port="0" to-layer="1919" to-port="0" />
		<edge from-layer="1919" from-port="1" to-layer="1920" to-port="1" />
		<edge from-layer="1920" from-port="2" to-layer="1921" to-port="0" />
		<edge from-layer="1921" from-port="1" to-layer="1926" to-port="0" />
		<edge from-layer="1922" from-port="0" to-layer="1926" to-port="1" />
		<edge from-layer="1923" from-port="0" to-layer="1926" to-port="2" />
		<edge from-layer="1924" from-port="0" to-layer="1926" to-port="3" />
		<edge from-layer="1925" from-port="0" to-layer="1926" to-port="4" />
		<edge from-layer="1926" from-port="5" to-layer="1933" to-port="0" />
		<edge from-layer="1927" from-port="0" to-layer="1928" to-port="0" />
		<edge from-layer="1928" from-port="1" to-layer="1930" to-port="0" />
		<edge from-layer="1929" from-port="0" to-layer="1930" to-port="1" />
		<edge from-layer="1930" from-port="2" to-layer="1932" to-port="0" />
		<edge from-layer="1931" from-port="0" to-layer="1932" to-port="1" />
		<edge from-layer="1932" from-port="2" to-layer="1933" to-port="1" />
		<edge from-layer="1933" from-port="2" to-layer="1936" to-port="0" />
		<edge from-layer="1934" from-port="0" to-layer="1935" to-port="0" />
		<edge from-layer="1935" from-port="1" to-layer="1936" to-port="1" />
		<edge from-layer="1936" from-port="2" to-layer="1938" to-port="0" />
		<edge from-layer="1937" from-port="0" to-layer="1938" to-port="1" />
		<edge from-layer="1938" from-port="2" to-layer="1940" to-port="0" />
		<edge from-layer="1939" from-port="0" to-layer="1940" to-port="1" />
		<edge from-layer="1940" from-port="2" to-layer="1942" to-port="0" />
		<edge from-layer="1941" from-port="0" to-layer="1942" to-port="1" />
		<edge from-layer="1942" from-port="2" to-layer="1943" to-port="4" />
		<edge from-layer="1943" from-port="5" to-layer="1945" to-port="0" />
		<edge from-layer="1944" from-port="0" to-layer="1945" to-port="1" />
		<edge from-layer="1945" from-port="2" to-layer="1946" to-port="0" />
		<edge from-layer="1946" from-port="1" to-layer="1948" to-port="0" />
		<edge from-layer="1947" from-port="0" to-layer="1948" to-port="1" />
		<edge from-layer="1948" from-port="2" to-layer="1970" to-port="1" />
		<edge from-layer="1949" from-port="0" to-layer="1950" to-port="0" />
		<edge from-layer="1950" from-port="1" to-layer="1962" to-port="0" />
		<edge from-layer="1951" from-port="0" to-layer="1952" to-port="0" />
		<edge from-layer="1952" from-port="1" to-layer="1959" to-port="0" />
		<edge from-layer="1953" from-port="0" to-layer="1954" to-port="0" />
		<edge from-layer="1954" from-port="1" to-layer="1955" to-port="0" />
		<edge from-layer="1955" from-port="1" to-layer="1958" to-port="0" />
		<edge from-layer="1956" from-port="0" to-layer="1958" to-port="1" />
		<edge from-layer="1957" from-port="0" to-layer="1958" to-port="2" />
		<edge from-layer="1958" from-port="3" to-layer="1959" to-port="1" />
		<edge from-layer="1959" from-port="2" to-layer="1961" to-port="0" />
		<edge from-layer="1960" from-port="0" to-layer="1961" to-port="1" />
		<edge from-layer="1961" from-port="2" to-layer="1962" to-port="1" />
		<edge from-layer="1962" from-port="2" to-layer="1964" to-port="0" />
		<edge from-layer="1963" from-port="0" to-layer="1964" to-port="1" />
		<edge from-layer="1964" from-port="2" to-layer="1967" to-port="0" />
		<edge from-layer="1965" from-port="0" to-layer="1967" to-port="1" />
		<edge from-layer="1966" from-port="0" to-layer="1967" to-port="2" />
		<edge from-layer="1967" from-port="3" to-layer="1969" to-port="0" />
		<edge from-layer="1968" from-port="0" to-layer="1969" to-port="1" />
		<edge from-layer="1969" from-port="2" to-layer="1970" to-port="2" />
		<edge from-layer="1970" from-port="3" to-layer="1971" to-port="0" />
	</edges>
</net>
