<?xml version="1.0"?>
<net name="saved_model" version="11">
	<layers>
		<layer id="0" name="input_tensor" type="Parameter" version="opset1">
			<data shape="1,640,640,3" element_type="u8" />
			<rt_info>
				<attribute name="fused_names" version="0" value="input_tensor" />
				<attribute name="old_api_map_element_type" version="0" value="f32" />
				<attribute name="old_api_map_order" version="0" value="0, 2, 3, 1" />
			</rt_info>
			<output>
				<port id="0" precision="U8" names="Func/StatefulPartitionedCall/input/_0:0,input_tensor,input_tensor:0">
					<dim>1</dim>
					<dim>640</dim>
					<dim>640</dim>
					<dim>3</dim>
				</port>
			</output>
		</layer>
		<layer id="1" name="3399_input_port_0/value87824375" type="Const" version="opset1">
			<data element_type="f16" shape="1, 1, 1, 1" offset="0" size="2" />
			<output>
				<port id="0" precision="FP16">
					<dim>1</dim>
					<dim>1</dim>
					<dim>1</dim>
					<dim>1</dim>
				</port>
			</output>
		</layer>
		<layer id="2" name="3399_input_port_0/value87813242/restored_convert" type="Convert" version="opset1">
			<data destination_type="f32" />
			<rt_info>
				<attribute name="decompression" version="0" />
				<attribute name="fused_names" version="0" value="3399_input_port_0/value" />
			</rt_info>
			<input>
				<port id="0" precision="FP16">
					<dim>1</dim>
					<dim>1</dim>
					<dim>1</dim>
					<dim>1</dim>
				</port>
			</input>
			<output>
				<port id="1" precision="FP32">
					<dim>1</dim>
					<dim>1</dim>
					<dim>1</dim>
					<dim>1</dim>
				</port>
			</output>
		</layer>
		<layer id="3" name="Convert_2482" type="Convert" version="opset1">
			<data destination_type="f32" />
			<rt_info>
				<attribute name="fused_names" version="0" value="3398, input_tensor/Transpose([0 3 1 2])" />
			</rt_info>
			<input>
				<port id="0" precision="U8">
					<dim>1</dim>
					<dim>640</dim>
					<dim>640</dim>
					<dim>3</dim>
				</port>
			</input>
			<output>
				<port id="1" precision="FP32">
					<dim>1</dim>
					<dim>640</dim>
					<dim>640</dim>
					<dim>3</dim>
				</port>
			</output>
		</layer>
		<layer id="4" name="input_tensor/Transpose([0 3 1 2])/value5966073877880" type="Const" version="opset1">
			<data element_type="i64" shape="4" offset="2" size="32" />
			<rt_info>
				<attribute name="fused_names" version="0" value="input_tensor/Transpose([0 3 1 2])/value5966073877" />
			</rt_info>
			<output>
				<port id="0" precision="I64">
					<dim>4</dim>
				</port>
			</output>
		</layer>
		<layer id="5" name="3398" type="Transpose" version="opset1">
			<rt_info>
				<attribute name="fused_names" version="0" value="3398, input_tensor/Transpose([0 3 1 2])" />
			</rt_info>
			<input>
				<port id="0" precision="FP32">
					<dim>1</dim>
					<dim>640</dim>
					<dim>640</dim>
					<dim>3</dim>
				</port>
				<port id="1" precision="I64">
					<dim>4</dim>
				</port>
			</input>
			<output>
				<port id="2" precision="FP32">
					<dim>1</dim>
					<dim>3</dim>
					<dim>640</dim>
					<dim>640</dim>
				</port>
			</output>
		</layer>
		<layer id="6" name="3399" type="Multiply" version="opset1">
			<data auto_broadcast="numpy" />
			<rt_info>
				<attribute name="fused_names" version="0" value="3399" />
			</rt_info>
			<input>
				<port id="0" precision="FP32">
					<dim>1</dim>
					<dim>1</dim>
					<dim>1</dim>
					<dim>1</dim>
				</port>
				<port id="1" precision="FP32">
					<dim>1</dim>
					<dim>3</dim>
					<dim>640</dim>
					<dim>640</dim>
				</port>
			</input>
			<output>
				<port id="2" precision="FP32">
					<dim>1</dim>
					<dim>3</dim>
					<dim>640</dim>
					<dim>640</dim>
				</port>
			</output>
		</layer>
		<layer id="7" name="3401_input_port_1/value88425623" type="Const" version="opset1">
			<data element_type="f16" shape="1, 1, 1, 1" offset="34" size="2" />
			<output>
				<port id="0" precision="FP16">
					<dim>1</dim>
					<dim>1</dim>
					<dim>1</dim>
					<dim>1</dim>
				</port>
			</output>
		</layer>
		<layer id="8" name="3401_input_port_1/value88413244/restored_convert" type="Convert" version="opset1">
			<data destination_type="f32" />
			<rt_info>
				<attribute name="decompression" version="0" />
				<attribute name="fused_names" version="0" value="3401_input_port_1/value" />
			</rt_info>
			<input>
				<port id="0" precision="FP16">
					<dim>1</dim>
					<dim>1</dim>
					<dim>1</dim>
					<dim>1</dim>
				</port>
			</input>
			<output>
				<port id="1" precision="FP32">
					<dim>1</dim>
					<dim>1</dim>
					<dim>1</dim>
					<dim>1</dim>
				</port>
			</output>
		</layer>
		<layer id="9" name="3401" type="Add" version="opset1">
			<data auto_broadcast="numpy" />
			<rt_info>
				<attribute name="fused_names" version="0" value="3401" />
			</rt_info>
			<input>
				<port id="0" precision="FP32">
					<dim>1</dim>
					<dim>3</dim>
					<dim>640</dim>
					<dim>640</dim>
				</port>
				<port id="1" precision="FP32">
					<dim>1</dim>
					<dim>1</dim>
					<dim>1</dim>
					<dim>1</dim>
				</port>
			</input>
			<output>
				<port id="2" precision="FP32" names="StatefulPartitionedCall/map/TensorArrayV2Stack/TensorListStack:0">
					<dim>1</dim>
					<dim>3</dim>
					<dim>640</dim>
					<dim>640</dim>
				</port>
			</output>
		</layer>
		<layer id="10" name="4692469625281" type="Const" version="opset1">
			<data element_type="f32" shape="" offset="36" size="4" />
			<output>
				<port id="0" precision="FP32" />
			</output>
		</layer>
		<layer id="11" name="4693469726148" type="Const" version="opset1">
			<data element_type="f32" shape="" offset="40" size="4" />
			<output>
				<port id="0" precision="FP32" />
			</output>
		</layer>
		<layer id="12" name="4694469825011" type="Const" version="opset1">
			<data element_type="f32" shape="" offset="36" size="4" />
			<output>
				<port id="0" precision="FP32" />
			</output>
		</layer>
		<layer id="13" name="4695469924588" type="Const" version="opset1">
			<data element_type="f32" shape="" offset="40" size="4" />
			<output>
				<port id="0" precision="FP32" />
			</output>
		</layer>
		<layer id="14" name="StatefulPartitionedCall/ssd_mobile_net_v2_fpn_keras_feature_extractor/model/Conv1/Conv2D/fq_input_0" type="FakeQuantize" version="opset1">
			<data levels="256" auto_broadcast="numpy" />
			<input>
				<port id="0" precision="FP32">
					<dim>1</dim>
					<dim>3</dim>
					<dim>640</dim>
					<dim>640</dim>
				</port>
				<port id="1" precision="FP32" />
				<port id="2" precision="FP32" />
				<port id="3" precision="FP32" />
				<port id="4" precision="FP32" />
			</input>
			<output>
				<port id="5" precision="FP32">
					<dim>1</dim>
					<dim>3</dim>
					<dim>640</dim>
					<dim>640</dim>
				</port>
			</output>
		</layer>
		<layer id="15" name="StatefulPartitionedCall/ssd_mobile_net_v2_fpn_keras_feature_extractor/model/bn_Conv1/FusedBatchNormV3/mean/Fused_Mul__copy88713245/restored_convert/quantized1728224768" type="Const" version="opset1">
			<data element_type="i8" shape="32, 3, 3, 3" offset="44" size="864" />
			<output>
				<port id="0" precision="I8">
					<dim>32</dim>
					<dim>3</dim>
					<dim>3</dim>
					<dim>3</dim>
				</port>
			</output>
		</layer>
		<layer id="16" name="StatefulPartitionedCall/ssd_mobile_net_v2_fpn_keras_feature_extractor/model/bn_Conv1/FusedBatchNormV3/mean/Fused_Mul__copy88713245/restored_convert/quantized/to_f32" type="Convert" version="opset1">
			<data destination_type="f32" />
			<input>
				<port id="0" precision="I8">
					<dim>32</dim>
					<dim>3</dim>
					<dim>3</dim>
					<dim>3</dim>
				</port>
			</input>
			<output>
				<port id="1" precision="FP32">
					<dim>32</dim>
					<dim>3</dim>
					<dim>3</dim>
					<dim>3</dim>
				</port>
			</output>
		</layer>
		<layer id="17" name="StatefulPartitionedCall/ssd_mobile_net_v2_fpn_keras_feature_extractor/model/Conv1/Conv2D/fq_weights_1/zero_point1730126334" type="Const" version="opset1">
			<data element_type="f32" shape="32, 1, 1, 1" offset="908" size="128" />
			<output>
				<port id="0" precision="FP32">
					<dim>32</dim>
					<dim>1</dim>
					<dim>1</dim>
					<dim>1</dim>
				</port>
			</output>
		</layer>
		<layer id="18" name="StatefulPartitionedCall/ssd_mobile_net_v2_fpn_keras_feature_extractor/model/Conv1/Conv2D/fq_weights_1/minus_zp" type="Subtract" version="opset1">
			<data auto_broadcast="numpy" />
			<input>
				<port id="0" precision="FP32">
					<dim>32</dim>
					<dim>3</dim>
					<dim>3</dim>
					<dim>3</dim>
				</port>
				<port id="1" precision="FP32">
					<dim>32</dim>
					<dim>1</dim>
					<dim>1</dim>
					<dim>1</dim>
				</port>
			</input>
			<output>
				<port id="2" precision="FP32">
					<dim>32</dim>
					<dim>3</dim>
					<dim>3</dim>
					<dim>3</dim>
				</port>
			</output>
		</layer>
		<layer id="19" name="StatefulPartitionedCall/ssd_mobile_net_v2_fpn_keras_feature_extractor/model/Conv1/Conv2D/fq_weights_1/scale1729024105" type="Const" version="opset1">
			<data element_type="f32" shape="32, 1, 1, 1" offset="1036" size="128" />
			<output>
				<port id="0" precision="FP32">
					<dim>32</dim>
					<dim>1</dim>
					<dim>1</dim>
					<dim>1</dim>
				</port>
			</output>
		</layer>
		<layer id="20" name="StatefulPartitionedCall/ssd_mobile_net_v2_fpn_keras_feature_extractor/model/Conv1/Conv2D/fq_weights_1/mulpiply_by_scale" type="Multiply" version="opset1">
			<data auto_broadcast="numpy" />
			<input>
				<port id="0" precision="FP32">
					<dim>32</dim>
					<dim>3</dim>
					<dim>3</dim>
					<dim>3</dim>
				</port>
				<port id="1" precision="FP32">
					<dim>32</dim>
					<dim>1</dim>
					<dim>1</dim>
					<dim>1</dim>
				</port>
			</input>
			<output>
				<port id="2" precision="FP32">
					<dim>32</dim>
					<dim>3</dim>
					<dim>3</dim>
					<dim>3</dim>
				</port>
			</output>
		</layer>
		<layer id="21" name="StatefulPartitionedCall/ssd_mobile_net_v2_fpn_keras_feature_extractor/model/Conv1/Conv2D" type="Convolution" version="opset1">
			<data strides="2, 2" dilations="1, 1" pads_begin="0, 0" pads_end="0, 0" auto_pad="same_upper" />
			<rt_info>
				<attribute name="fused_names" version="0" value="StatefulPartitionedCall/ssd_mobile_net_v2_fpn_keras_feature_extractor/model/Conv1/Conv2D" />
			</rt_info>
			<input>
				<port id="0" precision="FP32">
					<dim>1</dim>
					<dim>3</dim>
					<dim>640</dim>
					<dim>640</dim>
				</port>
				<port id="1" precision="FP32">
					<dim>32</dim>
					<dim>3</dim>
					<dim>3</dim>
					<dim>3</dim>
				</port>
			</input>
			<output>
				<port id="2" precision="FP32">
					<dim>1</dim>
					<dim>32</dim>
					<dim>320</dim>
					<dim>320</dim>
				</port>
			</output>
		</layer>
		<layer id="22" name="data_add_4450489026322" type="Const" version="opset1">
			<data element_type="f16" shape="1, 32, 1, 1" offset="1164" size="64" />
			<output>
				<port id="0" precision="FP16">
					<dim>1</dim>
					<dim>32</dim>
					<dim>1</dim>
					<dim>1</dim>
				</port>
			</output>
		</layer>
		<layer id="23" name="data_add_4450489013246/restored_convert" type="Convert" version="opset1">
			<data destination_type="f32" />
			<rt_info>
				<attribute name="decompression" version="0" />
				<attribute name="fused_names" version="0" value="data_add_44504" />
			</rt_info>
			<input>
				<port id="0" precision="FP16">
					<dim>1</dim>
					<dim>32</dim>
					<dim>1</dim>
					<dim>1</dim>
				</port>
			</input>
			<output>
				<port id="1" precision="FP32">
					<dim>1</dim>
					<dim>32</dim>
					<dim>1</dim>
					<dim>1</dim>
				</port>
			</output>
		</layer>
		<layer id="24" name="StatefulPartitionedCall/ssd_mobile_net_v2_fpn_keras_feature_extractor/model/bn_Conv1/FusedBatchNormV3/variance/Fused_Add_" type="Add" version="opset1">
			<data auto_broadcast="numpy" />
			<rt_info>
				<attribute name="fused_names" version="0" value="StatefulPartitionedCall/ssd_mobile_net_v2_fpn_keras_feature_extractor/model/bn_Conv1/FusedBatchNormV3/variance/Fused_Add_" />
			</rt_info>
			<input>
				<port id="0" precision="FP32">
					<dim>1</dim>
					<dim>32</dim>
					<dim>320</dim>
					<dim>320</dim>
				</port>
				<port id="1" precision="FP32">
					<dim>1</dim>
					<dim>32</dim>
					<dim>1</dim>
					<dim>1</dim>
				</port>
			</input>
			<output>
				<port id="2" precision="FP32" names="StatefulPartitionedCall/ssd_mobile_net_v2_fpn_keras_feature_extractor/model/bn_Conv1/FusedBatchNormV3:0">
					<dim>1</dim>
					<dim>32</dim>
					<dim>320</dim>
					<dim>320</dim>
				</port>
			</output>
		</layer>
		<layer id="25" name="StatefulPartitionedCall/ssd_mobile_net_v2_fpn_keras_feature_extractor/model/Conv1_relu/Relu6" type="Clamp" version="opset1">
			<data min="0" max="6" />
			<rt_info>
				<attribute name="fused_names" version="0" value="StatefulPartitionedCall/ssd_mobile_net_v2_fpn_keras_feature_extractor/model/Conv1_relu/Relu6" />
			</rt_info>
			<input>
				<port id="0" precision="FP32">
					<dim>1</dim>
					<dim>32</dim>
					<dim>320</dim>
					<dim>320</dim>
				</port>
			</input>
			<output>
				<port id="1" precision="FP32" names="StatefulPartitionedCall/ssd_mobile_net_v2_fpn_keras_feature_extractor/model/Conv1_relu/Relu6:0">
					<dim>1</dim>
					<dim>32</dim>
					<dim>320</dim>
					<dim>320</dim>
				</port>
			</output>
		</layer>
		<layer id="26" name="5652565626475" type="Const" version="opset1">
			<data element_type="f32" shape="1, 32, 1, 1" offset="1228" size="128" />
			<output>
				<port id="0" precision="FP32">
					<dim>1</dim>
					<dim>32</dim>
					<dim>1</dim>
					<dim>1</dim>
				</port>
			</output>
		</layer>
		<layer id="27" name="5653565725161" type="Const" version="opset1">
			<data element_type="f32" shape="1, 32, 1, 1" offset="1356" size="128" />
			<output>
				<port id="0" precision="FP32">
					<dim>1</dim>
					<dim>32</dim>
					<dim>1</dim>
					<dim>1</dim>
				</port>
			</output>
		</layer>
		<layer id="28" name="5654565825734" type="Const" version="opset1">
			<data element_type="f32" shape="1, 32, 1, 1" offset="1228" size="128" />
			<output>
				<port id="0" precision="FP32">
					<dim>1</dim>
					<dim>32</dim>
					<dim>1</dim>
					<dim>1</dim>
				</port>
			</output>
		</layer>
		<layer id="29" name="5655565924135" type="Const" version="opset1">
			<data element_type="f32" shape="1, 32, 1, 1" offset="1356" size="128" />
			<output>
				<port id="0" precision="FP32">
					<dim>1</dim>
					<dim>32</dim>
					<dim>1</dim>
					<dim>1</dim>
				</port>
			</output>
		</layer>
		<layer id="30" name="StatefulPartitionedCall/ssd_mobile_net_v2_fpn_keras_feature_extractor/model/expanded_conv_depthwise/depthwise/fq_input_0" type="FakeQuantize" version="opset1">
			<data levels="256" auto_broadcast="numpy" />
			<input>
				<port id="0" precision="FP32">
					<dim>1</dim>
					<dim>32</dim>
					<dim>320</dim>
					<dim>320</dim>
				</port>
				<port id="1" precision="FP32">
					<dim>1</dim>
					<dim>32</dim>
					<dim>1</dim>
					<dim>1</dim>
				</port>
				<port id="2" precision="FP32">
					<dim>1</dim>
					<dim>32</dim>
					<dim>1</dim>
					<dim>1</dim>
				</port>
				<port id="3" precision="FP32">
					<dim>1</dim>
					<dim>32</dim>
					<dim>1</dim>
					<dim>1</dim>
				</port>
				<port id="4" precision="FP32">
					<dim>1</dim>
					<dim>32</dim>
					<dim>1</dim>
					<dim>1</dim>
				</port>
			</input>
			<output>
				<port id="5" precision="FP32">
					<dim>1</dim>
					<dim>32</dim>
					<dim>320</dim>
					<dim>320</dim>
				</port>
			</output>
		</layer>
		<layer id="31" name="StatefulPartitionedCall/ssd_mobile_net_v2_fpn_keras_feature_extractor/model/expanded_conv_depthwise_BN/FusedBatchNormV3/mean/Fused_Mul__copy89413247/restored_convert/quantized1674223568" type="Const" version="opset1">
			<data element_type="i8" shape="32, 1, 3, 3" offset="1484" size="288" />
			<output>
				<port id="0" precision="I8">
					<dim>32</dim>
					<dim>1</dim>
					<dim>3</dim>
					<dim>3</dim>
				</port>
			</output>
		</layer>
		<layer id="32" name="StatefulPartitionedCall/ssd_mobile_net_v2_fpn_keras_feature_extractor/model/expanded_conv_depthwise_BN/FusedBatchNormV3/mean/Fused_Mul__copy89413247/restored_convert/quantized/to_f32" type="Convert" version="opset1">
			<data destination_type="f32" />
			<input>
				<port id="0" precision="I8">
					<dim>32</dim>
					<dim>1</dim>
					<dim>3</dim>
					<dim>3</dim>
				</port>
			</input>
			<output>
				<port id="1" precision="FP32">
					<dim>32</dim>
					<dim>1</dim>
					<dim>3</dim>
					<dim>3</dim>
				</port>
			</output>
		</layer>
		<layer id="33" name="StatefulPartitionedCall/ssd_mobile_net_v2_fpn_keras_feature_extractor/model/expanded_conv_depthwise/depthwise/fq_weights_1/zero_point1676126034" type="Const" version="opset1">
			<data element_type="f32" shape="32, 1, 1, 1" offset="1772" size="128" />
			<output>
				<port id="0" precision="FP32">
					<dim>32</dim>
					<dim>1</dim>
					<dim>1</dim>
					<dim>1</dim>
				</port>
			</output>
		</layer>
		<layer id="34" name="StatefulPartitionedCall/ssd_mobile_net_v2_fpn_keras_feature_extractor/model/expanded_conv_depthwise/depthwise/fq_weights_1/minus_zp" type="Subtract" version="opset1">
			<data auto_broadcast="numpy" />
			<input>
				<port id="0" precision="FP32">
					<dim>32</dim>
					<dim>1</dim>
					<dim>3</dim>
					<dim>3</dim>
				</port>
				<port id="1" precision="FP32">
					<dim>32</dim>
					<dim>1</dim>
					<dim>1</dim>
					<dim>1</dim>
				</port>
			</input>
			<output>
				<port id="2" precision="FP32">
					<dim>32</dim>
					<dim>1</dim>
					<dim>3</dim>
					<dim>3</dim>
				</port>
			</output>
		</layer>
		<layer id="35" name="StatefulPartitionedCall/ssd_mobile_net_v2_fpn_keras_feature_extractor/model/expanded_conv_depthwise/depthwise/fq_weights_1/scale1675024438" type="Const" version="opset1">
			<data element_type="f32" shape="32, 1, 1, 1" offset="1900" size="128" />
			<output>
				<port id="0" precision="FP32">
					<dim>32</dim>
					<dim>1</dim>
					<dim>1</dim>
					<dim>1</dim>
				</port>
			</output>
		</layer>
		<layer id="36" name="StatefulPartitionedCall/ssd_mobile_net_v2_fpn_keras_feature_extractor/model/expanded_conv_depthwise/depthwise/fq_weights_1/mulpiply_by_scale" type="Multiply" version="opset1">
			<data auto_broadcast="numpy" />
			<input>
				<port id="0" precision="FP32">
					<dim>32</dim>
					<dim>1</dim>
					<dim>3</dim>
					<dim>3</dim>
				</port>
				<port id="1" precision="FP32">
					<dim>32</dim>
					<dim>1</dim>
					<dim>1</dim>
					<dim>1</dim>
				</port>
			</input>
			<output>
				<port id="2" precision="FP32">
					<dim>32</dim>
					<dim>1</dim>
					<dim>3</dim>
					<dim>3</dim>
				</port>
			</output>
		</layer>
		<layer id="37" name="20909/value2091123526" type="Const" version="opset1">
			<data element_type="i64" shape="5" offset="2028" size="40" />
			<output>
				<port id="0" precision="I64">
					<dim>5</dim>
				</port>
			</output>
		</layer>
		<layer id="38" name="20909" type="Reshape" version="opset1">
			<data special_zero="true" />
			<input>
				<port id="0" precision="FP32">
					<dim>32</dim>
					<dim>1</dim>
					<dim>3</dim>
					<dim>3</dim>
				</port>
				<port id="1" precision="I64">
					<dim>5</dim>
				</port>
			</input>
			<output>
				<port id="2" precision="FP32">
					<dim>32</dim>
					<dim>1</dim>
					<dim>1</dim>
					<dim>3</dim>
					<dim>3</dim>
				</port>
			</output>
		</layer>
		<layer id="39" name="StatefulPartitionedCall/ssd_mobile_net_v2_fpn_keras_feature_extractor/model/expanded_conv_depthwise/depthwise" type="GroupConvolution" version="opset1">
			<data strides="1, 1" pads_begin="0, 0" pads_end="0, 0" dilations="1, 1" auto_pad="same_upper" />
			<rt_info>
				<attribute name="fused_names" version="0" value="StatefulPartitionedCall/ssd_mobile_net_v2_fpn_keras_feature_extractor/model/expanded_conv_depthwise/depthwise" />
			</rt_info>
			<input>
				<port id="0" precision="FP32">
					<dim>1</dim>
					<dim>32</dim>
					<dim>320</dim>
					<dim>320</dim>
				</port>
				<port id="1" precision="FP32">
					<dim>32</dim>
					<dim>1</dim>
					<dim>1</dim>
					<dim>3</dim>
					<dim>3</dim>
				</port>
			</input>
			<output>
				<port id="2" precision="FP32">
					<dim>1</dim>
					<dim>32</dim>
					<dim>320</dim>
					<dim>320</dim>
				</port>
			</output>
		</layer>
		<layer id="40" name="data_add_445074451289726556" type="Const" version="opset1">
			<data element_type="f16" shape="1, 32, 1, 1" offset="2068" size="64" />
			<output>
				<port id="0" precision="FP16">
					<dim>1</dim>
					<dim>32</dim>
					<dim>1</dim>
					<dim>1</dim>
				</port>
			</output>
		</layer>
		<layer id="41" name="data_add_445074451289713248/restored_convert" type="Convert" version="opset1">
			<data destination_type="f32" />
			<rt_info>
				<attribute name="decompression" version="0" />
				<attribute name="fused_names" version="0" value="data_add_4450744512" />
			</rt_info>
			<input>
				<port id="0" precision="FP16">
					<dim>1</dim>
					<dim>32</dim>
					<dim>1</dim>
					<dim>1</dim>
				</port>
			</input>
			<output>
				<port id="1" precision="FP32">
					<dim>1</dim>
					<dim>32</dim>
					<dim>1</dim>
					<dim>1</dim>
				</port>
			</output>
		</layer>
		<layer id="42" name="StatefulPartitionedCall/ssd_mobile_net_v2_fpn_keras_feature_extractor/model/expanded_conv_depthwise_BN/FusedBatchNormV3/variance/Fused_Add_" type="Add" version="opset1">
			<data auto_broadcast="numpy" />
			<rt_info>
				<attribute name="fused_names" version="0" value="StatefulPartitionedCall/ssd_mobile_net_v2_fpn_keras_feature_extractor/model/expanded_conv_depthwise_BN/FusedBatchNormV3/variance/Fused_Add_" />
			</rt_info>
			<input>
				<port id="0" precision="FP32">
					<dim>1</dim>
					<dim>32</dim>
					<dim>320</dim>
					<dim>320</dim>
				</port>
				<port id="1" precision="FP32">
					<dim>1</dim>
					<dim>32</dim>
					<dim>1</dim>
					<dim>1</dim>
				</port>
			</input>
			<output>
				<port id="2" precision="FP32" names="StatefulPartitionedCall/ssd_mobile_net_v2_fpn_keras_feature_extractor/model/expanded_conv_depthwise_BN/FusedBatchNormV3:0">
					<dim>1</dim>
					<dim>32</dim>
					<dim>320</dim>
					<dim>320</dim>
				</port>
			</output>
		</layer>
		<layer id="43" name="StatefulPartitionedCall/ssd_mobile_net_v2_fpn_keras_feature_extractor/model/expanded_conv_depthwise_relu/Relu6" type="Clamp" version="opset1">
			<data min="0" max="6" />
			<rt_info>
				<attribute name="fused_names" version="0" value="StatefulPartitionedCall/ssd_mobile_net_v2_fpn_keras_feature_extractor/model/expanded_conv_depthwise_relu/Relu6" />
			</rt_info>
			<input>
				<port id="0" precision="FP32">
					<dim>1</dim>
					<dim>32</dim>
					<dim>320</dim>
					<dim>320</dim>
				</port>
			</input>
			<output>
				<port id="1" precision="FP32" names="StatefulPartitionedCall/ssd_mobile_net_v2_fpn_keras_feature_extractor/model/expanded_conv_depthwise_relu/Relu6:0">
					<dim>1</dim>
					<dim>32</dim>
					<dim>320</dim>
					<dim>320</dim>
				</port>
			</output>
		</layer>
		<layer id="44" name="3211321526124" type="Const" version="opset1">
			<data element_type="f32" shape="" offset="2132" size="4" />
			<output>
				<port id="0" precision="FP32" />
			</output>
		</layer>
		<layer id="45" name="3212321623382" type="Const" version="opset1">
			<data element_type="f32" shape="" offset="2136" size="4" />
			<output>
				<port id="0" precision="FP32" />
			</output>
		</layer>
		<layer id="46" name="3213321724645" type="Const" version="opset1">
			<data element_type="f32" shape="" offset="2132" size="4" />
			<output>
				<port id="0" precision="FP32" />
			</output>
		</layer>
		<layer id="47" name="3214321823604" type="Const" version="opset1">
			<data element_type="f32" shape="" offset="2136" size="4" />
			<output>
				<port id="0" precision="FP32" />
			</output>
		</layer>
		<layer id="48" name="StatefulPartitionedCall/ssd_mobile_net_v2_fpn_keras_feature_extractor/model/expanded_conv_project/Conv2D/fq_input_0" type="FakeQuantize" version="opset1">
			<data levels="256" auto_broadcast="numpy" />
			<input>
				<port id="0" precision="FP32">
					<dim>1</dim>
					<dim>32</dim>
					<dim>320</dim>
					<dim>320</dim>
				</port>
				<port id="1" precision="FP32" />
				<port id="2" precision="FP32" />
				<port id="3" precision="FP32" />
				<port id="4" precision="FP32" />
			</input>
			<output>
				<port id="5" precision="FP32">
					<dim>1</dim>
					<dim>32</dim>
					<dim>320</dim>
					<dim>320</dim>
				</port>
			</output>
		</layer>
		<layer id="49" name="StatefulPartitionedCall/ssd_mobile_net_v2_fpn_keras_feature_extractor/model/expanded_conv_project_BN/FusedBatchNormV3/mean/Fused_Mul__copy90113249/restored_convert/quantized1683224261" type="Const" version="opset1">
			<data element_type="i8" shape="16, 32, 1, 1" offset="2140" size="512" />
			<output>
				<port id="0" precision="I8">
					<dim>16</dim>
					<dim>32</dim>
					<dim>1</dim>
					<dim>1</dim>
				</port>
			</output>
		</layer>
		<layer id="50" name="StatefulPartitionedCall/ssd_mobile_net_v2_fpn_keras_feature_extractor/model/expanded_conv_project_BN/FusedBatchNormV3/mean/Fused_Mul__copy90113249/restored_convert/quantized/to_f32" type="Convert" version="opset1">
			<data destination_type="f32" />
			<input>
				<port id="0" precision="I8">
					<dim>16</dim>
					<dim>32</dim>
					<dim>1</dim>
					<dim>1</dim>
				</port>
			</input>
			<output>
				<port id="1" precision="FP32">
					<dim>16</dim>
					<dim>32</dim>
					<dim>1</dim>
					<dim>1</dim>
				</port>
			</output>
		</layer>
		<layer id="51" name="StatefulPartitionedCall/ssd_mobile_net_v2_fpn_keras_feature_extractor/model/expanded_conv_project/Conv2D/fq_weights_1/zero_point1685125491" type="Const" version="opset1">
			<data element_type="f32" shape="16, 1, 1, 1" offset="2652" size="64" />
			<output>
				<port id="0" precision="FP32">
					<dim>16</dim>
					<dim>1</dim>
					<dim>1</dim>
					<dim>1</dim>
				</port>
			</output>
		</layer>
		<layer id="52" name="StatefulPartitionedCall/ssd_mobile_net_v2_fpn_keras_feature_extractor/model/expanded_conv_project/Conv2D/fq_weights_1/minus_zp" type="Subtract" version="opset1">
			<data auto_broadcast="numpy" />
			<input>
				<port id="0" precision="FP32">
					<dim>16</dim>
					<dim>32</dim>
					<dim>1</dim>
					<dim>1</dim>
				</port>
				<port id="1" precision="FP32">
					<dim>16</dim>
					<dim>1</dim>
					<dim>1</dim>
					<dim>1</dim>
				</port>
			</input>
			<output>
				<port id="2" precision="FP32">
					<dim>16</dim>
					<dim>32</dim>
					<dim>1</dim>
					<dim>1</dim>
				</port>
			</output>
		</layer>
		<layer id="53" name="StatefulPartitionedCall/ssd_mobile_net_v2_fpn_keras_feature_extractor/model/expanded_conv_project/Conv2D/fq_weights_1/scale1684024273" type="Const" version="opset1">
			<data element_type="f32" shape="16, 1, 1, 1" offset="2716" size="64" />
			<output>
				<port id="0" precision="FP32">
					<dim>16</dim>
					<dim>1</dim>
					<dim>1</dim>
					<dim>1</dim>
				</port>
			</output>
		</layer>
		<layer id="54" name="StatefulPartitionedCall/ssd_mobile_net_v2_fpn_keras_feature_extractor/model/expanded_conv_project/Conv2D/fq_weights_1/mulpiply_by_scale" type="Multiply" version="opset1">
			<data auto_broadcast="numpy" />
			<input>
				<port id="0" precision="FP32">
					<dim>16</dim>
					<dim>32</dim>
					<dim>1</dim>
					<dim>1</dim>
				</port>
				<port id="1" precision="FP32">
					<dim>16</dim>
					<dim>1</dim>
					<dim>1</dim>
					<dim>1</dim>
				</port>
			</input>
			<output>
				<port id="2" precision="FP32">
					<dim>16</dim>
					<dim>32</dim>
					<dim>1</dim>
					<dim>1</dim>
				</port>
			</output>
		</layer>
		<layer id="55" name="StatefulPartitionedCall/ssd_mobile_net_v2_fpn_keras_feature_extractor/model/expanded_conv_project/Conv2D" type="Convolution" version="opset1">
			<data strides="1, 1" dilations="1, 1" pads_begin="0, 0" pads_end="0, 0" auto_pad="same_upper" />
			<rt_info>
				<attribute name="fused_names" version="0" value="StatefulPartitionedCall/ssd_mobile_net_v2_fpn_keras_feature_extractor/model/expanded_conv_project/Conv2D" />
			</rt_info>
			<input>
				<port id="0" precision="FP32">
					<dim>1</dim>
					<dim>32</dim>
					<dim>320</dim>
					<dim>320</dim>
				</port>
				<port id="1" precision="FP32">
					<dim>16</dim>
					<dim>32</dim>
					<dim>1</dim>
					<dim>1</dim>
				</port>
			</input>
			<output>
				<port id="2" precision="FP32">
					<dim>1</dim>
					<dim>16</dim>
					<dim>320</dim>
					<dim>320</dim>
				</port>
			</output>
		</layer>
		<layer id="56" name="data_add_445154452090425356" type="Const" version="opset1">
			<data element_type="f16" shape="1, 16, 1, 1" offset="2780" size="32" />
			<output>
				<port id="0" precision="FP16">
					<dim>1</dim>
					<dim>16</dim>
					<dim>1</dim>
					<dim>1</dim>
				</port>
			</output>
		</layer>
		<layer id="57" name="data_add_445154452090413250/restored_convert" type="Convert" version="opset1">
			<data destination_type="f32" />
			<rt_info>
				<attribute name="decompression" version="0" />
				<attribute name="fused_names" version="0" value="data_add_4451544520" />
			</rt_info>
			<input>
				<port id="0" precision="FP16">
					<dim>1</dim>
					<dim>16</dim>
					<dim>1</dim>
					<dim>1</dim>
				</port>
			</input>
			<output>
				<port id="1" precision="FP32">
					<dim>1</dim>
					<dim>16</dim>
					<dim>1</dim>
					<dim>1</dim>
				</port>
			</output>
		</layer>
		<layer id="58" name="StatefulPartitionedCall/ssd_mobile_net_v2_fpn_keras_feature_extractor/model/expanded_conv_project_BN/FusedBatchNormV3/variance/Fused_Add_" type="Add" version="opset1">
			<data auto_broadcast="numpy" />
			<rt_info>
				<attribute name="fused_names" version="0" value="StatefulPartitionedCall/ssd_mobile_net_v2_fpn_keras_feature_extractor/model/expanded_conv_project_BN/FusedBatchNormV3/variance/Fused_Add_" />
			</rt_info>
			<input>
				<port id="0" precision="FP32">
					<dim>1</dim>
					<dim>16</dim>
					<dim>320</dim>
					<dim>320</dim>
				</port>
				<port id="1" precision="FP32">
					<dim>1</dim>
					<dim>16</dim>
					<dim>1</dim>
					<dim>1</dim>
				</port>
			</input>
			<output>
				<port id="2" precision="FP32" names="StatefulPartitionedCall/ssd_mobile_net_v2_fpn_keras_feature_extractor/model/expanded_conv_project_BN/FusedBatchNormV3:0">
					<dim>1</dim>
					<dim>16</dim>
					<dim>320</dim>
					<dim>320</dim>
				</port>
			</output>
		</layer>
		<layer id="59" name="5252525624048" type="Const" version="opset1">
			<data element_type="f32" shape="" offset="2812" size="4" />
			<output>
				<port id="0" precision="FP32" />
			</output>
		</layer>
		<layer id="60" name="5253525725215" type="Const" version="opset1">
			<data element_type="f32" shape="" offset="2816" size="4" />
			<output>
				<port id="0" precision="FP32" />
			</output>
		</layer>
		<layer id="61" name="5254525825512" type="Const" version="opset1">
			<data element_type="f32" shape="" offset="2812" size="4" />
			<output>
				<port id="0" precision="FP32" />
			</output>
		</layer>
		<layer id="62" name="5255525924876" type="Const" version="opset1">
			<data element_type="f32" shape="" offset="2816" size="4" />
			<output>
				<port id="0" precision="FP32" />
			</output>
		</layer>
		<layer id="63" name="StatefulPartitionedCall/ssd_mobile_net_v2_fpn_keras_feature_extractor/model/block_1_expand/Conv2D/fq_input_0" type="FakeQuantize" version="opset1">
			<data levels="256" auto_broadcast="numpy" />
			<input>
				<port id="0" precision="FP32">
					<dim>1</dim>
					<dim>16</dim>
					<dim>320</dim>
					<dim>320</dim>
				</port>
				<port id="1" precision="FP32" />
				<port id="2" precision="FP32" />
				<port id="3" precision="FP32" />
				<port id="4" precision="FP32" />
			</input>
			<output>
				<port id="5" precision="FP32">
					<dim>1</dim>
					<dim>16</dim>
					<dim>320</dim>
					<dim>320</dim>
				</port>
			</output>
		</layer>
		<layer id="64" name="StatefulPartitionedCall/ssd_mobile_net_v2_fpn_keras_feature_extractor/model/block_1_expand_BN/FusedBatchNormV3/mean/Fused_Mul__copy90713251/restored_convert/quantized1854226703" type="Const" version="opset1">
			<data element_type="i8" shape="96, 16, 1, 1" offset="2820" size="1536" />
			<output>
				<port id="0" precision="I8">
					<dim>96</dim>
					<dim>16</dim>
					<dim>1</dim>
					<dim>1</dim>
				</port>
			</output>
		</layer>
		<layer id="65" name="StatefulPartitionedCall/ssd_mobile_net_v2_fpn_keras_feature_extractor/model/block_1_expand_BN/FusedBatchNormV3/mean/Fused_Mul__copy90713251/restored_convert/quantized/to_f32" type="Convert" version="opset1">
			<data destination_type="f32" />
			<input>
				<port id="0" precision="I8">
					<dim>96</dim>
					<dim>16</dim>
					<dim>1</dim>
					<dim>1</dim>
				</port>
			</input>
			<output>
				<port id="1" precision="FP32">
					<dim>96</dim>
					<dim>16</dim>
					<dim>1</dim>
					<dim>1</dim>
				</port>
			</output>
		</layer>
		<layer id="66" name="StatefulPartitionedCall/ssd_mobile_net_v2_fpn_keras_feature_extractor/model/block_1_expand/Conv2D/fq_weights_1/zero_point1856124216" type="Const" version="opset1">
			<data element_type="f32" shape="96, 1, 1, 1" offset="4356" size="384" />
			<output>
				<port id="0" precision="FP32">
					<dim>96</dim>
					<dim>1</dim>
					<dim>1</dim>
					<dim>1</dim>
				</port>
			</output>
		</layer>
		<layer id="67" name="StatefulPartitionedCall/ssd_mobile_net_v2_fpn_keras_feature_extractor/model/block_1_expand/Conv2D/fq_weights_1/minus_zp" type="Subtract" version="opset1">
			<data auto_broadcast="numpy" />
			<input>
				<port id="0" precision="FP32">
					<dim>96</dim>
					<dim>16</dim>
					<dim>1</dim>
					<dim>1</dim>
				</port>
				<port id="1" precision="FP32">
					<dim>96</dim>
					<dim>1</dim>
					<dim>1</dim>
					<dim>1</dim>
				</port>
			</input>
			<output>
				<port id="2" precision="FP32">
					<dim>96</dim>
					<dim>16</dim>
					<dim>1</dim>
					<dim>1</dim>
				</port>
			</output>
		</layer>
		<layer id="68" name="StatefulPartitionedCall/ssd_mobile_net_v2_fpn_keras_feature_extractor/model/block_1_expand/Conv2D/fq_weights_1/scale1855026607" type="Const" version="opset1">
			<data element_type="f32" shape="96, 1, 1, 1" offset="4740" size="384" />
			<output>
				<port id="0" precision="FP32">
					<dim>96</dim>
					<dim>1</dim>
					<dim>1</dim>
					<dim>1</dim>
				</port>
			</output>
		</layer>
		<layer id="69" name="StatefulPartitionedCall/ssd_mobile_net_v2_fpn_keras_feature_extractor/model/block_1_expand/Conv2D/fq_weights_1/mulpiply_by_scale" type="Multiply" version="opset1">
			<data auto_broadcast="numpy" />
			<input>
				<port id="0" precision="FP32">
					<dim>96</dim>
					<dim>16</dim>
					<dim>1</dim>
					<dim>1</dim>
				</port>
				<port id="1" precision="FP32">
					<dim>96</dim>
					<dim>1</dim>
					<dim>1</dim>
					<dim>1</dim>
				</port>
			</input>
			<output>
				<port id="2" precision="FP32">
					<dim>96</dim>
					<dim>16</dim>
					<dim>1</dim>
					<dim>1</dim>
				</port>
			</output>
		</layer>
		<layer id="70" name="StatefulPartitionedCall/ssd_mobile_net_v2_fpn_keras_feature_extractor/model/block_1_expand/Conv2D" type="Convolution" version="opset1">
			<data strides="1, 1" dilations="1, 1" pads_begin="0, 0" pads_end="0, 0" auto_pad="same_upper" />
			<rt_info>
				<attribute name="fused_names" version="0" value="StatefulPartitionedCall/ssd_mobile_net_v2_fpn_keras_feature_extractor/model/block_1_expand/Conv2D" />
			</rt_info>
			<input>
				<port id="0" precision="FP32">
					<dim>1</dim>
					<dim>16</dim>
					<dim>320</dim>
					<dim>320</dim>
				</port>
				<port id="1" precision="FP32">
					<dim>96</dim>
					<dim>16</dim>
					<dim>1</dim>
					<dim>1</dim>
				</port>
			</input>
			<output>
				<port id="2" precision="FP32">
					<dim>1</dim>
					<dim>96</dim>
					<dim>320</dim>
					<dim>320</dim>
				</port>
			</output>
		</layer>
		<layer id="71" name="data_add_445234452891024765" type="Const" version="opset1">
			<data element_type="f16" shape="1, 96, 1, 1" offset="5124" size="192" />
			<output>
				<port id="0" precision="FP16">
					<dim>1</dim>
					<dim>96</dim>
					<dim>1</dim>
					<dim>1</dim>
				</port>
			</output>
		</layer>
		<layer id="72" name="data_add_445234452891013252/restored_convert" type="Convert" version="opset1">
			<data destination_type="f32" />
			<rt_info>
				<attribute name="decompression" version="0" />
				<attribute name="fused_names" version="0" value="data_add_4452344528" />
			</rt_info>
			<input>
				<port id="0" precision="FP16">
					<dim>1</dim>
					<dim>96</dim>
					<dim>1</dim>
					<dim>1</dim>
				</port>
			</input>
			<output>
				<port id="1" precision="FP32">
					<dim>1</dim>
					<dim>96</dim>
					<dim>1</dim>
					<dim>1</dim>
				</port>
			</output>
		</layer>
		<layer id="73" name="StatefulPartitionedCall/ssd_mobile_net_v2_fpn_keras_feature_extractor/model/block_1_expand_BN/FusedBatchNormV3/variance/Fused_Add_" type="Add" version="opset1">
			<data auto_broadcast="numpy" />
			<rt_info>
				<attribute name="fused_names" version="0" value="StatefulPartitionedCall/ssd_mobile_net_v2_fpn_keras_feature_extractor/model/block_1_expand_BN/FusedBatchNormV3/variance/Fused_Add_" />
			</rt_info>
			<input>
				<port id="0" precision="FP32">
					<dim>1</dim>
					<dim>96</dim>
					<dim>320</dim>
					<dim>320</dim>
				</port>
				<port id="1" precision="FP32">
					<dim>1</dim>
					<dim>96</dim>
					<dim>1</dim>
					<dim>1</dim>
				</port>
			</input>
			<output>
				<port id="2" precision="FP32" names="StatefulPartitionedCall/ssd_mobile_net_v2_fpn_keras_feature_extractor/model/block_1_expand_BN/FusedBatchNormV3:0">
					<dim>1</dim>
					<dim>96</dim>
					<dim>320</dim>
					<dim>320</dim>
				</port>
			</output>
		</layer>
		<layer id="74" name="StatefulPartitionedCall/ssd_mobile_net_v2_fpn_keras_feature_extractor/model/block_1_expand_relu/Relu6" type="Clamp" version="opset1">
			<data min="0" max="6" />
			<rt_info>
				<attribute name="fused_names" version="0" value="StatefulPartitionedCall/ssd_mobile_net_v2_fpn_keras_feature_extractor/model/block_1_expand_relu/Relu6" />
			</rt_info>
			<input>
				<port id="0" precision="FP32">
					<dim>1</dim>
					<dim>96</dim>
					<dim>320</dim>
					<dim>320</dim>
				</port>
			</input>
			<output>
				<port id="1" precision="FP32" names="StatefulPartitionedCall/ssd_mobile_net_v2_fpn_keras_feature_extractor/model/block_1_expand_relu/Relu6:0">
					<dim>1</dim>
					<dim>96</dim>
					<dim>320</dim>
					<dim>320</dim>
				</port>
			</output>
		</layer>
		<layer id="75" name="4092409626127" type="Const" version="opset1">
			<data element_type="f32" shape="1, 96, 1, 1" offset="5316" size="384" />
			<output>
				<port id="0" precision="FP32">
					<dim>1</dim>
					<dim>96</dim>
					<dim>1</dim>
					<dim>1</dim>
				</port>
			</output>
		</layer>
		<layer id="76" name="4093409725227" type="Const" version="opset1">
			<data element_type="f32" shape="1, 96, 1, 1" offset="5700" size="384" />
			<output>
				<port id="0" precision="FP32">
					<dim>1</dim>
					<dim>96</dim>
					<dim>1</dim>
					<dim>1</dim>
				</port>
			</output>
		</layer>
		<layer id="77" name="4094409826088" type="Const" version="opset1">
			<data element_type="f32" shape="1, 96, 1, 1" offset="5316" size="384" />
			<output>
				<port id="0" precision="FP32">
					<dim>1</dim>
					<dim>96</dim>
					<dim>1</dim>
					<dim>1</dim>
				</port>
			</output>
		</layer>
		<layer id="78" name="4095409926553" type="Const" version="opset1">
			<data element_type="f32" shape="1, 96, 1, 1" offset="5700" size="384" />
			<output>
				<port id="0" precision="FP32">
					<dim>1</dim>
					<dim>96</dim>
					<dim>1</dim>
					<dim>1</dim>
				</port>
			</output>
		</layer>
		<layer id="79" name="StatefulPartitionedCall/ssd_mobile_net_v2_fpn_keras_feature_extractor/model/block_1_depthwise/depthwise/fq_input_0" type="FakeQuantize" version="opset1">
			<data levels="256" auto_broadcast="numpy" />
			<input>
				<port id="0" precision="FP32">
					<dim>1</dim>
					<dim>96</dim>
					<dim>320</dim>
					<dim>320</dim>
				</port>
				<port id="1" precision="FP32">
					<dim>1</dim>
					<dim>96</dim>
					<dim>1</dim>
					<dim>1</dim>
				</port>
				<port id="2" precision="FP32">
					<dim>1</dim>
					<dim>96</dim>
					<dim>1</dim>
					<dim>1</dim>
				</port>
				<port id="3" precision="FP32">
					<dim>1</dim>
					<dim>96</dim>
					<dim>1</dim>
					<dim>1</dim>
				</port>
				<port id="4" precision="FP32">
					<dim>1</dim>
					<dim>96</dim>
					<dim>1</dim>
					<dim>1</dim>
				</port>
			</input>
			<output>
				<port id="5" precision="FP32">
					<dim>1</dim>
					<dim>96</dim>
					<dim>320</dim>
					<dim>320</dim>
				</port>
			</output>
		</layer>
		<layer id="80" name="StatefulPartitionedCall/ssd_mobile_net_v2_fpn_keras_feature_extractor/model/block_1_depthwise_BN/FusedBatchNormV3/mean/Fused_Mul__copy91413253/restored_convert/quantized1515226298" type="Const" version="opset1">
			<data element_type="i8" shape="96, 1, 3, 3" offset="6084" size="864" />
			<output>
				<port id="0" precision="I8">
					<dim>96</dim>
					<dim>1</dim>
					<dim>3</dim>
					<dim>3</dim>
				</port>
			</output>
		</layer>
		<layer id="81" name="StatefulPartitionedCall/ssd_mobile_net_v2_fpn_keras_feature_extractor/model/block_1_depthwise_BN/FusedBatchNormV3/mean/Fused_Mul__copy91413253/restored_convert/quantized/to_f32" type="Convert" version="opset1">
			<data destination_type="f32" />
			<input>
				<port id="0" precision="I8">
					<dim>96</dim>
					<dim>1</dim>
					<dim>3</dim>
					<dim>3</dim>
				</port>
			</input>
			<output>
				<port id="1" precision="FP32">
					<dim>96</dim>
					<dim>1</dim>
					<dim>3</dim>
					<dim>3</dim>
				</port>
			</output>
		</layer>
		<layer id="82" name="StatefulPartitionedCall/ssd_mobile_net_v2_fpn_keras_feature_extractor/model/block_1_depthwise/depthwise/fq_weights_1/zero_point1517125416" type="Const" version="opset1">
			<data element_type="f32" shape="96, 1, 1, 1" offset="6948" size="384" />
			<output>
				<port id="0" precision="FP32">
					<dim>96</dim>
					<dim>1</dim>
					<dim>1</dim>
					<dim>1</dim>
				</port>
			</output>
		</layer>
		<layer id="83" name="StatefulPartitionedCall/ssd_mobile_net_v2_fpn_keras_feature_extractor/model/block_1_depthwise/depthwise/fq_weights_1/minus_zp" type="Subtract" version="opset1">
			<data auto_broadcast="numpy" />
			<input>
				<port id="0" precision="FP32">
					<dim>96</dim>
					<dim>1</dim>
					<dim>3</dim>
					<dim>3</dim>
				</port>
				<port id="1" precision="FP32">
					<dim>96</dim>
					<dim>1</dim>
					<dim>1</dim>
					<dim>1</dim>
				</port>
			</input>
			<output>
				<port id="2" precision="FP32">
					<dim>96</dim>
					<dim>1</dim>
					<dim>3</dim>
					<dim>3</dim>
				</port>
			</output>
		</layer>
		<layer id="84" name="StatefulPartitionedCall/ssd_mobile_net_v2_fpn_keras_feature_extractor/model/block_1_depthwise/depthwise/fq_weights_1/scale1516024819" type="Const" version="opset1">
			<data element_type="f32" shape="96, 1, 1, 1" offset="7332" size="384" />
			<output>
				<port id="0" precision="FP32">
					<dim>96</dim>
					<dim>1</dim>
					<dim>1</dim>
					<dim>1</dim>
				</port>
			</output>
		</layer>
		<layer id="85" name="StatefulPartitionedCall/ssd_mobile_net_v2_fpn_keras_feature_extractor/model/block_1_depthwise/depthwise/fq_weights_1/mulpiply_by_scale" type="Multiply" version="opset1">
			<data auto_broadcast="numpy" />
			<input>
				<port id="0" precision="FP32">
					<dim>96</dim>
					<dim>1</dim>
					<dim>3</dim>
					<dim>3</dim>
				</port>
				<port id="1" precision="FP32">
					<dim>96</dim>
					<dim>1</dim>
					<dim>1</dim>
					<dim>1</dim>
				</port>
			</input>
			<output>
				<port id="2" precision="FP32">
					<dim>96</dim>
					<dim>1</dim>
					<dim>3</dim>
					<dim>3</dim>
				</port>
			</output>
		</layer>
		<layer id="86" name="20913/value2091523529" type="Const" version="opset1">
			<data element_type="i64" shape="5" offset="7716" size="40" />
			<output>
				<port id="0" precision="I64">
					<dim>5</dim>
				</port>
			</output>
		</layer>
		<layer id="87" name="20913" type="Reshape" version="opset1">
			<data special_zero="true" />
			<input>
				<port id="0" precision="FP32">
					<dim>96</dim>
					<dim>1</dim>
					<dim>3</dim>
					<dim>3</dim>
				</port>
				<port id="1" precision="I64">
					<dim>5</dim>
				</port>
			</input>
			<output>
				<port id="2" precision="FP32">
					<dim>96</dim>
					<dim>1</dim>
					<dim>1</dim>
					<dim>3</dim>
					<dim>3</dim>
				</port>
			</output>
		</layer>
		<layer id="88" name="StatefulPartitionedCall/ssd_mobile_net_v2_fpn_keras_feature_extractor/model/block_1_depthwise/depthwise" type="GroupConvolution" version="opset1">
			<data strides="2, 2" pads_begin="0, 0" pads_end="0, 0" dilations="1, 1" auto_pad="same_upper" />
			<rt_info>
				<attribute name="fused_names" version="0" value="StatefulPartitionedCall/ssd_mobile_net_v2_fpn_keras_feature_extractor/model/block_1_depthwise/depthwise" />
			</rt_info>
			<input>
				<port id="0" precision="FP32">
					<dim>1</dim>
					<dim>96</dim>
					<dim>320</dim>
					<dim>320</dim>
				</port>
				<port id="1" precision="FP32">
					<dim>96</dim>
					<dim>1</dim>
					<dim>1</dim>
					<dim>3</dim>
					<dim>3</dim>
				</port>
			</input>
			<output>
				<port id="2" precision="FP32">
					<dim>1</dim>
					<dim>96</dim>
					<dim>160</dim>
					<dim>160</dim>
				</port>
			</output>
		</layer>
		<layer id="89" name="data_add_445314453691723901" type="Const" version="opset1">
			<data element_type="f16" shape="1, 96, 1, 1" offset="7756" size="192" />
			<output>
				<port id="0" precision="FP16">
					<dim>1</dim>
					<dim>96</dim>
					<dim>1</dim>
					<dim>1</dim>
				</port>
			</output>
		</layer>
		<layer id="90" name="data_add_445314453691713254/restored_convert" type="Convert" version="opset1">
			<data destination_type="f32" />
			<rt_info>
				<attribute name="decompression" version="0" />
				<attribute name="fused_names" version="0" value="data_add_4453144536" />
			</rt_info>
			<input>
				<port id="0" precision="FP16">
					<dim>1</dim>
					<dim>96</dim>
					<dim>1</dim>
					<dim>1</dim>
				</port>
			</input>
			<output>
				<port id="1" precision="FP32">
					<dim>1</dim>
					<dim>96</dim>
					<dim>1</dim>
					<dim>1</dim>
				</port>
			</output>
		</layer>
		<layer id="91" name="StatefulPartitionedCall/ssd_mobile_net_v2_fpn_keras_feature_extractor/model/block_1_depthwise_BN/FusedBatchNormV3/variance/Fused_Add_" type="Add" version="opset1">
			<data auto_broadcast="numpy" />
			<rt_info>
				<attribute name="fused_names" version="0" value="StatefulPartitionedCall/ssd_mobile_net_v2_fpn_keras_feature_extractor/model/block_1_depthwise_BN/FusedBatchNormV3/variance/Fused_Add_" />
			</rt_info>
			<input>
				<port id="0" precision="FP32">
					<dim>1</dim>
					<dim>96</dim>
					<dim>160</dim>
					<dim>160</dim>
				</port>
				<port id="1" precision="FP32">
					<dim>1</dim>
					<dim>96</dim>
					<dim>1</dim>
					<dim>1</dim>
				</port>
			</input>
			<output>
				<port id="2" precision="FP32" names="StatefulPartitionedCall/ssd_mobile_net_v2_fpn_keras_feature_extractor/model/block_1_depthwise_BN/FusedBatchNormV3:0">
					<dim>1</dim>
					<dim>96</dim>
					<dim>160</dim>
					<dim>160</dim>
				</port>
			</output>
		</layer>
		<layer id="92" name="StatefulPartitionedCall/ssd_mobile_net_v2_fpn_keras_feature_extractor/model/block_1_depthwise_relu/Relu6" type="Clamp" version="opset1">
			<data min="0" max="6" />
			<rt_info>
				<attribute name="fused_names" version="0" value="StatefulPartitionedCall/ssd_mobile_net_v2_fpn_keras_feature_extractor/model/block_1_depthwise_relu/Relu6" />
			</rt_info>
			<input>
				<port id="0" precision="FP32">
					<dim>1</dim>
					<dim>96</dim>
					<dim>160</dim>
					<dim>160</dim>
				</port>
			</input>
			<output>
				<port id="1" precision="FP32" names="StatefulPartitionedCall/ssd_mobile_net_v2_fpn_keras_feature_extractor/model/block_1_depthwise_relu/Relu6:0">
					<dim>1</dim>
					<dim>96</dim>
					<dim>160</dim>
					<dim>160</dim>
				</port>
			</output>
		</layer>
		<layer id="93" name="5512551625065" type="Const" version="opset1">
			<data element_type="f32" shape="" offset="2132" size="4" />
			<output>
				<port id="0" precision="FP32" />
			</output>
		</layer>
		<layer id="94" name="5513551724573" type="Const" version="opset1">
			<data element_type="f32" shape="" offset="2136" size="4" />
			<output>
				<port id="0" precision="FP32" />
			</output>
		</layer>
		<layer id="95" name="5514551825551" type="Const" version="opset1">
			<data element_type="f32" shape="" offset="2132" size="4" />
			<output>
				<port id="0" precision="FP32" />
			</output>
		</layer>
		<layer id="96" name="5515551926364" type="Const" version="opset1">
			<data element_type="f32" shape="" offset="2136" size="4" />
			<output>
				<port id="0" precision="FP32" />
			</output>
		</layer>
		<layer id="97" name="StatefulPartitionedCall/ssd_mobile_net_v2_fpn_keras_feature_extractor/model/block_1_project/Conv2D/fq_input_0" type="FakeQuantize" version="opset1">
			<data levels="256" auto_broadcast="numpy" />
			<input>
				<port id="0" precision="FP32">
					<dim>1</dim>
					<dim>96</dim>
					<dim>160</dim>
					<dim>160</dim>
				</port>
				<port id="1" precision="FP32" />
				<port id="2" precision="FP32" />
				<port id="3" precision="FP32" />
				<port id="4" precision="FP32" />
			</input>
			<output>
				<port id="5" precision="FP32">
					<dim>1</dim>
					<dim>96</dim>
					<dim>160</dim>
					<dim>160</dim>
				</port>
			</output>
		</layer>
		<layer id="98" name="StatefulPartitionedCall/ssd_mobile_net_v2_fpn_keras_feature_extractor/model/block_1_project_BN/FusedBatchNormV3/mean/Fused_Mul__copy92113255/restored_convert/quantized1602224351" type="Const" version="opset1">
			<data element_type="i8" shape="24, 96, 1, 1" offset="7948" size="2304" />
			<output>
				<port id="0" precision="I8">
					<dim>24</dim>
					<dim>96</dim>
					<dim>1</dim>
					<dim>1</dim>
				</port>
			</output>
		</layer>
		<layer id="99" name="StatefulPartitionedCall/ssd_mobile_net_v2_fpn_keras_feature_extractor/model/block_1_project_BN/FusedBatchNormV3/mean/Fused_Mul__copy92113255/restored_convert/quantized/to_f32" type="Convert" version="opset1">
			<data destination_type="f32" />
			<input>
				<port id="0" precision="I8">
					<dim>24</dim>
					<dim>96</dim>
					<dim>1</dim>
					<dim>1</dim>
				</port>
			</input>
			<output>
				<port id="1" precision="FP32">
					<dim>24</dim>
					<dim>96</dim>
					<dim>1</dim>
					<dim>1</dim>
				</port>
			</output>
		</layer>
		<layer id="100" name="StatefulPartitionedCall/ssd_mobile_net_v2_fpn_keras_feature_extractor/model/block_1_project/Conv2D/fq_weights_1/zero_point1604123790" type="Const" version="opset1">
			<data element_type="f32" shape="24, 1, 1, 1" offset="10252" size="96" />
			<output>
				<port id="0" precision="FP32">
					<dim>24</dim>
					<dim>1</dim>
					<dim>1</dim>
					<dim>1</dim>
				</port>
			</output>
		</layer>
		<layer id="101" name="StatefulPartitionedCall/ssd_mobile_net_v2_fpn_keras_feature_extractor/model/block_1_project/Conv2D/fq_weights_1/minus_zp" type="Subtract" version="opset1">
			<data auto_broadcast="numpy" />
			<input>
				<port id="0" precision="FP32">
					<dim>24</dim>
					<dim>96</dim>
					<dim>1</dim>
					<dim>1</dim>
				</port>
				<port id="1" precision="FP32">
					<dim>24</dim>
					<dim>1</dim>
					<dim>1</dim>
					<dim>1</dim>
				</port>
			</input>
			<output>
				<port id="2" precision="FP32">
					<dim>24</dim>
					<dim>96</dim>
					<dim>1</dim>
					<dim>1</dim>
				</port>
			</output>
		</layer>
		<layer id="102" name="StatefulPartitionedCall/ssd_mobile_net_v2_fpn_keras_feature_extractor/model/block_1_project/Conv2D/fq_weights_1/scale1603024132" type="Const" version="opset1">
			<data element_type="f32" shape="24, 1, 1, 1" offset="10348" size="96" />
			<output>
				<port id="0" precision="FP32">
					<dim>24</dim>
					<dim>1</dim>
					<dim>1</dim>
					<dim>1</dim>
				</port>
			</output>
		</layer>
		<layer id="103" name="StatefulPartitionedCall/ssd_mobile_net_v2_fpn_keras_feature_extractor/model/block_1_project/Conv2D/fq_weights_1/mulpiply_by_scale" type="Multiply" version="opset1">
			<data auto_broadcast="numpy" />
			<input>
				<port id="0" precision="FP32">
					<dim>24</dim>
					<dim>96</dim>
					<dim>1</dim>
					<dim>1</dim>
				</port>
				<port id="1" precision="FP32">
					<dim>24</dim>
					<dim>1</dim>
					<dim>1</dim>
					<dim>1</dim>
				</port>
			</input>
			<output>
				<port id="2" precision="FP32">
					<dim>24</dim>
					<dim>96</dim>
					<dim>1</dim>
					<dim>1</dim>
				</port>
			</output>
		</layer>
		<layer id="104" name="StatefulPartitionedCall/ssd_mobile_net_v2_fpn_keras_feature_extractor/model/block_1_project/Conv2D" type="Convolution" version="opset1">
			<data strides="1, 1" dilations="1, 1" pads_begin="0, 0" pads_end="0, 0" auto_pad="same_upper" />
			<rt_info>
				<attribute name="fused_names" version="0" value="StatefulPartitionedCall/ssd_mobile_net_v2_fpn_keras_feature_extractor/model/block_1_project/Conv2D" />
			</rt_info>
			<input>
				<port id="0" precision="FP32">
					<dim>1</dim>
					<dim>96</dim>
					<dim>160</dim>
					<dim>160</dim>
				</port>
				<port id="1" precision="FP32">
					<dim>24</dim>
					<dim>96</dim>
					<dim>1</dim>
					<dim>1</dim>
				</port>
			</input>
			<output>
				<port id="2" precision="FP32">
					<dim>1</dim>
					<dim>24</dim>
					<dim>160</dim>
					<dim>160</dim>
				</port>
			</output>
		</layer>
		<layer id="105" name="data_add_445394454492423574" type="Const" version="opset1">
			<data element_type="f16" shape="1, 24, 1, 1" offset="10444" size="48" />
			<output>
				<port id="0" precision="FP16">
					<dim>1</dim>
					<dim>24</dim>
					<dim>1</dim>
					<dim>1</dim>
				</port>
			</output>
		</layer>
		<layer id="106" name="data_add_445394454492413256/restored_convert" type="Convert" version="opset1">
			<data destination_type="f32" />
			<rt_info>
				<attribute name="decompression" version="0" />
				<attribute name="fused_names" version="0" value="data_add_4453944544" />
			</rt_info>
			<input>
				<port id="0" precision="FP16">
					<dim>1</dim>
					<dim>24</dim>
					<dim>1</dim>
					<dim>1</dim>
				</port>
			</input>
			<output>
				<port id="1" precision="FP32">
					<dim>1</dim>
					<dim>24</dim>
					<dim>1</dim>
					<dim>1</dim>
				</port>
			</output>
		</layer>
		<layer id="107" name="StatefulPartitionedCall/ssd_mobile_net_v2_fpn_keras_feature_extractor/model/block_1_project_BN/FusedBatchNormV3/variance/Fused_Add_" type="Add" version="opset1">
			<data auto_broadcast="numpy" />
			<rt_info>
				<attribute name="fused_names" version="0" value="StatefulPartitionedCall/ssd_mobile_net_v2_fpn_keras_feature_extractor/model/block_1_project_BN/FusedBatchNormV3/variance/Fused_Add_" />
			</rt_info>
			<input>
				<port id="0" precision="FP32">
					<dim>1</dim>
					<dim>24</dim>
					<dim>160</dim>
					<dim>160</dim>
				</port>
				<port id="1" precision="FP32">
					<dim>1</dim>
					<dim>24</dim>
					<dim>1</dim>
					<dim>1</dim>
				</port>
			</input>
			<output>
				<port id="2" precision="FP32" names="StatefulPartitionedCall/ssd_mobile_net_v2_fpn_keras_feature_extractor/model/block_1_project_BN/FusedBatchNormV3:0">
					<dim>1</dim>
					<dim>24</dim>
					<dim>160</dim>
					<dim>160</dim>
				</port>
			</output>
		</layer>
		<layer id="108" name="4872487625044" type="Const" version="opset1">
			<data element_type="f32" shape="" offset="10492" size="4" />
			<output>
				<port id="0" precision="FP32" />
			</output>
		</layer>
		<layer id="109" name="4873487724762" type="Const" version="opset1">
			<data element_type="f32" shape="" offset="10496" size="4" />
			<output>
				<port id="0" precision="FP32" />
			</output>
		</layer>
		<layer id="110" name="4874487826211" type="Const" version="opset1">
			<data element_type="f32" shape="" offset="10492" size="4" />
			<output>
				<port id="0" precision="FP32" />
			</output>
		</layer>
		<layer id="111" name="4875487926214" type="Const" version="opset1">
			<data element_type="f32" shape="" offset="10496" size="4" />
			<output>
				<port id="0" precision="FP32" />
			</output>
		</layer>
		<layer id="112" name="StatefulPartitionedCall/ssd_mobile_net_v2_fpn_keras_feature_extractor/model/block_2_add/add/fq_input_0" type="FakeQuantize" version="opset1">
			<data levels="256" auto_broadcast="numpy" />
			<input>
				<port id="0" precision="FP32">
					<dim>1</dim>
					<dim>24</dim>
					<dim>160</dim>
					<dim>160</dim>
				</port>
				<port id="1" precision="FP32" />
				<port id="2" precision="FP32" />
				<port id="3" precision="FP32" />
				<port id="4" precision="FP32" />
			</input>
			<output>
				<port id="5" precision="FP32">
					<dim>1</dim>
					<dim>24</dim>
					<dim>160</dim>
					<dim>160</dim>
				</port>
			</output>
		</layer>
		<layer id="113" name="StatefulPartitionedCall/ssd_mobile_net_v2_fpn_keras_feature_extractor/model/block_2_expand_BN/FusedBatchNormV3/mean/Fused_Mul__copy92713257/restored_convert/quantized1767225371" type="Const" version="opset1">
			<data element_type="i8" shape="144, 24, 1, 1" offset="10500" size="3456" />
			<output>
				<port id="0" precision="I8">
					<dim>144</dim>
					<dim>24</dim>
					<dim>1</dim>
					<dim>1</dim>
				</port>
			</output>
		</layer>
		<layer id="114" name="StatefulPartitionedCall/ssd_mobile_net_v2_fpn_keras_feature_extractor/model/block_2_expand_BN/FusedBatchNormV3/mean/Fused_Mul__copy92713257/restored_convert/quantized/to_f32" type="Convert" version="opset1">
			<data destination_type="f32" />
			<input>
				<port id="0" precision="I8">
					<dim>144</dim>
					<dim>24</dim>
					<dim>1</dim>
					<dim>1</dim>
				</port>
			</input>
			<output>
				<port id="1" precision="FP32">
					<dim>144</dim>
					<dim>24</dim>
					<dim>1</dim>
					<dim>1</dim>
				</port>
			</output>
		</layer>
		<layer id="115" name="StatefulPartitionedCall/ssd_mobile_net_v2_fpn_keras_feature_extractor/model/block_2_expand/Conv2D/fq_weights_1/zero_point1769126046" type="Const" version="opset1">
			<data element_type="f32" shape="144, 1, 1, 1" offset="13956" size="576" />
			<output>
				<port id="0" precision="FP32">
					<dim>144</dim>
					<dim>1</dim>
					<dim>1</dim>
					<dim>1</dim>
				</port>
			</output>
		</layer>
		<layer id="116" name="StatefulPartitionedCall/ssd_mobile_net_v2_fpn_keras_feature_extractor/model/block_2_expand/Conv2D/fq_weights_1/minus_zp" type="Subtract" version="opset1">
			<data auto_broadcast="numpy" />
			<input>
				<port id="0" precision="FP32">
					<dim>144</dim>
					<dim>24</dim>
					<dim>1</dim>
					<dim>1</dim>
				</port>
				<port id="1" precision="FP32">
					<dim>144</dim>
					<dim>1</dim>
					<dim>1</dim>
					<dim>1</dim>
				</port>
			</input>
			<output>
				<port id="2" precision="FP32">
					<dim>144</dim>
					<dim>24</dim>
					<dim>1</dim>
					<dim>1</dim>
				</port>
			</output>
		</layer>
		<layer id="117" name="StatefulPartitionedCall/ssd_mobile_net_v2_fpn_keras_feature_extractor/model/block_2_expand/Conv2D/fq_weights_1/scale1768024612" type="Const" version="opset1">
			<data element_type="f32" shape="144, 1, 1, 1" offset="14532" size="576" />
			<output>
				<port id="0" precision="FP32">
					<dim>144</dim>
					<dim>1</dim>
					<dim>1</dim>
					<dim>1</dim>
				</port>
			</output>
		</layer>
		<layer id="118" name="StatefulPartitionedCall/ssd_mobile_net_v2_fpn_keras_feature_extractor/model/block_2_expand/Conv2D/fq_weights_1/mulpiply_by_scale" type="Multiply" version="opset1">
			<data auto_broadcast="numpy" />
			<input>
				<port id="0" precision="FP32">
					<dim>144</dim>
					<dim>24</dim>
					<dim>1</dim>
					<dim>1</dim>
				</port>
				<port id="1" precision="FP32">
					<dim>144</dim>
					<dim>1</dim>
					<dim>1</dim>
					<dim>1</dim>
				</port>
			</input>
			<output>
				<port id="2" precision="FP32">
					<dim>144</dim>
					<dim>24</dim>
					<dim>1</dim>
					<dim>1</dim>
				</port>
			</output>
		</layer>
		<layer id="119" name="StatefulPartitionedCall/ssd_mobile_net_v2_fpn_keras_feature_extractor/model/block_2_expand/Conv2D" type="Convolution" version="opset1">
			<data strides="1, 1" dilations="1, 1" pads_begin="0, 0" pads_end="0, 0" auto_pad="same_upper" />
			<rt_info>
				<attribute name="fused_names" version="0" value="StatefulPartitionedCall/ssd_mobile_net_v2_fpn_keras_feature_extractor/model/block_2_expand/Conv2D" />
			</rt_info>
			<input>
				<port id="0" precision="FP32">
					<dim>1</dim>
					<dim>24</dim>
					<dim>160</dim>
					<dim>160</dim>
				</port>
				<port id="1" precision="FP32">
					<dim>144</dim>
					<dim>24</dim>
					<dim>1</dim>
					<dim>1</dim>
				</port>
			</input>
			<output>
				<port id="2" precision="FP32">
					<dim>1</dim>
					<dim>144</dim>
					<dim>160</dim>
					<dim>160</dim>
				</port>
			</output>
		</layer>
		<layer id="120" name="data_add_445474455293024336" type="Const" version="opset1">
			<data element_type="f16" shape="1, 144, 1, 1" offset="15108" size="288" />
			<output>
				<port id="0" precision="FP16">
					<dim>1</dim>
					<dim>144</dim>
					<dim>1</dim>
					<dim>1</dim>
				</port>
			</output>
		</layer>
		<layer id="121" name="data_add_445474455293013258/restored_convert" type="Convert" version="opset1">
			<data destination_type="f32" />
			<rt_info>
				<attribute name="decompression" version="0" />
				<attribute name="fused_names" version="0" value="data_add_4454744552" />
			</rt_info>
			<input>
				<port id="0" precision="FP16">
					<dim>1</dim>
					<dim>144</dim>
					<dim>1</dim>
					<dim>1</dim>
				</port>
			</input>
			<output>
				<port id="1" precision="FP32">
					<dim>1</dim>
					<dim>144</dim>
					<dim>1</dim>
					<dim>1</dim>
				</port>
			</output>
		</layer>
		<layer id="122" name="StatefulPartitionedCall/ssd_mobile_net_v2_fpn_keras_feature_extractor/model/block_2_expand_BN/FusedBatchNormV3/variance/Fused_Add_" type="Add" version="opset1">
			<data auto_broadcast="numpy" />
			<rt_info>
				<attribute name="fused_names" version="0" value="StatefulPartitionedCall/ssd_mobile_net_v2_fpn_keras_feature_extractor/model/block_2_expand_BN/FusedBatchNormV3/variance/Fused_Add_" />
			</rt_info>
			<input>
				<port id="0" precision="FP32">
					<dim>1</dim>
					<dim>144</dim>
					<dim>160</dim>
					<dim>160</dim>
				</port>
				<port id="1" precision="FP32">
					<dim>1</dim>
					<dim>144</dim>
					<dim>1</dim>
					<dim>1</dim>
				</port>
			</input>
			<output>
				<port id="2" precision="FP32" names="StatefulPartitionedCall/ssd_mobile_net_v2_fpn_keras_feature_extractor/model/block_2_expand_BN/FusedBatchNormV3:0">
					<dim>1</dim>
					<dim>144</dim>
					<dim>160</dim>
					<dim>160</dim>
				</port>
			</output>
		</layer>
		<layer id="123" name="StatefulPartitionedCall/ssd_mobile_net_v2_fpn_keras_feature_extractor/model/block_2_expand_relu/Relu6" type="Clamp" version="opset1">
			<data min="0" max="6" />
			<rt_info>
				<attribute name="fused_names" version="0" value="StatefulPartitionedCall/ssd_mobile_net_v2_fpn_keras_feature_extractor/model/block_2_expand_relu/Relu6" />
			</rt_info>
			<input>
				<port id="0" precision="FP32">
					<dim>1</dim>
					<dim>144</dim>
					<dim>160</dim>
					<dim>160</dim>
				</port>
			</input>
			<output>
				<port id="1" precision="FP32" names="StatefulPartitionedCall/ssd_mobile_net_v2_fpn_keras_feature_extractor/model/block_2_expand_relu/Relu6:0">
					<dim>1</dim>
					<dim>144</dim>
					<dim>160</dim>
					<dim>160</dim>
				</port>
			</output>
		</layer>
		<layer id="124" name="3832383625716" type="Const" version="opset1">
			<data element_type="f32" shape="1, 144, 1, 1" offset="15396" size="576" />
			<output>
				<port id="0" precision="FP32">
					<dim>1</dim>
					<dim>144</dim>
					<dim>1</dim>
					<dim>1</dim>
				</port>
			</output>
		</layer>
		<layer id="125" name="3833383725302" type="Const" version="opset1">
			<data element_type="f32" shape="1, 144, 1, 1" offset="15972" size="576" />
			<output>
				<port id="0" precision="FP32">
					<dim>1</dim>
					<dim>144</dim>
					<dim>1</dim>
					<dim>1</dim>
				</port>
			</output>
		</layer>
		<layer id="126" name="3834383824312" type="Const" version="opset1">
			<data element_type="f32" shape="1, 144, 1, 1" offset="15396" size="576" />
			<output>
				<port id="0" precision="FP32">
					<dim>1</dim>
					<dim>144</dim>
					<dim>1</dim>
					<dim>1</dim>
				</port>
			</output>
		</layer>
		<layer id="127" name="3835383925713" type="Const" version="opset1">
			<data element_type="f32" shape="1, 144, 1, 1" offset="15972" size="576" />
			<output>
				<port id="0" precision="FP32">
					<dim>1</dim>
					<dim>144</dim>
					<dim>1</dim>
					<dim>1</dim>
				</port>
			</output>
		</layer>
		<layer id="128" name="StatefulPartitionedCall/ssd_mobile_net_v2_fpn_keras_feature_extractor/model/block_2_depthwise/depthwise/fq_input_0" type="FakeQuantize" version="opset1">
			<data levels="256" auto_broadcast="numpy" />
			<input>
				<port id="0" precision="FP32">
					<dim>1</dim>
					<dim>144</dim>
					<dim>160</dim>
					<dim>160</dim>
				</port>
				<port id="1" precision="FP32">
					<dim>1</dim>
					<dim>144</dim>
					<dim>1</dim>
					<dim>1</dim>
				</port>
				<port id="2" precision="FP32">
					<dim>1</dim>
					<dim>144</dim>
					<dim>1</dim>
					<dim>1</dim>
				</port>
				<port id="3" precision="FP32">
					<dim>1</dim>
					<dim>144</dim>
					<dim>1</dim>
					<dim>1</dim>
				</port>
				<port id="4" precision="FP32">
					<dim>1</dim>
					<dim>144</dim>
					<dim>1</dim>
					<dim>1</dim>
				</port>
			</input>
			<output>
				<port id="5" precision="FP32">
					<dim>1</dim>
					<dim>144</dim>
					<dim>160</dim>
					<dim>160</dim>
				</port>
			</output>
		</layer>
		<layer id="129" name="StatefulPartitionedCall/ssd_mobile_net_v2_fpn_keras_feature_extractor/model/block_2_depthwise_BN/FusedBatchNormV3/mean/Fused_Mul__copy93413259/restored_convert/quantized1737223928" type="Const" version="opset1">
			<data element_type="i8" shape="144, 1, 3, 3" offset="16548" size="1296" />
			<output>
				<port id="0" precision="I8">
					<dim>144</dim>
					<dim>1</dim>
					<dim>3</dim>
					<dim>3</dim>
				</port>
			</output>
		</layer>
		<layer id="130" name="StatefulPartitionedCall/ssd_mobile_net_v2_fpn_keras_feature_extractor/model/block_2_depthwise_BN/FusedBatchNormV3/mean/Fused_Mul__copy93413259/restored_convert/quantized/to_f32" type="Convert" version="opset1">
			<data destination_type="f32" />
			<input>
				<port id="0" precision="I8">
					<dim>144</dim>
					<dim>1</dim>
					<dim>3</dim>
					<dim>3</dim>
				</port>
			</input>
			<output>
				<port id="1" precision="FP32">
					<dim>144</dim>
					<dim>1</dim>
					<dim>3</dim>
					<dim>3</dim>
				</port>
			</output>
		</layer>
		<layer id="131" name="StatefulPartitionedCall/ssd_mobile_net_v2_fpn_keras_feature_extractor/model/block_2_depthwise/depthwise/fq_weights_1/zero_point1739126241" type="Const" version="opset1">
			<data element_type="f32" shape="144, 1, 1, 1" offset="17844" size="576" />
			<output>
				<port id="0" precision="FP32">
					<dim>144</dim>
					<dim>1</dim>
					<dim>1</dim>
					<dim>1</dim>
				</port>
			</output>
		</layer>
		<layer id="132" name="StatefulPartitionedCall/ssd_mobile_net_v2_fpn_keras_feature_extractor/model/block_2_depthwise/depthwise/fq_weights_1/minus_zp" type="Subtract" version="opset1">
			<data auto_broadcast="numpy" />
			<input>
				<port id="0" precision="FP32">
					<dim>144</dim>
					<dim>1</dim>
					<dim>3</dim>
					<dim>3</dim>
				</port>
				<port id="1" precision="FP32">
					<dim>144</dim>
					<dim>1</dim>
					<dim>1</dim>
					<dim>1</dim>
				</port>
			</input>
			<output>
				<port id="2" precision="FP32">
					<dim>144</dim>
					<dim>1</dim>
					<dim>3</dim>
					<dim>3</dim>
				</port>
			</output>
		</layer>
		<layer id="133" name="StatefulPartitionedCall/ssd_mobile_net_v2_fpn_keras_feature_extractor/model/block_2_depthwise/depthwise/fq_weights_1/scale1738025941" type="Const" version="opset1">
			<data element_type="f32" shape="144, 1, 1, 1" offset="18420" size="576" />
			<output>
				<port id="0" precision="FP32">
					<dim>144</dim>
					<dim>1</dim>
					<dim>1</dim>
					<dim>1</dim>
				</port>
			</output>
		</layer>
		<layer id="134" name="StatefulPartitionedCall/ssd_mobile_net_v2_fpn_keras_feature_extractor/model/block_2_depthwise/depthwise/fq_weights_1/mulpiply_by_scale" type="Multiply" version="opset1">
			<data auto_broadcast="numpy" />
			<input>
				<port id="0" precision="FP32">
					<dim>144</dim>
					<dim>1</dim>
					<dim>3</dim>
					<dim>3</dim>
				</port>
				<port id="1" precision="FP32">
					<dim>144</dim>
					<dim>1</dim>
					<dim>1</dim>
					<dim>1</dim>
				</port>
			</input>
			<output>
				<port id="2" precision="FP32">
					<dim>144</dim>
					<dim>1</dim>
					<dim>3</dim>
					<dim>3</dim>
				</port>
			</output>
		</layer>
		<layer id="135" name="20917/value2091923508" type="Const" version="opset1">
			<data element_type="i64" shape="5" offset="18996" size="40" />
			<output>
				<port id="0" precision="I64">
					<dim>5</dim>
				</port>
			</output>
		</layer>
		<layer id="136" name="20917" type="Reshape" version="opset1">
			<data special_zero="true" />
			<input>
				<port id="0" precision="FP32">
					<dim>144</dim>
					<dim>1</dim>
					<dim>3</dim>
					<dim>3</dim>
				</port>
				<port id="1" precision="I64">
					<dim>5</dim>
				</port>
			</input>
			<output>
				<port id="2" precision="FP32">
					<dim>144</dim>
					<dim>1</dim>
					<dim>1</dim>
					<dim>3</dim>
					<dim>3</dim>
				</port>
			</output>
		</layer>
		<layer id="137" name="StatefulPartitionedCall/ssd_mobile_net_v2_fpn_keras_feature_extractor/model/block_2_depthwise/depthwise" type="GroupConvolution" version="opset1">
			<data strides="1, 1" pads_begin="0, 0" pads_end="0, 0" dilations="1, 1" auto_pad="same_upper" />
			<rt_info>
				<attribute name="fused_names" version="0" value="StatefulPartitionedCall/ssd_mobile_net_v2_fpn_keras_feature_extractor/model/block_2_depthwise/depthwise" />
			</rt_info>
			<input>
				<port id="0" precision="FP32">
					<dim>1</dim>
					<dim>144</dim>
					<dim>160</dim>
					<dim>160</dim>
				</port>
				<port id="1" precision="FP32">
					<dim>144</dim>
					<dim>1</dim>
					<dim>1</dim>
					<dim>3</dim>
					<dim>3</dim>
				</port>
			</input>
			<output>
				<port id="2" precision="FP32">
					<dim>1</dim>
					<dim>144</dim>
					<dim>160</dim>
					<dim>160</dim>
				</port>
			</output>
		</layer>
		<layer id="138" name="data_add_445554456093726391" type="Const" version="opset1">
			<data element_type="f16" shape="1, 144, 1, 1" offset="19036" size="288" />
			<output>
				<port id="0" precision="FP16">
					<dim>1</dim>
					<dim>144</dim>
					<dim>1</dim>
					<dim>1</dim>
				</port>
			</output>
		</layer>
		<layer id="139" name="data_add_445554456093713260/restored_convert" type="Convert" version="opset1">
			<data destination_type="f32" />
			<rt_info>
				<attribute name="decompression" version="0" />
				<attribute name="fused_names" version="0" value="data_add_4455544560" />
			</rt_info>
			<input>
				<port id="0" precision="FP16">
					<dim>1</dim>
					<dim>144</dim>
					<dim>1</dim>
					<dim>1</dim>
				</port>
			</input>
			<output>
				<port id="1" precision="FP32">
					<dim>1</dim>
					<dim>144</dim>
					<dim>1</dim>
					<dim>1</dim>
				</port>
			</output>
		</layer>
		<layer id="140" name="StatefulPartitionedCall/ssd_mobile_net_v2_fpn_keras_feature_extractor/model/block_2_depthwise_BN/FusedBatchNormV3/variance/Fused_Add_" type="Add" version="opset1">
			<data auto_broadcast="numpy" />
			<rt_info>
				<attribute name="fused_names" version="0" value="StatefulPartitionedCall/ssd_mobile_net_v2_fpn_keras_feature_extractor/model/block_2_depthwise_BN/FusedBatchNormV3/variance/Fused_Add_" />
			</rt_info>
			<input>
				<port id="0" precision="FP32">
					<dim>1</dim>
					<dim>144</dim>
					<dim>160</dim>
					<dim>160</dim>
				</port>
				<port id="1" precision="FP32">
					<dim>1</dim>
					<dim>144</dim>
					<dim>1</dim>
					<dim>1</dim>
				</port>
			</input>
			<output>
				<port id="2" precision="FP32" names="StatefulPartitionedCall/ssd_mobile_net_v2_fpn_keras_feature_extractor/model/block_2_depthwise_BN/FusedBatchNormV3:0">
					<dim>1</dim>
					<dim>144</dim>
					<dim>160</dim>
					<dim>160</dim>
				</port>
			</output>
		</layer>
		<layer id="141" name="StatefulPartitionedCall/ssd_mobile_net_v2_fpn_keras_feature_extractor/model/block_2_depthwise_relu/Relu6" type="Clamp" version="opset1">
			<data min="0" max="6" />
			<rt_info>
				<attribute name="fused_names" version="0" value="StatefulPartitionedCall/ssd_mobile_net_v2_fpn_keras_feature_extractor/model/block_2_depthwise_relu/Relu6" />
			</rt_info>
			<input>
				<port id="0" precision="FP32">
					<dim>1</dim>
					<dim>144</dim>
					<dim>160</dim>
					<dim>160</dim>
				</port>
			</input>
			<output>
				<port id="1" precision="FP32" names="StatefulPartitionedCall/ssd_mobile_net_v2_fpn_keras_feature_extractor/model/block_2_depthwise_relu/Relu6:0">
					<dim>1</dim>
					<dim>144</dim>
					<dim>160</dim>
					<dim>160</dim>
				</port>
			</output>
		</layer>
		<layer id="142" name="3552355626520" type="Const" version="opset1">
			<data element_type="f32" shape="" offset="2132" size="4" />
			<output>
				<port id="0" precision="FP32" />
			</output>
		</layer>
		<layer id="143" name="3553355725167" type="Const" version="opset1">
			<data element_type="f32" shape="" offset="2136" size="4" />
			<output>
				<port id="0" precision="FP32" />
			</output>
		</layer>
		<layer id="144" name="3554355825458" type="Const" version="opset1">
			<data element_type="f32" shape="" offset="2132" size="4" />
			<output>
				<port id="0" precision="FP32" />
			</output>
		</layer>
		<layer id="145" name="3555355925005" type="Const" version="opset1">
			<data element_type="f32" shape="" offset="2136" size="4" />
			<output>
				<port id="0" precision="FP32" />
			</output>
		</layer>
		<layer id="146" name="StatefulPartitionedCall/ssd_mobile_net_v2_fpn_keras_feature_extractor/model/block_2_project/Conv2D/fq_input_0" type="FakeQuantize" version="opset1">
			<data levels="256" auto_broadcast="numpy" />
			<input>
				<port id="0" precision="FP32">
					<dim>1</dim>
					<dim>144</dim>
					<dim>160</dim>
					<dim>160</dim>
				</port>
				<port id="1" precision="FP32" />
				<port id="2" precision="FP32" />
				<port id="3" precision="FP32" />
				<port id="4" precision="FP32" />
			</input>
			<output>
				<port id="5" precision="FP32">
					<dim>1</dim>
					<dim>144</dim>
					<dim>160</dim>
					<dim>160</dim>
				</port>
			</output>
		</layer>
		<layer id="147" name="StatefulPartitionedCall/ssd_mobile_net_v2_fpn_keras_feature_extractor/model/block_2_project_BN/FusedBatchNormV3/mean/Fused_Mul__copy94113261/restored_convert/quantized1635223802" type="Const" version="opset1">
			<data element_type="i8" shape="24, 144, 1, 1" offset="19324" size="3456" />
			<output>
				<port id="0" precision="I8">
					<dim>24</dim>
					<dim>144</dim>
					<dim>1</dim>
					<dim>1</dim>
				</port>
			</output>
		</layer>
		<layer id="148" name="StatefulPartitionedCall/ssd_mobile_net_v2_fpn_keras_feature_extractor/model/block_2_project_BN/FusedBatchNormV3/mean/Fused_Mul__copy94113261/restored_convert/quantized/to_f32" type="Convert" version="opset1">
			<data destination_type="f32" />
			<input>
				<port id="0" precision="I8">
					<dim>24</dim>
					<dim>144</dim>
					<dim>1</dim>
					<dim>1</dim>
				</port>
			</input>
			<output>
				<port id="1" precision="FP32">
					<dim>24</dim>
					<dim>144</dim>
					<dim>1</dim>
					<dim>1</dim>
				</port>
			</output>
		</layer>
		<layer id="149" name="StatefulPartitionedCall/ssd_mobile_net_v2_fpn_keras_feature_extractor/model/block_2_project/Conv2D/fq_weights_1/zero_point1637125641" type="Const" version="opset1">
			<data element_type="f32" shape="24, 1, 1, 1" offset="22780" size="96" />
			<output>
				<port id="0" precision="FP32">
					<dim>24</dim>
					<dim>1</dim>
					<dim>1</dim>
					<dim>1</dim>
				</port>
			</output>
		</layer>
		<layer id="150" name="StatefulPartitionedCall/ssd_mobile_net_v2_fpn_keras_feature_extractor/model/block_2_project/Conv2D/fq_weights_1/minus_zp" type="Subtract" version="opset1">
			<data auto_broadcast="numpy" />
			<input>
				<port id="0" precision="FP32">
					<dim>24</dim>
					<dim>144</dim>
					<dim>1</dim>
					<dim>1</dim>
				</port>
				<port id="1" precision="FP32">
					<dim>24</dim>
					<dim>1</dim>
					<dim>1</dim>
					<dim>1</dim>
				</port>
			</input>
			<output>
				<port id="2" precision="FP32">
					<dim>24</dim>
					<dim>144</dim>
					<dim>1</dim>
					<dim>1</dim>
				</port>
			</output>
		</layer>
		<layer id="151" name="StatefulPartitionedCall/ssd_mobile_net_v2_fpn_keras_feature_extractor/model/block_2_project/Conv2D/fq_weights_1/scale1636024606" type="Const" version="opset1">
			<data element_type="f32" shape="24, 1, 1, 1" offset="22876" size="96" />
			<output>
				<port id="0" precision="FP32">
					<dim>24</dim>
					<dim>1</dim>
					<dim>1</dim>
					<dim>1</dim>
				</port>
			</output>
		</layer>
		<layer id="152" name="StatefulPartitionedCall/ssd_mobile_net_v2_fpn_keras_feature_extractor/model/block_2_project/Conv2D/fq_weights_1/mulpiply_by_scale" type="Multiply" version="opset1">
			<data auto_broadcast="numpy" />
			<input>
				<port id="0" precision="FP32">
					<dim>24</dim>
					<dim>144</dim>
					<dim>1</dim>
					<dim>1</dim>
				</port>
				<port id="1" precision="FP32">
					<dim>24</dim>
					<dim>1</dim>
					<dim>1</dim>
					<dim>1</dim>
				</port>
			</input>
			<output>
				<port id="2" precision="FP32">
					<dim>24</dim>
					<dim>144</dim>
					<dim>1</dim>
					<dim>1</dim>
				</port>
			</output>
		</layer>
		<layer id="153" name="StatefulPartitionedCall/ssd_mobile_net_v2_fpn_keras_feature_extractor/model/block_2_project/Conv2D" type="Convolution" version="opset1">
			<data strides="1, 1" dilations="1, 1" pads_begin="0, 0" pads_end="0, 0" auto_pad="same_upper" />
			<rt_info>
				<attribute name="fused_names" version="0" value="StatefulPartitionedCall/ssd_mobile_net_v2_fpn_keras_feature_extractor/model/block_2_project/Conv2D" />
			</rt_info>
			<input>
				<port id="0" precision="FP32">
					<dim>1</dim>
					<dim>144</dim>
					<dim>160</dim>
					<dim>160</dim>
				</port>
				<port id="1" precision="FP32">
					<dim>24</dim>
					<dim>144</dim>
					<dim>1</dim>
					<dim>1</dim>
				</port>
			</input>
			<output>
				<port id="2" precision="FP32">
					<dim>1</dim>
					<dim>24</dim>
					<dim>160</dim>
					<dim>160</dim>
				</port>
			</output>
		</layer>
		<layer id="154" name="data_add_445634456894424321" type="Const" version="opset1">
			<data element_type="f16" shape="1, 24, 1, 1" offset="22972" size="48" />
			<output>
				<port id="0" precision="FP16">
					<dim>1</dim>
					<dim>24</dim>
					<dim>1</dim>
					<dim>1</dim>
				</port>
			</output>
		</layer>
		<layer id="155" name="data_add_445634456894413262/restored_convert" type="Convert" version="opset1">
			<data destination_type="f32" />
			<rt_info>
				<attribute name="decompression" version="0" />
				<attribute name="fused_names" version="0" value="data_add_4456344568" />
			</rt_info>
			<input>
				<port id="0" precision="FP16">
					<dim>1</dim>
					<dim>24</dim>
					<dim>1</dim>
					<dim>1</dim>
				</port>
			</input>
			<output>
				<port id="1" precision="FP32">
					<dim>1</dim>
					<dim>24</dim>
					<dim>1</dim>
					<dim>1</dim>
				</port>
			</output>
		</layer>
		<layer id="156" name="StatefulPartitionedCall/ssd_mobile_net_v2_fpn_keras_feature_extractor/model/block_2_project_BN/FusedBatchNormV3/variance/Fused_Add_" type="Add" version="opset1">
			<data auto_broadcast="numpy" />
			<rt_info>
				<attribute name="fused_names" version="0" value="StatefulPartitionedCall/ssd_mobile_net_v2_fpn_keras_feature_extractor/model/block_2_project_BN/FusedBatchNormV3/variance/Fused_Add_" />
			</rt_info>
			<input>
				<port id="0" precision="FP32">
					<dim>1</dim>
					<dim>24</dim>
					<dim>160</dim>
					<dim>160</dim>
				</port>
				<port id="1" precision="FP32">
					<dim>1</dim>
					<dim>24</dim>
					<dim>1</dim>
					<dim>1</dim>
				</port>
			</input>
			<output>
				<port id="2" precision="FP32" names="StatefulPartitionedCall/ssd_mobile_net_v2_fpn_keras_feature_extractor/model/block_2_project_BN/FusedBatchNormV3:0">
					<dim>1</dim>
					<dim>24</dim>
					<dim>160</dim>
					<dim>160</dim>
				</port>
			</output>
		</layer>
		<layer id="157" name="4882488626058" type="Const" version="opset1">
			<data element_type="f32" shape="" offset="23020" size="4" />
			<output>
				<port id="0" precision="FP32" />
			</output>
		</layer>
		<layer id="158" name="4883488726466" type="Const" version="opset1">
			<data element_type="f32" shape="" offset="23024" size="4" />
			<output>
				<port id="0" precision="FP32" />
			</output>
		</layer>
		<layer id="159" name="4884488823961" type="Const" version="opset1">
			<data element_type="f32" shape="" offset="23020" size="4" />
			<output>
				<port id="0" precision="FP32" />
			</output>
		</layer>
		<layer id="160" name="4885488924630" type="Const" version="opset1">
			<data element_type="f32" shape="" offset="23024" size="4" />
			<output>
				<port id="0" precision="FP32" />
			</output>
		</layer>
		<layer id="161" name="StatefulPartitionedCall/ssd_mobile_net_v2_fpn_keras_feature_extractor/model/block_2_add/add/fq_input_1" type="FakeQuantize" version="opset1">
			<data levels="256" auto_broadcast="numpy" />
			<input>
				<port id="0" precision="FP32">
					<dim>1</dim>
					<dim>24</dim>
					<dim>160</dim>
					<dim>160</dim>
				</port>
				<port id="1" precision="FP32" />
				<port id="2" precision="FP32" />
				<port id="3" precision="FP32" />
				<port id="4" precision="FP32" />
			</input>
			<output>
				<port id="5" precision="FP32">
					<dim>1</dim>
					<dim>24</dim>
					<dim>160</dim>
					<dim>160</dim>
				</port>
			</output>
		</layer>
		<layer id="162" name="StatefulPartitionedCall/ssd_mobile_net_v2_fpn_keras_feature_extractor/model/block_2_add/add" type="Add" version="opset1">
			<data auto_broadcast="numpy" />
			<rt_info>
				<attribute name="fused_names" version="0" value="StatefulPartitionedCall/ssd_mobile_net_v2_fpn_keras_feature_extractor/model/block_2_add/add" />
			</rt_info>
			<input>
				<port id="0" precision="FP32">
					<dim>1</dim>
					<dim>24</dim>
					<dim>160</dim>
					<dim>160</dim>
				</port>
				<port id="1" precision="FP32">
					<dim>1</dim>
					<dim>24</dim>
					<dim>160</dim>
					<dim>160</dim>
				</port>
			</input>
			<output>
				<port id="2" precision="FP32" names="StatefulPartitionedCall/ssd_mobile_net_v2_fpn_keras_feature_extractor/model/block_2_add/add:0">
					<dim>1</dim>
					<dim>24</dim>
					<dim>160</dim>
					<dim>160</dim>
				</port>
			</output>
		</layer>
		<layer id="163" name="3532353623904" type="Const" version="opset1">
			<data element_type="f32" shape="" offset="23028" size="4" />
			<output>
				<port id="0" precision="FP32" />
			</output>
		</layer>
		<layer id="164" name="3533353725338" type="Const" version="opset1">
			<data element_type="f32" shape="" offset="23032" size="4" />
			<output>
				<port id="0" precision="FP32" />
			</output>
		</layer>
		<layer id="165" name="3534353825089" type="Const" version="opset1">
			<data element_type="f32" shape="" offset="23028" size="4" />
			<output>
				<port id="0" precision="FP32" />
			</output>
		</layer>
		<layer id="166" name="3535353923547" type="Const" version="opset1">
			<data element_type="f32" shape="" offset="23032" size="4" />
			<output>
				<port id="0" precision="FP32" />
			</output>
		</layer>
		<layer id="167" name="StatefulPartitionedCall/ssd_mobile_net_v2_fpn_keras_feature_extractor/model/block_3_expand/Conv2D/fq_input_0" type="FakeQuantize" version="opset1">
			<data levels="256" auto_broadcast="numpy" />
			<input>
				<port id="0" precision="FP32">
					<dim>1</dim>
					<dim>24</dim>
					<dim>160</dim>
					<dim>160</dim>
				</port>
				<port id="1" precision="FP32" />
				<port id="2" precision="FP32" />
				<port id="3" precision="FP32" />
				<port id="4" precision="FP32" />
			</input>
			<output>
				<port id="5" precision="FP32">
					<dim>1</dim>
					<dim>24</dim>
					<dim>160</dim>
					<dim>160</dim>
				</port>
			</output>
		</layer>
		<layer id="168" name="StatefulPartitionedCall/ssd_mobile_net_v2_fpn_keras_feature_extractor/model/block_3_expand_BN/FusedBatchNormV3/mean/Fused_Mul__copy94813263/restored_convert/quantized1536225575" type="Const" version="opset1">
			<data element_type="i8" shape="144, 24, 1, 1" offset="23036" size="3456" />
			<output>
				<port id="0" precision="I8">
					<dim>144</dim>
					<dim>24</dim>
					<dim>1</dim>
					<dim>1</dim>
				</port>
			</output>
		</layer>
		<layer id="169" name="StatefulPartitionedCall/ssd_mobile_net_v2_fpn_keras_feature_extractor/model/block_3_expand_BN/FusedBatchNormV3/mean/Fused_Mul__copy94813263/restored_convert/quantized/to_f32" type="Convert" version="opset1">
			<data destination_type="f32" />
			<input>
				<port id="0" precision="I8">
					<dim>144</dim>
					<dim>24</dim>
					<dim>1</dim>
					<dim>1</dim>
				</port>
			</input>
			<output>
				<port id="1" precision="FP32">
					<dim>144</dim>
					<dim>24</dim>
					<dim>1</dim>
					<dim>1</dim>
				</port>
			</output>
		</layer>
		<layer id="170" name="StatefulPartitionedCall/ssd_mobile_net_v2_fpn_keras_feature_extractor/model/block_3_expand/Conv2D/fq_weights_1/zero_point1538125626" type="Const" version="opset1">
			<data element_type="f32" shape="144, 1, 1, 1" offset="26492" size="576" />
			<output>
				<port id="0" precision="FP32">
					<dim>144</dim>
					<dim>1</dim>
					<dim>1</dim>
					<dim>1</dim>
				</port>
			</output>
		</layer>
		<layer id="171" name="StatefulPartitionedCall/ssd_mobile_net_v2_fpn_keras_feature_extractor/model/block_3_expand/Conv2D/fq_weights_1/minus_zp" type="Subtract" version="opset1">
			<data auto_broadcast="numpy" />
			<input>
				<port id="0" precision="FP32">
					<dim>144</dim>
					<dim>24</dim>
					<dim>1</dim>
					<dim>1</dim>
				</port>
				<port id="1" precision="FP32">
					<dim>144</dim>
					<dim>1</dim>
					<dim>1</dim>
					<dim>1</dim>
				</port>
			</input>
			<output>
				<port id="2" precision="FP32">
					<dim>144</dim>
					<dim>24</dim>
					<dim>1</dim>
					<dim>1</dim>
				</port>
			</output>
		</layer>
		<layer id="172" name="StatefulPartitionedCall/ssd_mobile_net_v2_fpn_keras_feature_extractor/model/block_3_expand/Conv2D/fq_weights_1/scale1537024447" type="Const" version="opset1">
			<data element_type="f32" shape="144, 1, 1, 1" offset="27068" size="576" />
			<output>
				<port id="0" precision="FP32">
					<dim>144</dim>
					<dim>1</dim>
					<dim>1</dim>
					<dim>1</dim>
				</port>
			</output>
		</layer>
		<layer id="173" name="StatefulPartitionedCall/ssd_mobile_net_v2_fpn_keras_feature_extractor/model/block_3_expand/Conv2D/fq_weights_1/mulpiply_by_scale" type="Multiply" version="opset1">
			<data auto_broadcast="numpy" />
			<input>
				<port id="0" precision="FP32">
					<dim>144</dim>
					<dim>24</dim>
					<dim>1</dim>
					<dim>1</dim>
				</port>
				<port id="1" precision="FP32">
					<dim>144</dim>
					<dim>1</dim>
					<dim>1</dim>
					<dim>1</dim>
				</port>
			</input>
			<output>
				<port id="2" precision="FP32">
					<dim>144</dim>
					<dim>24</dim>
					<dim>1</dim>
					<dim>1</dim>
				</port>
			</output>
		</layer>
		<layer id="174" name="StatefulPartitionedCall/ssd_mobile_net_v2_fpn_keras_feature_extractor/model/block_3_expand/Conv2D" type="Convolution" version="opset1">
			<data strides="1, 1" dilations="1, 1" pads_begin="0, 0" pads_end="0, 0" auto_pad="same_upper" />
			<rt_info>
				<attribute name="fused_names" version="0" value="StatefulPartitionedCall/ssd_mobile_net_v2_fpn_keras_feature_extractor/model/block_3_expand/Conv2D" />
			</rt_info>
			<input>
				<port id="0" precision="FP32">
					<dim>1</dim>
					<dim>24</dim>
					<dim>160</dim>
					<dim>160</dim>
				</port>
				<port id="1" precision="FP32">
					<dim>144</dim>
					<dim>24</dim>
					<dim>1</dim>
					<dim>1</dim>
				</port>
			</input>
			<output>
				<port id="2" precision="FP32">
					<dim>1</dim>
					<dim>144</dim>
					<dim>160</dim>
					<dim>160</dim>
				</port>
			</output>
		</layer>
		<layer id="175" name="data_add_445714457695125740" type="Const" version="opset1">
			<data element_type="f16" shape="1, 144, 1, 1" offset="27644" size="288" />
			<output>
				<port id="0" precision="FP16">
					<dim>1</dim>
					<dim>144</dim>
					<dim>1</dim>
					<dim>1</dim>
				</port>
			</output>
		</layer>
		<layer id="176" name="data_add_445714457695113264/restored_convert" type="Convert" version="opset1">
			<data destination_type="f32" />
			<rt_info>
				<attribute name="decompression" version="0" />
				<attribute name="fused_names" version="0" value="data_add_4457144576" />
			</rt_info>
			<input>
				<port id="0" precision="FP16">
					<dim>1</dim>
					<dim>144</dim>
					<dim>1</dim>
					<dim>1</dim>
				</port>
			</input>
			<output>
				<port id="1" precision="FP32">
					<dim>1</dim>
					<dim>144</dim>
					<dim>1</dim>
					<dim>1</dim>
				</port>
			</output>
		</layer>
		<layer id="177" name="StatefulPartitionedCall/ssd_mobile_net_v2_fpn_keras_feature_extractor/model/block_3_expand_BN/FusedBatchNormV3/variance/Fused_Add_" type="Add" version="opset1">
			<data auto_broadcast="numpy" />
			<rt_info>
				<attribute name="fused_names" version="0" value="StatefulPartitionedCall/ssd_mobile_net_v2_fpn_keras_feature_extractor/model/block_3_expand_BN/FusedBatchNormV3/variance/Fused_Add_" />
			</rt_info>
			<input>
				<port id="0" precision="FP32">
					<dim>1</dim>
					<dim>144</dim>
					<dim>160</dim>
					<dim>160</dim>
				</port>
				<port id="1" precision="FP32">
					<dim>1</dim>
					<dim>144</dim>
					<dim>1</dim>
					<dim>1</dim>
				</port>
			</input>
			<output>
				<port id="2" precision="FP32" names="StatefulPartitionedCall/ssd_mobile_net_v2_fpn_keras_feature_extractor/model/block_3_expand_BN/FusedBatchNormV3:0">
					<dim>1</dim>
					<dim>144</dim>
					<dim>160</dim>
					<dim>160</dim>
				</port>
			</output>
		</layer>
		<layer id="178" name="StatefulPartitionedCall/ssd_mobile_net_v2_fpn_keras_feature_extractor/model/block_3_expand_relu/Relu6" type="Clamp" version="opset1">
			<data min="0" max="6" />
			<rt_info>
				<attribute name="fused_names" version="0" value="StatefulPartitionedCall/ssd_mobile_net_v2_fpn_keras_feature_extractor/model/block_3_expand_relu/Relu6" />
			</rt_info>
			<input>
				<port id="0" precision="FP32">
					<dim>1</dim>
					<dim>144</dim>
					<dim>160</dim>
					<dim>160</dim>
				</port>
			</input>
			<output>
				<port id="1" precision="FP32" names="StatefulPartitionedCall/ssd_mobile_net_v2_fpn_keras_feature_extractor/model/block_3_expand_relu/Relu6:0">
					<dim>1</dim>
					<dim>144</dim>
					<dim>160</dim>
					<dim>160</dim>
				</port>
			</output>
		</layer>
		<layer id="179" name="5392539623712" type="Const" version="opset1">
			<data element_type="f32" shape="1, 144, 1, 1" offset="15396" size="576" />
			<output>
				<port id="0" precision="FP32">
					<dim>1</dim>
					<dim>144</dim>
					<dim>1</dim>
					<dim>1</dim>
				</port>
			</output>
		</layer>
		<layer id="180" name="5393539724237" type="Const" version="opset1">
			<data element_type="f32" shape="1, 144, 1, 1" offset="27932" size="576" />
			<output>
				<port id="0" precision="FP32">
					<dim>1</dim>
					<dim>144</dim>
					<dim>1</dim>
					<dim>1</dim>
				</port>
			</output>
		</layer>
		<layer id="181" name="5394539825698" type="Const" version="opset1">
			<data element_type="f32" shape="1, 144, 1, 1" offset="15396" size="576" />
			<output>
				<port id="0" precision="FP32">
					<dim>1</dim>
					<dim>144</dim>
					<dim>1</dim>
					<dim>1</dim>
				</port>
			</output>
		</layer>
		<layer id="182" name="5395539923706" type="Const" version="opset1">
			<data element_type="f32" shape="1, 144, 1, 1" offset="27932" size="576" />
			<output>
				<port id="0" precision="FP32">
					<dim>1</dim>
					<dim>144</dim>
					<dim>1</dim>
					<dim>1</dim>
				</port>
			</output>
		</layer>
		<layer id="183" name="StatefulPartitionedCall/ssd_mobile_net_v2_fpn_keras_feature_extractor/model/block_3_depthwise/depthwise/fq_input_0" type="FakeQuantize" version="opset1">
			<data levels="256" auto_broadcast="numpy" />
			<input>
				<port id="0" precision="FP32">
					<dim>1</dim>
					<dim>144</dim>
					<dim>160</dim>
					<dim>160</dim>
				</port>
				<port id="1" precision="FP32">
					<dim>1</dim>
					<dim>144</dim>
					<dim>1</dim>
					<dim>1</dim>
				</port>
				<port id="2" precision="FP32">
					<dim>1</dim>
					<dim>144</dim>
					<dim>1</dim>
					<dim>1</dim>
				</port>
				<port id="3" precision="FP32">
					<dim>1</dim>
					<dim>144</dim>
					<dim>1</dim>
					<dim>1</dim>
				</port>
				<port id="4" precision="FP32">
					<dim>1</dim>
					<dim>144</dim>
					<dim>1</dim>
					<dim>1</dim>
				</port>
			</input>
			<output>
				<port id="5" precision="FP32">
					<dim>1</dim>
					<dim>144</dim>
					<dim>160</dim>
					<dim>160</dim>
				</port>
			</output>
		</layer>
		<layer id="184" name="StatefulPartitionedCall/ssd_mobile_net_v2_fpn_keras_feature_extractor/model/block_3_depthwise_BN/FusedBatchNormV3/mean/Fused_Mul__copy95513265/restored_convert/quantized1770223973" type="Const" version="opset1">
			<data element_type="i8" shape="144, 1, 3, 3" offset="28508" size="1296" />
			<output>
				<port id="0" precision="I8">
					<dim>144</dim>
					<dim>1</dim>
					<dim>3</dim>
					<dim>3</dim>
				</port>
			</output>
		</layer>
		<layer id="185" name="StatefulPartitionedCall/ssd_mobile_net_v2_fpn_keras_feature_extractor/model/block_3_depthwise_BN/FusedBatchNormV3/mean/Fused_Mul__copy95513265/restored_convert/quantized/to_f32" type="Convert" version="opset1">
			<data destination_type="f32" />
			<input>
				<port id="0" precision="I8">
					<dim>144</dim>
					<dim>1</dim>
					<dim>3</dim>
					<dim>3</dim>
				</port>
			</input>
			<output>
				<port id="1" precision="FP32">
					<dim>144</dim>
					<dim>1</dim>
					<dim>3</dim>
					<dim>3</dim>
				</port>
			</output>
		</layer>
		<layer id="186" name="StatefulPartitionedCall/ssd_mobile_net_v2_fpn_keras_feature_extractor/model/block_3_depthwise/depthwise/fq_weights_1/zero_point1772124654" type="Const" version="opset1">
			<data element_type="f32" shape="144, 1, 1, 1" offset="29804" size="576" />
			<output>
				<port id="0" precision="FP32">
					<dim>144</dim>
					<dim>1</dim>
					<dim>1</dim>
					<dim>1</dim>
				</port>
			</output>
		</layer>
		<layer id="187" name="StatefulPartitionedCall/ssd_mobile_net_v2_fpn_keras_feature_extractor/model/block_3_depthwise/depthwise/fq_weights_1/minus_zp" type="Subtract" version="opset1">
			<data auto_broadcast="numpy" />
			<input>
				<port id="0" precision="FP32">
					<dim>144</dim>
					<dim>1</dim>
					<dim>3</dim>
					<dim>3</dim>
				</port>
				<port id="1" precision="FP32">
					<dim>144</dim>
					<dim>1</dim>
					<dim>1</dim>
					<dim>1</dim>
				</port>
			</input>
			<output>
				<port id="2" precision="FP32">
					<dim>144</dim>
					<dim>1</dim>
					<dim>3</dim>
					<dim>3</dim>
				</port>
			</output>
		</layer>
		<layer id="188" name="StatefulPartitionedCall/ssd_mobile_net_v2_fpn_keras_feature_extractor/model/block_3_depthwise/depthwise/fq_weights_1/scale1771025092" type="Const" version="opset1">
			<data element_type="f32" shape="144, 1, 1, 1" offset="30380" size="576" />
			<output>
				<port id="0" precision="FP32">
					<dim>144</dim>
					<dim>1</dim>
					<dim>1</dim>
					<dim>1</dim>
				</port>
			</output>
		</layer>
		<layer id="189" name="StatefulPartitionedCall/ssd_mobile_net_v2_fpn_keras_feature_extractor/model/block_3_depthwise/depthwise/fq_weights_1/mulpiply_by_scale" type="Multiply" version="opset1">
			<data auto_broadcast="numpy" />
			<input>
				<port id="0" precision="FP32">
					<dim>144</dim>
					<dim>1</dim>
					<dim>3</dim>
					<dim>3</dim>
				</port>
				<port id="1" precision="FP32">
					<dim>144</dim>
					<dim>1</dim>
					<dim>1</dim>
					<dim>1</dim>
				</port>
			</input>
			<output>
				<port id="2" precision="FP32">
					<dim>144</dim>
					<dim>1</dim>
					<dim>3</dim>
					<dim>3</dim>
				</port>
			</output>
		</layer>
		<layer id="190" name="20921/value2092324297" type="Const" version="opset1">
			<data element_type="i64" shape="5" offset="18996" size="40" />
			<output>
				<port id="0" precision="I64">
					<dim>5</dim>
				</port>
			</output>
		</layer>
		<layer id="191" name="20921" type="Reshape" version="opset1">
			<data special_zero="true" />
			<input>
				<port id="0" precision="FP32">
					<dim>144</dim>
					<dim>1</dim>
					<dim>3</dim>
					<dim>3</dim>
				</port>
				<port id="1" precision="I64">
					<dim>5</dim>
				</port>
			</input>
			<output>
				<port id="2" precision="FP32">
					<dim>144</dim>
					<dim>1</dim>
					<dim>1</dim>
					<dim>3</dim>
					<dim>3</dim>
				</port>
			</output>
		</layer>
		<layer id="192" name="StatefulPartitionedCall/ssd_mobile_net_v2_fpn_keras_feature_extractor/model/block_3_depthwise/depthwise" type="GroupConvolution" version="opset1">
			<data strides="2, 2" pads_begin="0, 0" pads_end="0, 0" dilations="1, 1" auto_pad="same_upper" />
			<rt_info>
				<attribute name="fused_names" version="0" value="StatefulPartitionedCall/ssd_mobile_net_v2_fpn_keras_feature_extractor/model/block_3_depthwise/depthwise" />
			</rt_info>
			<input>
				<port id="0" precision="FP32">
					<dim>1</dim>
					<dim>144</dim>
					<dim>160</dim>
					<dim>160</dim>
				</port>
				<port id="1" precision="FP32">
					<dim>144</dim>
					<dim>1</dim>
					<dim>1</dim>
					<dim>3</dim>
					<dim>3</dim>
				</port>
			</input>
			<output>
				<port id="2" precision="FP32">
					<dim>1</dim>
					<dim>144</dim>
					<dim>80</dim>
					<dim>80</dim>
				</port>
			</output>
		</layer>
		<layer id="193" name="data_add_445794458495825179" type="Const" version="opset1">
			<data element_type="f16" shape="1, 144, 1, 1" offset="30956" size="288" />
			<output>
				<port id="0" precision="FP16">
					<dim>1</dim>
					<dim>144</dim>
					<dim>1</dim>
					<dim>1</dim>
				</port>
			</output>
		</layer>
		<layer id="194" name="data_add_445794458495813266/restored_convert" type="Convert" version="opset1">
			<data destination_type="f32" />
			<rt_info>
				<attribute name="decompression" version="0" />
				<attribute name="fused_names" version="0" value="data_add_4457944584" />
			</rt_info>
			<input>
				<port id="0" precision="FP16">
					<dim>1</dim>
					<dim>144</dim>
					<dim>1</dim>
					<dim>1</dim>
				</port>
			</input>
			<output>
				<port id="1" precision="FP32">
					<dim>1</dim>
					<dim>144</dim>
					<dim>1</dim>
					<dim>1</dim>
				</port>
			</output>
		</layer>
		<layer id="195" name="StatefulPartitionedCall/ssd_mobile_net_v2_fpn_keras_feature_extractor/model/block_3_depthwise_BN/FusedBatchNormV3/variance/Fused_Add_" type="Add" version="opset1">
			<data auto_broadcast="numpy" />
			<rt_info>
				<attribute name="fused_names" version="0" value="StatefulPartitionedCall/ssd_mobile_net_v2_fpn_keras_feature_extractor/model/block_3_depthwise_BN/FusedBatchNormV3/variance/Fused_Add_" />
			</rt_info>
			<input>
				<port id="0" precision="FP32">
					<dim>1</dim>
					<dim>144</dim>
					<dim>80</dim>
					<dim>80</dim>
				</port>
				<port id="1" precision="FP32">
					<dim>1</dim>
					<dim>144</dim>
					<dim>1</dim>
					<dim>1</dim>
				</port>
			</input>
			<output>
				<port id="2" precision="FP32" names="StatefulPartitionedCall/ssd_mobile_net_v2_fpn_keras_feature_extractor/model/block_3_depthwise_BN/FusedBatchNormV3:0">
					<dim>1</dim>
					<dim>144</dim>
					<dim>80</dim>
					<dim>80</dim>
				</port>
			</output>
		</layer>
		<layer id="196" name="StatefulPartitionedCall/ssd_mobile_net_v2_fpn_keras_feature_extractor/model/block_3_depthwise_relu/Relu6" type="Clamp" version="opset1">
			<data min="0" max="6" />
			<rt_info>
				<attribute name="fused_names" version="0" value="StatefulPartitionedCall/ssd_mobile_net_v2_fpn_keras_feature_extractor/model/block_3_depthwise_relu/Relu6" />
			</rt_info>
			<input>
				<port id="0" precision="FP32">
					<dim>1</dim>
					<dim>144</dim>
					<dim>80</dim>
					<dim>80</dim>
				</port>
			</input>
			<output>
				<port id="1" precision="FP32" names="StatefulPartitionedCall/ssd_mobile_net_v2_fpn_keras_feature_extractor/model/block_3_depthwise_relu/Relu6:0">
					<dim>1</dim>
					<dim>144</dim>
					<dim>80</dim>
					<dim>80</dim>
				</port>
			</output>
		</layer>
		<layer id="197" name="4252425623424" type="Const" version="opset1">
			<data element_type="f32" shape="" offset="2132" size="4" />
			<output>
				<port id="0" precision="FP32" />
			</output>
		</layer>
		<layer id="198" name="4253425726331" type="Const" version="opset1">
			<data element_type="f32" shape="" offset="2136" size="4" />
			<output>
				<port id="0" precision="FP32" />
			</output>
		</layer>
		<layer id="199" name="4254425824039" type="Const" version="opset1">
			<data element_type="f32" shape="" offset="2132" size="4" />
			<output>
				<port id="0" precision="FP32" />
			</output>
		</layer>
		<layer id="200" name="4255425926439" type="Const" version="opset1">
			<data element_type="f32" shape="" offset="2136" size="4" />
			<output>
				<port id="0" precision="FP32" />
			</output>
		</layer>
		<layer id="201" name="StatefulPartitionedCall/ssd_mobile_net_v2_fpn_keras_feature_extractor/model/block_3_project/Conv2D/fq_input_0" type="FakeQuantize" version="opset1">
			<data levels="256" auto_broadcast="numpy" />
			<input>
				<port id="0" precision="FP32">
					<dim>1</dim>
					<dim>144</dim>
					<dim>80</dim>
					<dim>80</dim>
				</port>
				<port id="1" precision="FP32" />
				<port id="2" precision="FP32" />
				<port id="3" precision="FP32" />
				<port id="4" precision="FP32" />
			</input>
			<output>
				<port id="5" precision="FP32">
					<dim>1</dim>
					<dim>144</dim>
					<dim>80</dim>
					<dim>80</dim>
				</port>
			</output>
		</layer>
		<layer id="202" name="StatefulPartitionedCall/ssd_mobile_net_v2_fpn_keras_feature_extractor/model/block_3_project_BN/FusedBatchNormV3/mean/Fused_Mul__copy96213267/restored_convert/quantized1566226367" type="Const" version="opset1">
			<data element_type="i8" shape="32, 144, 1, 1" offset="31244" size="4608" />
			<output>
				<port id="0" precision="I8">
					<dim>32</dim>
					<dim>144</dim>
					<dim>1</dim>
					<dim>1</dim>
				</port>
			</output>
		</layer>
		<layer id="203" name="StatefulPartitionedCall/ssd_mobile_net_v2_fpn_keras_feature_extractor/model/block_3_project_BN/FusedBatchNormV3/mean/Fused_Mul__copy96213267/restored_convert/quantized/to_f32" type="Convert" version="opset1">
			<data destination_type="f32" />
			<input>
				<port id="0" precision="I8">
					<dim>32</dim>
					<dim>144</dim>
					<dim>1</dim>
					<dim>1</dim>
				</port>
			</input>
			<output>
				<port id="1" precision="FP32">
					<dim>32</dim>
					<dim>144</dim>
					<dim>1</dim>
					<dim>1</dim>
				</port>
			</output>
		</layer>
		<layer id="204" name="StatefulPartitionedCall/ssd_mobile_net_v2_fpn_keras_feature_extractor/model/block_3_project/Conv2D/fq_weights_1/zero_point1568126478" type="Const" version="opset1">
			<data element_type="f32" shape="32, 1, 1, 1" offset="35852" size="128" />
			<output>
				<port id="0" precision="FP32">
					<dim>32</dim>
					<dim>1</dim>
					<dim>1</dim>
					<dim>1</dim>
				</port>
			</output>
		</layer>
		<layer id="205" name="StatefulPartitionedCall/ssd_mobile_net_v2_fpn_keras_feature_extractor/model/block_3_project/Conv2D/fq_weights_1/minus_zp" type="Subtract" version="opset1">
			<data auto_broadcast="numpy" />
			<input>
				<port id="0" precision="FP32">
					<dim>32</dim>
					<dim>144</dim>
					<dim>1</dim>
					<dim>1</dim>
				</port>
				<port id="1" precision="FP32">
					<dim>32</dim>
					<dim>1</dim>
					<dim>1</dim>
					<dim>1</dim>
				</port>
			</input>
			<output>
				<port id="2" precision="FP32">
					<dim>32</dim>
					<dim>144</dim>
					<dim>1</dim>
					<dim>1</dim>
				</port>
			</output>
		</layer>
		<layer id="206" name="StatefulPartitionedCall/ssd_mobile_net_v2_fpn_keras_feature_extractor/model/block_3_project/Conv2D/fq_weights_1/scale1567025236" type="Const" version="opset1">
			<data element_type="f32" shape="32, 1, 1, 1" offset="35980" size="128" />
			<output>
				<port id="0" precision="FP32">
					<dim>32</dim>
					<dim>1</dim>
					<dim>1</dim>
					<dim>1</dim>
				</port>
			</output>
		</layer>
		<layer id="207" name="StatefulPartitionedCall/ssd_mobile_net_v2_fpn_keras_feature_extractor/model/block_3_project/Conv2D/fq_weights_1/mulpiply_by_scale" type="Multiply" version="opset1">
			<data auto_broadcast="numpy" />
			<input>
				<port id="0" precision="FP32">
					<dim>32</dim>
					<dim>144</dim>
					<dim>1</dim>
					<dim>1</dim>
				</port>
				<port id="1" precision="FP32">
					<dim>32</dim>
					<dim>1</dim>
					<dim>1</dim>
					<dim>1</dim>
				</port>
			</input>
			<output>
				<port id="2" precision="FP32">
					<dim>32</dim>
					<dim>144</dim>
					<dim>1</dim>
					<dim>1</dim>
				</port>
			</output>
		</layer>
		<layer id="208" name="StatefulPartitionedCall/ssd_mobile_net_v2_fpn_keras_feature_extractor/model/block_3_project/Conv2D" type="Convolution" version="opset1">
			<data strides="1, 1" dilations="1, 1" pads_begin="0, 0" pads_end="0, 0" auto_pad="same_upper" />
			<rt_info>
				<attribute name="fused_names" version="0" value="StatefulPartitionedCall/ssd_mobile_net_v2_fpn_keras_feature_extractor/model/block_3_project/Conv2D" />
			</rt_info>
			<input>
				<port id="0" precision="FP32">
					<dim>1</dim>
					<dim>144</dim>
					<dim>80</dim>
					<dim>80</dim>
				</port>
				<port id="1" precision="FP32">
					<dim>32</dim>
					<dim>144</dim>
					<dim>1</dim>
					<dim>1</dim>
				</port>
			</input>
			<output>
				<port id="2" precision="FP32">
					<dim>1</dim>
					<dim>32</dim>
					<dim>80</dim>
					<dim>80</dim>
				</port>
			</output>
		</layer>
		<layer id="209" name="data_add_445874459296525707" type="Const" version="opset1">
			<data element_type="f16" shape="1, 32, 1, 1" offset="36108" size="64" />
			<output>
				<port id="0" precision="FP16">
					<dim>1</dim>
					<dim>32</dim>
					<dim>1</dim>
					<dim>1</dim>
				</port>
			</output>
		</layer>
		<layer id="210" name="data_add_445874459296513268/restored_convert" type="Convert" version="opset1">
			<data destination_type="f32" />
			<rt_info>
				<attribute name="decompression" version="0" />
				<attribute name="fused_names" version="0" value="data_add_4458744592" />
			</rt_info>
			<input>
				<port id="0" precision="FP16">
					<dim>1</dim>
					<dim>32</dim>
					<dim>1</dim>
					<dim>1</dim>
				</port>
			</input>
			<output>
				<port id="1" precision="FP32">
					<dim>1</dim>
					<dim>32</dim>
					<dim>1</dim>
					<dim>1</dim>
				</port>
			</output>
		</layer>
		<layer id="211" name="StatefulPartitionedCall/ssd_mobile_net_v2_fpn_keras_feature_extractor/model/block_3_project_BN/FusedBatchNormV3/variance/Fused_Add_" type="Add" version="opset1">
			<data auto_broadcast="numpy" />
			<rt_info>
				<attribute name="fused_names" version="0" value="StatefulPartitionedCall/ssd_mobile_net_v2_fpn_keras_feature_extractor/model/block_3_project_BN/FusedBatchNormV3/variance/Fused_Add_" />
			</rt_info>
			<input>
				<port id="0" precision="FP32">
					<dim>1</dim>
					<dim>32</dim>
					<dim>80</dim>
					<dim>80</dim>
				</port>
				<port id="1" precision="FP32">
					<dim>1</dim>
					<dim>32</dim>
					<dim>1</dim>
					<dim>1</dim>
				</port>
			</input>
			<output>
				<port id="2" precision="FP32" names="StatefulPartitionedCall/ssd_mobile_net_v2_fpn_keras_feature_extractor/model/block_3_project_BN/FusedBatchNormV3:0">
					<dim>1</dim>
					<dim>32</dim>
					<dim>80</dim>
					<dim>80</dim>
				</port>
			</output>
		</layer>
		<layer id="212" name="5772577625509" type="Const" version="opset1">
			<data element_type="f32" shape="" offset="36172" size="4" />
			<output>
				<port id="0" precision="FP32" />
			</output>
		</layer>
		<layer id="213" name="5773577725809" type="Const" version="opset1">
			<data element_type="f32" shape="" offset="36176" size="4" />
			<output>
				<port id="0" precision="FP32" />
			</output>
		</layer>
		<layer id="214" name="5774577824960" type="Const" version="opset1">
			<data element_type="f32" shape="" offset="36172" size="4" />
			<output>
				<port id="0" precision="FP32" />
			</output>
		</layer>
		<layer id="215" name="5775577926541" type="Const" version="opset1">
			<data element_type="f32" shape="" offset="36176" size="4" />
			<output>
				<port id="0" precision="FP32" />
			</output>
		</layer>
		<layer id="216" name="StatefulPartitionedCall/ssd_mobile_net_v2_fpn_keras_feature_extractor/model/block_4_add/add/fq_input_0" type="FakeQuantize" version="opset1">
			<data levels="256" auto_broadcast="numpy" />
			<input>
				<port id="0" precision="FP32">
					<dim>1</dim>
					<dim>32</dim>
					<dim>80</dim>
					<dim>80</dim>
				</port>
				<port id="1" precision="FP32" />
				<port id="2" precision="FP32" />
				<port id="3" precision="FP32" />
				<port id="4" precision="FP32" />
			</input>
			<output>
				<port id="5" precision="FP32">
					<dim>1</dim>
					<dim>32</dim>
					<dim>80</dim>
					<dim>80</dim>
				</port>
			</output>
		</layer>
		<layer id="217" name="StatefulPartitionedCall/ssd_mobile_net_v2_fpn_keras_feature_extractor/model/block_4_expand_BN/FusedBatchNormV3/mean/Fused_Mul__copy96813269/restored_convert/quantized1560225857" type="Const" version="opset1">
			<data element_type="i8" shape="192, 32, 1, 1" offset="36180" size="6144" />
			<output>
				<port id="0" precision="I8">
					<dim>192</dim>
					<dim>32</dim>
					<dim>1</dim>
					<dim>1</dim>
				</port>
			</output>
		</layer>
		<layer id="218" name="StatefulPartitionedCall/ssd_mobile_net_v2_fpn_keras_feature_extractor/model/block_4_expand_BN/FusedBatchNormV3/mean/Fused_Mul__copy96813269/restored_convert/quantized/to_f32" type="Convert" version="opset1">
			<data destination_type="f32" />
			<input>
				<port id="0" precision="I8">
					<dim>192</dim>
					<dim>32</dim>
					<dim>1</dim>
					<dim>1</dim>
				</port>
			</input>
			<output>
				<port id="1" precision="FP32">
					<dim>192</dim>
					<dim>32</dim>
					<dim>1</dim>
					<dim>1</dim>
				</port>
			</output>
		</layer>
		<layer id="219" name="StatefulPartitionedCall/ssd_mobile_net_v2_fpn_keras_feature_extractor/model/block_4_expand/Conv2D/fq_weights_1/zero_point1562125677" type="Const" version="opset1">
			<data element_type="f32" shape="192, 1, 1, 1" offset="42324" size="768" />
			<output>
				<port id="0" precision="FP32">
					<dim>192</dim>
					<dim>1</dim>
					<dim>1</dim>
					<dim>1</dim>
				</port>
			</output>
		</layer>
		<layer id="220" name="StatefulPartitionedCall/ssd_mobile_net_v2_fpn_keras_feature_extractor/model/block_4_expand/Conv2D/fq_weights_1/minus_zp" type="Subtract" version="opset1">
			<data auto_broadcast="numpy" />
			<input>
				<port id="0" precision="FP32">
					<dim>192</dim>
					<dim>32</dim>
					<dim>1</dim>
					<dim>1</dim>
				</port>
				<port id="1" precision="FP32">
					<dim>192</dim>
					<dim>1</dim>
					<dim>1</dim>
					<dim>1</dim>
				</port>
			</input>
			<output>
				<port id="2" precision="FP32">
					<dim>192</dim>
					<dim>32</dim>
					<dim>1</dim>
					<dim>1</dim>
				</port>
			</output>
		</layer>
		<layer id="221" name="StatefulPartitionedCall/ssd_mobile_net_v2_fpn_keras_feature_extractor/model/block_4_expand/Conv2D/fq_weights_1/scale1561023682" type="Const" version="opset1">
			<data element_type="f32" shape="192, 1, 1, 1" offset="43092" size="768" />
			<output>
				<port id="0" precision="FP32">
					<dim>192</dim>
					<dim>1</dim>
					<dim>1</dim>
					<dim>1</dim>
				</port>
			</output>
		</layer>
		<layer id="222" name="StatefulPartitionedCall/ssd_mobile_net_v2_fpn_keras_feature_extractor/model/block_4_expand/Conv2D/fq_weights_1/mulpiply_by_scale" type="Multiply" version="opset1">
			<data auto_broadcast="numpy" />
			<input>
				<port id="0" precision="FP32">
					<dim>192</dim>
					<dim>32</dim>
					<dim>1</dim>
					<dim>1</dim>
				</port>
				<port id="1" precision="FP32">
					<dim>192</dim>
					<dim>1</dim>
					<dim>1</dim>
					<dim>1</dim>
				</port>
			</input>
			<output>
				<port id="2" precision="FP32">
					<dim>192</dim>
					<dim>32</dim>
					<dim>1</dim>
					<dim>1</dim>
				</port>
			</output>
		</layer>
		<layer id="223" name="StatefulPartitionedCall/ssd_mobile_net_v2_fpn_keras_feature_extractor/model/block_4_expand/Conv2D" type="Convolution" version="opset1">
			<data strides="1, 1" dilations="1, 1" pads_begin="0, 0" pads_end="0, 0" auto_pad="same_upper" />
			<rt_info>
				<attribute name="fused_names" version="0" value="StatefulPartitionedCall/ssd_mobile_net_v2_fpn_keras_feature_extractor/model/block_4_expand/Conv2D" />
			</rt_info>
			<input>
				<port id="0" precision="FP32">
					<dim>1</dim>
					<dim>32</dim>
					<dim>80</dim>
					<dim>80</dim>
				</port>
				<port id="1" precision="FP32">
					<dim>192</dim>
					<dim>32</dim>
					<dim>1</dim>
					<dim>1</dim>
				</port>
			</input>
			<output>
				<port id="2" precision="FP32">
					<dim>1</dim>
					<dim>192</dim>
					<dim>80</dim>
					<dim>80</dim>
				</port>
			</output>
		</layer>
		<layer id="224" name="data_add_445954460097125278" type="Const" version="opset1">
			<data element_type="f16" shape="1, 192, 1, 1" offset="43860" size="384" />
			<output>
				<port id="0" precision="FP16">
					<dim>1</dim>
					<dim>192</dim>
					<dim>1</dim>
					<dim>1</dim>
				</port>
			</output>
		</layer>
		<layer id="225" name="data_add_445954460097113270/restored_convert" type="Convert" version="opset1">
			<data destination_type="f32" />
			<rt_info>
				<attribute name="decompression" version="0" />
				<attribute name="fused_names" version="0" value="data_add_4459544600" />
			</rt_info>
			<input>
				<port id="0" precision="FP16">
					<dim>1</dim>
					<dim>192</dim>
					<dim>1</dim>
					<dim>1</dim>
				</port>
			</input>
			<output>
				<port id="1" precision="FP32">
					<dim>1</dim>
					<dim>192</dim>
					<dim>1</dim>
					<dim>1</dim>
				</port>
			</output>
		</layer>
		<layer id="226" name="StatefulPartitionedCall/ssd_mobile_net_v2_fpn_keras_feature_extractor/model/block_4_expand_BN/FusedBatchNormV3/variance/Fused_Add_" type="Add" version="opset1">
			<data auto_broadcast="numpy" />
			<rt_info>
				<attribute name="fused_names" version="0" value="StatefulPartitionedCall/ssd_mobile_net_v2_fpn_keras_feature_extractor/model/block_4_expand_BN/FusedBatchNormV3/variance/Fused_Add_" />
			</rt_info>
			<input>
				<port id="0" precision="FP32">
					<dim>1</dim>
					<dim>192</dim>
					<dim>80</dim>
					<dim>80</dim>
				</port>
				<port id="1" precision="FP32">
					<dim>1</dim>
					<dim>192</dim>
					<dim>1</dim>
					<dim>1</dim>
				</port>
			</input>
			<output>
				<port id="2" precision="FP32" names="StatefulPartitionedCall/ssd_mobile_net_v2_fpn_keras_feature_extractor/model/block_4_expand_BN/FusedBatchNormV3:0">
					<dim>1</dim>
					<dim>192</dim>
					<dim>80</dim>
					<dim>80</dim>
				</port>
			</output>
		</layer>
		<layer id="227" name="StatefulPartitionedCall/ssd_mobile_net_v2_fpn_keras_feature_extractor/model/block_4_expand_relu/Relu6" type="Clamp" version="opset1">
			<data min="0" max="6" />
			<rt_info>
				<attribute name="fused_names" version="0" value="StatefulPartitionedCall/ssd_mobile_net_v2_fpn_keras_feature_extractor/model/block_4_expand_relu/Relu6" />
			</rt_info>
			<input>
				<port id="0" precision="FP32">
					<dim>1</dim>
					<dim>192</dim>
					<dim>80</dim>
					<dim>80</dim>
				</port>
			</input>
			<output>
				<port id="1" precision="FP32" names="StatefulPartitionedCall/ssd_mobile_net_v2_fpn_keras_feature_extractor/model/block_4_expand_relu/Relu6:0">
					<dim>1</dim>
					<dim>192</dim>
					<dim>80</dim>
					<dim>80</dim>
				</port>
			</output>
		</layer>
		<layer id="228" name="5352535624858" type="Const" version="opset1">
			<data element_type="f32" shape="1, 192, 1, 1" offset="44244" size="768" />
			<output>
				<port id="0" precision="FP32">
					<dim>1</dim>
					<dim>192</dim>
					<dim>1</dim>
					<dim>1</dim>
				</port>
			</output>
		</layer>
		<layer id="229" name="5353535723946" type="Const" version="opset1">
			<data element_type="f32" shape="1, 192, 1, 1" offset="45012" size="768" />
			<output>
				<port id="0" precision="FP32">
					<dim>1</dim>
					<dim>192</dim>
					<dim>1</dim>
					<dim>1</dim>
				</port>
			</output>
		</layer>
		<layer id="230" name="5354535824948" type="Const" version="opset1">
			<data element_type="f32" shape="1, 192, 1, 1" offset="44244" size="768" />
			<output>
				<port id="0" precision="FP32">
					<dim>1</dim>
					<dim>192</dim>
					<dim>1</dim>
					<dim>1</dim>
				</port>
			</output>
		</layer>
		<layer id="231" name="5355535924735" type="Const" version="opset1">
			<data element_type="f32" shape="1, 192, 1, 1" offset="45012" size="768" />
			<output>
				<port id="0" precision="FP32">
					<dim>1</dim>
					<dim>192</dim>
					<dim>1</dim>
					<dim>1</dim>
				</port>
			</output>
		</layer>
		<layer id="232" name="StatefulPartitionedCall/ssd_mobile_net_v2_fpn_keras_feature_extractor/model/block_4_depthwise/depthwise/fq_input_0" type="FakeQuantize" version="opset1">
			<data levels="256" auto_broadcast="numpy" />
			<input>
				<port id="0" precision="FP32">
					<dim>1</dim>
					<dim>192</dim>
					<dim>80</dim>
					<dim>80</dim>
				</port>
				<port id="1" precision="FP32">
					<dim>1</dim>
					<dim>192</dim>
					<dim>1</dim>
					<dim>1</dim>
				</port>
				<port id="2" precision="FP32">
					<dim>1</dim>
					<dim>192</dim>
					<dim>1</dim>
					<dim>1</dim>
				</port>
				<port id="3" precision="FP32">
					<dim>1</dim>
					<dim>192</dim>
					<dim>1</dim>
					<dim>1</dim>
				</port>
				<port id="4" precision="FP32">
					<dim>1</dim>
					<dim>192</dim>
					<dim>1</dim>
					<dim>1</dim>
				</port>
			</input>
			<output>
				<port id="5" precision="FP32">
					<dim>1</dim>
					<dim>192</dim>
					<dim>80</dim>
					<dim>80</dim>
				</port>
			</output>
		</layer>
		<layer id="233" name="StatefulPartitionedCall/ssd_mobile_net_v2_fpn_keras_feature_extractor/model/block_4_depthwise_BN/FusedBatchNormV3/mean/Fused_Mul__copy97513271/restored_convert/quantized1596226706" type="Const" version="opset1">
			<data element_type="i8" shape="192, 1, 3, 3" offset="45780" size="1728" />
			<output>
				<port id="0" precision="I8">
					<dim>192</dim>
					<dim>1</dim>
					<dim>3</dim>
					<dim>3</dim>
				</port>
			</output>
		</layer>
		<layer id="234" name="StatefulPartitionedCall/ssd_mobile_net_v2_fpn_keras_feature_extractor/model/block_4_depthwise_BN/FusedBatchNormV3/mean/Fused_Mul__copy97513271/restored_convert/quantized/to_f32" type="Convert" version="opset1">
			<data destination_type="f32" />
			<input>
				<port id="0" precision="I8">
					<dim>192</dim>
					<dim>1</dim>
					<dim>3</dim>
					<dim>3</dim>
				</port>
			</input>
			<output>
				<port id="1" precision="FP32">
					<dim>192</dim>
					<dim>1</dim>
					<dim>3</dim>
					<dim>3</dim>
				</port>
			</output>
		</layer>
		<layer id="235" name="StatefulPartitionedCall/ssd_mobile_net_v2_fpn_keras_feature_extractor/model/block_4_depthwise/depthwise/fq_weights_1/zero_point1598125566" type="Const" version="opset1">
			<data element_type="f32" shape="192, 1, 1, 1" offset="47508" size="768" />
			<output>
				<port id="0" precision="FP32">
					<dim>192</dim>
					<dim>1</dim>
					<dim>1</dim>
					<dim>1</dim>
				</port>
			</output>
		</layer>
		<layer id="236" name="StatefulPartitionedCall/ssd_mobile_net_v2_fpn_keras_feature_extractor/model/block_4_depthwise/depthwise/fq_weights_1/minus_zp" type="Subtract" version="opset1">
			<data auto_broadcast="numpy" />
			<input>
				<port id="0" precision="FP32">
					<dim>192</dim>
					<dim>1</dim>
					<dim>3</dim>
					<dim>3</dim>
				</port>
				<port id="1" precision="FP32">
					<dim>192</dim>
					<dim>1</dim>
					<dim>1</dim>
					<dim>1</dim>
				</port>
			</input>
			<output>
				<port id="2" precision="FP32">
					<dim>192</dim>
					<dim>1</dim>
					<dim>3</dim>
					<dim>3</dim>
				</port>
			</output>
		</layer>
		<layer id="237" name="StatefulPartitionedCall/ssd_mobile_net_v2_fpn_keras_feature_extractor/model/block_4_depthwise/depthwise/fq_weights_1/scale1597026622" type="Const" version="opset1">
			<data element_type="f32" shape="192, 1, 1, 1" offset="48276" size="768" />
			<output>
				<port id="0" precision="FP32">
					<dim>192</dim>
					<dim>1</dim>
					<dim>1</dim>
					<dim>1</dim>
				</port>
			</output>
		</layer>
		<layer id="238" name="StatefulPartitionedCall/ssd_mobile_net_v2_fpn_keras_feature_extractor/model/block_4_depthwise/depthwise/fq_weights_1/mulpiply_by_scale" type="Multiply" version="opset1">
			<data auto_broadcast="numpy" />
			<input>
				<port id="0" precision="FP32">
					<dim>192</dim>
					<dim>1</dim>
					<dim>3</dim>
					<dim>3</dim>
				</port>
				<port id="1" precision="FP32">
					<dim>192</dim>
					<dim>1</dim>
					<dim>1</dim>
					<dim>1</dim>
				</port>
			</input>
			<output>
				<port id="2" precision="FP32">
					<dim>192</dim>
					<dim>1</dim>
					<dim>3</dim>
					<dim>3</dim>
				</port>
			</output>
		</layer>
		<layer id="239" name="20925/value2092726187" type="Const" version="opset1">
			<data element_type="i64" shape="5" offset="49044" size="40" />
			<output>
				<port id="0" precision="I64">
					<dim>5</dim>
				</port>
			</output>
		</layer>
		<layer id="240" name="20925" type="Reshape" version="opset1">
			<data special_zero="true" />
			<input>
				<port id="0" precision="FP32">
					<dim>192</dim>
					<dim>1</dim>
					<dim>3</dim>
					<dim>3</dim>
				</port>
				<port id="1" precision="I64">
					<dim>5</dim>
				</port>
			</input>
			<output>
				<port id="2" precision="FP32">
					<dim>192</dim>
					<dim>1</dim>
					<dim>1</dim>
					<dim>3</dim>
					<dim>3</dim>
				</port>
			</output>
		</layer>
		<layer id="241" name="StatefulPartitionedCall/ssd_mobile_net_v2_fpn_keras_feature_extractor/model/block_4_depthwise/depthwise" type="GroupConvolution" version="opset1">
			<data strides="1, 1" pads_begin="0, 0" pads_end="0, 0" dilations="1, 1" auto_pad="same_upper" />
			<rt_info>
				<attribute name="fused_names" version="0" value="StatefulPartitionedCall/ssd_mobile_net_v2_fpn_keras_feature_extractor/model/block_4_depthwise/depthwise" />
			</rt_info>
			<input>
				<port id="0" precision="FP32">
					<dim>1</dim>
					<dim>192</dim>
					<dim>80</dim>
					<dim>80</dim>
				</port>
				<port id="1" precision="FP32">
					<dim>192</dim>
					<dim>1</dim>
					<dim>1</dim>
					<dim>3</dim>
					<dim>3</dim>
				</port>
			</input>
			<output>
				<port id="2" precision="FP32">
					<dim>1</dim>
					<dim>192</dim>
					<dim>80</dim>
					<dim>80</dim>
				</port>
			</output>
		</layer>
		<layer id="242" name="data_add_446034460897823415" type="Const" version="opset1">
			<data element_type="f16" shape="1, 192, 1, 1" offset="49084" size="384" />
			<output>
				<port id="0" precision="FP16">
					<dim>1</dim>
					<dim>192</dim>
					<dim>1</dim>
					<dim>1</dim>
				</port>
			</output>
		</layer>
		<layer id="243" name="data_add_446034460897813272/restored_convert" type="Convert" version="opset1">
			<data destination_type="f32" />
			<rt_info>
				<attribute name="decompression" version="0" />
				<attribute name="fused_names" version="0" value="data_add_4460344608" />
			</rt_info>
			<input>
				<port id="0" precision="FP16">
					<dim>1</dim>
					<dim>192</dim>
					<dim>1</dim>
					<dim>1</dim>
				</port>
			</input>
			<output>
				<port id="1" precision="FP32">
					<dim>1</dim>
					<dim>192</dim>
					<dim>1</dim>
					<dim>1</dim>
				</port>
			</output>
		</layer>
		<layer id="244" name="StatefulPartitionedCall/ssd_mobile_net_v2_fpn_keras_feature_extractor/model/block_4_depthwise_BN/FusedBatchNormV3/variance/Fused_Add_" type="Add" version="opset1">
			<data auto_broadcast="numpy" />
			<rt_info>
				<attribute name="fused_names" version="0" value="StatefulPartitionedCall/ssd_mobile_net_v2_fpn_keras_feature_extractor/model/block_4_depthwise_BN/FusedBatchNormV3/variance/Fused_Add_" />
			</rt_info>
			<input>
				<port id="0" precision="FP32">
					<dim>1</dim>
					<dim>192</dim>
					<dim>80</dim>
					<dim>80</dim>
				</port>
				<port id="1" precision="FP32">
					<dim>1</dim>
					<dim>192</dim>
					<dim>1</dim>
					<dim>1</dim>
				</port>
			</input>
			<output>
				<port id="2" precision="FP32" names="StatefulPartitionedCall/ssd_mobile_net_v2_fpn_keras_feature_extractor/model/block_4_depthwise_BN/FusedBatchNormV3:0">
					<dim>1</dim>
					<dim>192</dim>
					<dim>80</dim>
					<dim>80</dim>
				</port>
			</output>
		</layer>
		<layer id="245" name="StatefulPartitionedCall/ssd_mobile_net_v2_fpn_keras_feature_extractor/model/block_4_depthwise_relu/Relu6" type="Clamp" version="opset1">
			<data min="0" max="6" />
			<rt_info>
				<attribute name="fused_names" version="0" value="StatefulPartitionedCall/ssd_mobile_net_v2_fpn_keras_feature_extractor/model/block_4_depthwise_relu/Relu6" />
			</rt_info>
			<input>
				<port id="0" precision="FP32">
					<dim>1</dim>
					<dim>192</dim>
					<dim>80</dim>
					<dim>80</dim>
				</port>
			</input>
			<output>
				<port id="1" precision="FP32" names="StatefulPartitionedCall/ssd_mobile_net_v2_fpn_keras_feature_extractor/model/block_4_depthwise_relu/Relu6:0">
					<dim>1</dim>
					<dim>192</dim>
					<dim>80</dim>
					<dim>80</dim>
				</port>
			</output>
		</layer>
		<layer id="246" name="5152515624813" type="Const" version="opset1">
			<data element_type="f32" shape="" offset="2132" size="4" />
			<output>
				<port id="0" precision="FP32" />
			</output>
		</layer>
		<layer id="247" name="5153515723955" type="Const" version="opset1">
			<data element_type="f32" shape="" offset="2136" size="4" />
			<output>
				<port id="0" precision="FP32" />
			</output>
		</layer>
		<layer id="248" name="5154515825374" type="Const" version="opset1">
			<data element_type="f32" shape="" offset="2132" size="4" />
			<output>
				<port id="0" precision="FP32" />
			</output>
		</layer>
		<layer id="249" name="5155515926673" type="Const" version="opset1">
			<data element_type="f32" shape="" offset="2136" size="4" />
			<output>
				<port id="0" precision="FP32" />
			</output>
		</layer>
		<layer id="250" name="StatefulPartitionedCall/ssd_mobile_net_v2_fpn_keras_feature_extractor/model/block_4_project/Conv2D/fq_input_0" type="FakeQuantize" version="opset1">
			<data levels="256" auto_broadcast="numpy" />
			<input>
				<port id="0" precision="FP32">
					<dim>1</dim>
					<dim>192</dim>
					<dim>80</dim>
					<dim>80</dim>
				</port>
				<port id="1" precision="FP32" />
				<port id="2" precision="FP32" />
				<port id="3" precision="FP32" />
				<port id="4" precision="FP32" />
			</input>
			<output>
				<port id="5" precision="FP32">
					<dim>1</dim>
					<dim>192</dim>
					<dim>80</dim>
					<dim>80</dim>
				</port>
			</output>
		</layer>
		<layer id="251" name="StatefulPartitionedCall/ssd_mobile_net_v2_fpn_keras_feature_extractor/model/block_4_project_BN/FusedBatchNormV3/mean/Fused_Mul__copy98213273/restored_convert/quantized1740223577" type="Const" version="opset1">
			<data element_type="i8" shape="32, 192, 1, 1" offset="49468" size="6144" />
			<output>
				<port id="0" precision="I8">
					<dim>32</dim>
					<dim>192</dim>
					<dim>1</dim>
					<dim>1</dim>
				</port>
			</output>
		</layer>
		<layer id="252" name="StatefulPartitionedCall/ssd_mobile_net_v2_fpn_keras_feature_extractor/model/block_4_project_BN/FusedBatchNormV3/mean/Fused_Mul__copy98213273/restored_convert/quantized/to_f32" type="Convert" version="opset1">
			<data destination_type="f32" />
			<input>
				<port id="0" precision="I8">
					<dim>32</dim>
					<dim>192</dim>
					<dim>1</dim>
					<dim>1</dim>
				</port>
			</input>
			<output>
				<port id="1" precision="FP32">
					<dim>32</dim>
					<dim>192</dim>
					<dim>1</dim>
					<dim>1</dim>
				</port>
			</output>
		</layer>
		<layer id="253" name="StatefulPartitionedCall/ssd_mobile_net_v2_fpn_keras_feature_extractor/model/block_4_project/Conv2D/fq_weights_1/zero_point1742126664" type="Const" version="opset1">
			<data element_type="f32" shape="32, 1, 1, 1" offset="55612" size="128" />
			<output>
				<port id="0" precision="FP32">
					<dim>32</dim>
					<dim>1</dim>
					<dim>1</dim>
					<dim>1</dim>
				</port>
			</output>
		</layer>
		<layer id="254" name="StatefulPartitionedCall/ssd_mobile_net_v2_fpn_keras_feature_extractor/model/block_4_project/Conv2D/fq_weights_1/minus_zp" type="Subtract" version="opset1">
			<data auto_broadcast="numpy" />
			<input>
				<port id="0" precision="FP32">
					<dim>32</dim>
					<dim>192</dim>
					<dim>1</dim>
					<dim>1</dim>
				</port>
				<port id="1" precision="FP32">
					<dim>32</dim>
					<dim>1</dim>
					<dim>1</dim>
					<dim>1</dim>
				</port>
			</input>
			<output>
				<port id="2" precision="FP32">
					<dim>32</dim>
					<dim>192</dim>
					<dim>1</dim>
					<dim>1</dim>
				</port>
			</output>
		</layer>
		<layer id="255" name="StatefulPartitionedCall/ssd_mobile_net_v2_fpn_keras_feature_extractor/model/block_4_project/Conv2D/fq_weights_1/scale1741025731" type="Const" version="opset1">
			<data element_type="f32" shape="32, 1, 1, 1" offset="55740" size="128" />
			<output>
				<port id="0" precision="FP32">
					<dim>32</dim>
					<dim>1</dim>
					<dim>1</dim>
					<dim>1</dim>
				</port>
			</output>
		</layer>
		<layer id="256" name="StatefulPartitionedCall/ssd_mobile_net_v2_fpn_keras_feature_extractor/model/block_4_project/Conv2D/fq_weights_1/mulpiply_by_scale" type="Multiply" version="opset1">
			<data auto_broadcast="numpy" />
			<input>
				<port id="0" precision="FP32">
					<dim>32</dim>
					<dim>192</dim>
					<dim>1</dim>
					<dim>1</dim>
				</port>
				<port id="1" precision="FP32">
					<dim>32</dim>
					<dim>1</dim>
					<dim>1</dim>
					<dim>1</dim>
				</port>
			</input>
			<output>
				<port id="2" precision="FP32">
					<dim>32</dim>
					<dim>192</dim>
					<dim>1</dim>
					<dim>1</dim>
				</port>
			</output>
		</layer>
		<layer id="257" name="StatefulPartitionedCall/ssd_mobile_net_v2_fpn_keras_feature_extractor/model/block_4_project/Conv2D" type="Convolution" version="opset1">
			<data strides="1, 1" dilations="1, 1" pads_begin="0, 0" pads_end="0, 0" auto_pad="same_upper" />
			<rt_info>
				<attribute name="fused_names" version="0" value="StatefulPartitionedCall/ssd_mobile_net_v2_fpn_keras_feature_extractor/model/block_4_project/Conv2D" />
			</rt_info>
			<input>
				<port id="0" precision="FP32">
					<dim>1</dim>
					<dim>192</dim>
					<dim>80</dim>
					<dim>80</dim>
				</port>
				<port id="1" precision="FP32">
					<dim>32</dim>
					<dim>192</dim>
					<dim>1</dim>
					<dim>1</dim>
				</port>
			</input>
			<output>
				<port id="2" precision="FP32">
					<dim>1</dim>
					<dim>32</dim>
					<dim>80</dim>
					<dim>80</dim>
				</port>
			</output>
		</layer>
		<layer id="258" name="data_add_446114461698526550" type="Const" version="opset1">
			<data element_type="f16" shape="1, 32, 1, 1" offset="55868" size="64" />
			<output>
				<port id="0" precision="FP16">
					<dim>1</dim>
					<dim>32</dim>
					<dim>1</dim>
					<dim>1</dim>
				</port>
			</output>
		</layer>
		<layer id="259" name="data_add_446114461698513274/restored_convert" type="Convert" version="opset1">
			<data destination_type="f32" />
			<rt_info>
				<attribute name="decompression" version="0" />
				<attribute name="fused_names" version="0" value="data_add_4461144616" />
			</rt_info>
			<input>
				<port id="0" precision="FP16">
					<dim>1</dim>
					<dim>32</dim>
					<dim>1</dim>
					<dim>1</dim>
				</port>
			</input>
			<output>
				<port id="1" precision="FP32">
					<dim>1</dim>
					<dim>32</dim>
					<dim>1</dim>
					<dim>1</dim>
				</port>
			</output>
		</layer>
		<layer id="260" name="StatefulPartitionedCall/ssd_mobile_net_v2_fpn_keras_feature_extractor/model/block_4_project_BN/FusedBatchNormV3/variance/Fused_Add_" type="Add" version="opset1">
			<data auto_broadcast="numpy" />
			<rt_info>
				<attribute name="fused_names" version="0" value="StatefulPartitionedCall/ssd_mobile_net_v2_fpn_keras_feature_extractor/model/block_4_project_BN/FusedBatchNormV3/variance/Fused_Add_" />
			</rt_info>
			<input>
				<port id="0" precision="FP32">
					<dim>1</dim>
					<dim>32</dim>
					<dim>80</dim>
					<dim>80</dim>
				</port>
				<port id="1" precision="FP32">
					<dim>1</dim>
					<dim>32</dim>
					<dim>1</dim>
					<dim>1</dim>
				</port>
			</input>
			<output>
				<port id="2" precision="FP32" names="StatefulPartitionedCall/ssd_mobile_net_v2_fpn_keras_feature_extractor/model/block_4_project_BN/FusedBatchNormV3:0">
					<dim>1</dim>
					<dim>32</dim>
					<dim>80</dim>
					<dim>80</dim>
				</port>
			</output>
		</layer>
		<layer id="261" name="5782578625059" type="Const" version="opset1">
			<data element_type="f32" shape="" offset="55932" size="4" />
			<output>
				<port id="0" precision="FP32" />
			</output>
		</layer>
		<layer id="262" name="5783578725368" type="Const" version="opset1">
			<data element_type="f32" shape="" offset="55936" size="4" />
			<output>
				<port id="0" precision="FP32" />
			</output>
		</layer>
		<layer id="263" name="5784578825035" type="Const" version="opset1">
			<data element_type="f32" shape="" offset="55932" size="4" />
			<output>
				<port id="0" precision="FP32" />
			</output>
		</layer>
		<layer id="264" name="5785578925017" type="Const" version="opset1">
			<data element_type="f32" shape="" offset="55936" size="4" />
			<output>
				<port id="0" precision="FP32" />
			</output>
		</layer>
		<layer id="265" name="StatefulPartitionedCall/ssd_mobile_net_v2_fpn_keras_feature_extractor/model/block_4_add/add/fq_input_1" type="FakeQuantize" version="opset1">
			<data levels="256" auto_broadcast="numpy" />
			<input>
				<port id="0" precision="FP32">
					<dim>1</dim>
					<dim>32</dim>
					<dim>80</dim>
					<dim>80</dim>
				</port>
				<port id="1" precision="FP32" />
				<port id="2" precision="FP32" />
				<port id="3" precision="FP32" />
				<port id="4" precision="FP32" />
			</input>
			<output>
				<port id="5" precision="FP32">
					<dim>1</dim>
					<dim>32</dim>
					<dim>80</dim>
					<dim>80</dim>
				</port>
			</output>
		</layer>
		<layer id="266" name="StatefulPartitionedCall/ssd_mobile_net_v2_fpn_keras_feature_extractor/model/block_4_add/add" type="Add" version="opset1">
			<data auto_broadcast="numpy" />
			<rt_info>
				<attribute name="fused_names" version="0" value="StatefulPartitionedCall/ssd_mobile_net_v2_fpn_keras_feature_extractor/model/block_4_add/add" />
			</rt_info>
			<input>
				<port id="0" precision="FP32">
					<dim>1</dim>
					<dim>32</dim>
					<dim>80</dim>
					<dim>80</dim>
				</port>
				<port id="1" precision="FP32">
					<dim>1</dim>
					<dim>32</dim>
					<dim>80</dim>
					<dim>80</dim>
				</port>
			</input>
			<output>
				<port id="2" precision="FP32" names="StatefulPartitionedCall/ssd_mobile_net_v2_fpn_keras_feature_extractor/model/block_4_add/add:0">
					<dim>1</dim>
					<dim>32</dim>
					<dim>80</dim>
					<dim>80</dim>
				</port>
			</output>
		</layer>
		<layer id="267" name="4652465624423" type="Const" version="opset1">
			<data element_type="f32" shape="" offset="55940" size="4" />
			<output>
				<port id="0" precision="FP32" />
			</output>
		</layer>
		<layer id="268" name="4653465725122" type="Const" version="opset1">
			<data element_type="f32" shape="" offset="55944" size="4" />
			<output>
				<port id="0" precision="FP32" />
			</output>
		</layer>
		<layer id="269" name="4654465825425" type="Const" version="opset1">
			<data element_type="f32" shape="" offset="55940" size="4" />
			<output>
				<port id="0" precision="FP32" />
			</output>
		</layer>
		<layer id="270" name="4655465925359" type="Const" version="opset1">
			<data element_type="f32" shape="" offset="55944" size="4" />
			<output>
				<port id="0" precision="FP32" />
			</output>
		</layer>
		<layer id="271" name="StatefulPartitionedCall/ssd_mobile_net_v2_fpn_keras_feature_extractor/model/block_5_add/add/fq_input_0" type="FakeQuantize" version="opset1">
			<data levels="256" auto_broadcast="numpy" />
			<input>
				<port id="0" precision="FP32">
					<dim>1</dim>
					<dim>32</dim>
					<dim>80</dim>
					<dim>80</dim>
				</port>
				<port id="1" precision="FP32" />
				<port id="2" precision="FP32" />
				<port id="3" precision="FP32" />
				<port id="4" precision="FP32" />
			</input>
			<output>
				<port id="5" precision="FP32">
					<dim>1</dim>
					<dim>32</dim>
					<dim>80</dim>
					<dim>80</dim>
				</port>
			</output>
		</layer>
		<layer id="272" name="StatefulPartitionedCall/ssd_mobile_net_v2_fpn_keras_feature_extractor/model/block_5_expand_BN/FusedBatchNormV3/mean/Fused_Mul__copy98913275/restored_convert/quantized1680223418" type="Const" version="opset1">
			<data element_type="i8" shape="192, 32, 1, 1" offset="55948" size="6144" />
			<output>
				<port id="0" precision="I8">
					<dim>192</dim>
					<dim>32</dim>
					<dim>1</dim>
					<dim>1</dim>
				</port>
			</output>
		</layer>
		<layer id="273" name="StatefulPartitionedCall/ssd_mobile_net_v2_fpn_keras_feature_extractor/model/block_5_expand_BN/FusedBatchNormV3/mean/Fused_Mul__copy98913275/restored_convert/quantized/to_f32" type="Convert" version="opset1">
			<data destination_type="f32" />
			<input>
				<port id="0" precision="I8">
					<dim>192</dim>
					<dim>32</dim>
					<dim>1</dim>
					<dim>1</dim>
				</port>
			</input>
			<output>
				<port id="1" precision="FP32">
					<dim>192</dim>
					<dim>32</dim>
					<dim>1</dim>
					<dim>1</dim>
				</port>
			</output>
		</layer>
		<layer id="274" name="StatefulPartitionedCall/ssd_mobile_net_v2_fpn_keras_feature_extractor/model/block_5_expand/Conv2D/fq_weights_1/zero_point1682125506" type="Const" version="opset1">
			<data element_type="f32" shape="192, 1, 1, 1" offset="62092" size="768" />
			<output>
				<port id="0" precision="FP32">
					<dim>192</dim>
					<dim>1</dim>
					<dim>1</dim>
					<dim>1</dim>
				</port>
			</output>
		</layer>
		<layer id="275" name="StatefulPartitionedCall/ssd_mobile_net_v2_fpn_keras_feature_extractor/model/block_5_expand/Conv2D/fq_weights_1/minus_zp" type="Subtract" version="opset1">
			<data auto_broadcast="numpy" />
			<input>
				<port id="0" precision="FP32">
					<dim>192</dim>
					<dim>32</dim>
					<dim>1</dim>
					<dim>1</dim>
				</port>
				<port id="1" precision="FP32">
					<dim>192</dim>
					<dim>1</dim>
					<dim>1</dim>
					<dim>1</dim>
				</port>
			</input>
			<output>
				<port id="2" precision="FP32">
					<dim>192</dim>
					<dim>32</dim>
					<dim>1</dim>
					<dim>1</dim>
				</port>
			</output>
		</layer>
		<layer id="276" name="StatefulPartitionedCall/ssd_mobile_net_v2_fpn_keras_feature_extractor/model/block_5_expand/Conv2D/fq_weights_1/scale1681026172" type="Const" version="opset1">
			<data element_type="f32" shape="192, 1, 1, 1" offset="62860" size="768" />
			<output>
				<port id="0" precision="FP32">
					<dim>192</dim>
					<dim>1</dim>
					<dim>1</dim>
					<dim>1</dim>
				</port>
			</output>
		</layer>
		<layer id="277" name="StatefulPartitionedCall/ssd_mobile_net_v2_fpn_keras_feature_extractor/model/block_5_expand/Conv2D/fq_weights_1/mulpiply_by_scale" type="Multiply" version="opset1">
			<data auto_broadcast="numpy" />
			<input>
				<port id="0" precision="FP32">
					<dim>192</dim>
					<dim>32</dim>
					<dim>1</dim>
					<dim>1</dim>
				</port>
				<port id="1" precision="FP32">
					<dim>192</dim>
					<dim>1</dim>
					<dim>1</dim>
					<dim>1</dim>
				</port>
			</input>
			<output>
				<port id="2" precision="FP32">
					<dim>192</dim>
					<dim>32</dim>
					<dim>1</dim>
					<dim>1</dim>
				</port>
			</output>
		</layer>
		<layer id="278" name="StatefulPartitionedCall/ssd_mobile_net_v2_fpn_keras_feature_extractor/model/block_5_expand/Conv2D" type="Convolution" version="opset1">
			<data strides="1, 1" dilations="1, 1" pads_begin="0, 0" pads_end="0, 0" auto_pad="same_upper" />
			<rt_info>
				<attribute name="fused_names" version="0" value="StatefulPartitionedCall/ssd_mobile_net_v2_fpn_keras_feature_extractor/model/block_5_expand/Conv2D" />
			</rt_info>
			<input>
				<port id="0" precision="FP32">
					<dim>1</dim>
					<dim>32</dim>
					<dim>80</dim>
					<dim>80</dim>
				</port>
				<port id="1" precision="FP32">
					<dim>192</dim>
					<dim>32</dim>
					<dim>1</dim>
					<dim>1</dim>
				</port>
			</input>
			<output>
				<port id="2" precision="FP32">
					<dim>1</dim>
					<dim>192</dim>
					<dim>80</dim>
					<dim>80</dim>
				</port>
			</output>
		</layer>
		<layer id="279" name="data_add_446194462499225554" type="Const" version="opset1">
			<data element_type="f16" shape="1, 192, 1, 1" offset="63628" size="384" />
			<output>
				<port id="0" precision="FP16">
					<dim>1</dim>
					<dim>192</dim>
					<dim>1</dim>
					<dim>1</dim>
				</port>
			</output>
		</layer>
		<layer id="280" name="data_add_446194462499213276/restored_convert" type="Convert" version="opset1">
			<data destination_type="f32" />
			<rt_info>
				<attribute name="decompression" version="0" />
				<attribute name="fused_names" version="0" value="data_add_4461944624" />
			</rt_info>
			<input>
				<port id="0" precision="FP16">
					<dim>1</dim>
					<dim>192</dim>
					<dim>1</dim>
					<dim>1</dim>
				</port>
			</input>
			<output>
				<port id="1" precision="FP32">
					<dim>1</dim>
					<dim>192</dim>
					<dim>1</dim>
					<dim>1</dim>
				</port>
			</output>
		</layer>
		<layer id="281" name="StatefulPartitionedCall/ssd_mobile_net_v2_fpn_keras_feature_extractor/model/block_5_expand_BN/FusedBatchNormV3/variance/Fused_Add_" type="Add" version="opset1">
			<data auto_broadcast="numpy" />
			<rt_info>
				<attribute name="fused_names" version="0" value="StatefulPartitionedCall/ssd_mobile_net_v2_fpn_keras_feature_extractor/model/block_5_expand_BN/FusedBatchNormV3/variance/Fused_Add_" />
			</rt_info>
			<input>
				<port id="0" precision="FP32">
					<dim>1</dim>
					<dim>192</dim>
					<dim>80</dim>
					<dim>80</dim>
				</port>
				<port id="1" precision="FP32">
					<dim>1</dim>
					<dim>192</dim>
					<dim>1</dim>
					<dim>1</dim>
				</port>
			</input>
			<output>
				<port id="2" precision="FP32" names="StatefulPartitionedCall/ssd_mobile_net_v2_fpn_keras_feature_extractor/model/block_5_expand_BN/FusedBatchNormV3:0">
					<dim>1</dim>
					<dim>192</dim>
					<dim>80</dim>
					<dim>80</dim>
				</port>
			</output>
		</layer>
		<layer id="282" name="StatefulPartitionedCall/ssd_mobile_net_v2_fpn_keras_feature_extractor/model/block_5_expand_relu/Relu6" type="Clamp" version="opset1">
			<data min="0" max="6" />
			<rt_info>
				<attribute name="fused_names" version="0" value="StatefulPartitionedCall/ssd_mobile_net_v2_fpn_keras_feature_extractor/model/block_5_expand_relu/Relu6" />
			</rt_info>
			<input>
				<port id="0" precision="FP32">
					<dim>1</dim>
					<dim>192</dim>
					<dim>80</dim>
					<dim>80</dim>
				</port>
			</input>
			<output>
				<port id="1" precision="FP32" names="StatefulPartitionedCall/ssd_mobile_net_v2_fpn_keras_feature_extractor/model/block_5_expand_relu/Relu6:0">
					<dim>1</dim>
					<dim>192</dim>
					<dim>80</dim>
					<dim>80</dim>
				</port>
			</output>
		</layer>
		<layer id="283" name="3972397626574" type="Const" version="opset1">
			<data element_type="f32" shape="1, 192, 1, 1" offset="44244" size="768" />
			<output>
				<port id="0" precision="FP32">
					<dim>1</dim>
					<dim>192</dim>
					<dim>1</dim>
…
		<edge from-layer="1475" from-port="0" to-layer="1476" to-port="1" />
		<edge from-layer="1476" from-port="2" to-layer="1477" to-port="1" />
		<edge from-layer="1477" from-port="2" to-layer="1479" to-port="0" />
		<edge from-layer="1478" from-port="0" to-layer="1479" to-port="1" />
		<edge from-layer="1479" from-port="2" to-layer="1484" to-port="0" />
		<edge from-layer="1480" from-port="0" to-layer="1484" to-port="1" />
		<edge from-layer="1481" from-port="0" to-layer="1484" to-port="2" />
		<edge from-layer="1482" from-port="0" to-layer="1484" to-port="3" />
		<edge from-layer="1483" from-port="0" to-layer="1484" to-port="4" />
		<edge from-layer="1484" from-port="5" to-layer="1491" to-port="0" />
		<edge from-layer="1485" from-port="0" to-layer="1486" to-port="0" />
		<edge from-layer="1486" from-port="1" to-layer="1488" to-port="0" />
		<edge from-layer="1487" from-port="0" to-layer="1488" to-port="1" />
		<edge from-layer="1488" from-port="2" to-layer="1490" to-port="0" />
		<edge from-layer="1489" from-port="0" to-layer="1490" to-port="1" />
		<edge from-layer="1490" from-port="2" to-layer="1491" to-port="1" />
		<edge from-layer="1491" from-port="2" to-layer="1494" to-port="0" />
		<edge from-layer="1492" from-port="0" to-layer="1493" to-port="0" />
		<edge from-layer="1493" from-port="1" to-layer="1494" to-port="1" />
		<edge from-layer="1494" from-port="2" to-layer="1495" to-port="0" />
		<edge from-layer="1495" from-port="1" to-layer="1500" to-port="0" />
		<edge from-layer="1496" from-port="0" to-layer="1500" to-port="1" />
		<edge from-layer="1497" from-port="0" to-layer="1500" to-port="2" />
		<edge from-layer="1498" from-port="0" to-layer="1500" to-port="3" />
		<edge from-layer="1499" from-port="0" to-layer="1500" to-port="4" />
		<edge from-layer="1500" from-port="5" to-layer="1509" to-port="0" />
		<edge from-layer="1501" from-port="0" to-layer="1502" to-port="0" />
		<edge from-layer="1502" from-port="1" to-layer="1504" to-port="0" />
		<edge from-layer="1503" from-port="0" to-layer="1504" to-port="1" />
		<edge from-layer="1504" from-port="2" to-layer="1506" to-port="0" />
		<edge from-layer="1505" from-port="0" to-layer="1506" to-port="1" />
		<edge from-layer="1506" from-port="2" to-layer="1508" to-port="0" />
		<edge from-layer="1507" from-port="0" to-layer="1508" to-port="1" />
		<edge from-layer="1508" from-port="2" to-layer="1509" to-port="1" />
		<edge from-layer="1509" from-port="2" to-layer="1511" to-port="0" />
		<edge from-layer="1510" from-port="0" to-layer="1511" to-port="1" />
		<edge from-layer="1511" from-port="2" to-layer="1516" to-port="0" />
		<edge from-layer="1512" from-port="0" to-layer="1516" to-port="1" />
		<edge from-layer="1513" from-port="0" to-layer="1516" to-port="2" />
		<edge from-layer="1514" from-port="0" to-layer="1516" to-port="3" />
		<edge from-layer="1515" from-port="0" to-layer="1516" to-port="4" />
		<edge from-layer="1516" from-port="5" to-layer="1523" to-port="0" />
		<edge from-layer="1517" from-port="0" to-layer="1518" to-port="0" />
		<edge from-layer="1518" from-port="1" to-layer="1520" to-port="0" />
		<edge from-layer="1519" from-port="0" to-layer="1520" to-port="1" />
		<edge from-layer="1520" from-port="2" to-layer="1522" to-port="0" />
		<edge from-layer="1521" from-port="0" to-layer="1522" to-port="1" />
		<edge from-layer="1522" from-port="2" to-layer="1523" to-port="1" />
		<edge from-layer="1523" from-port="2" to-layer="1526" to-port="0" />
		<edge from-layer="1524" from-port="0" to-layer="1525" to-port="0" />
		<edge from-layer="1525" from-port="1" to-layer="1526" to-port="1" />
		<edge from-layer="1526" from-port="2" to-layer="1527" to-port="0" />
		<edge from-layer="1527" from-port="1" to-layer="1532" to-port="0" />
		<edge from-layer="1528" from-port="0" to-layer="1532" to-port="1" />
		<edge from-layer="1529" from-port="0" to-layer="1532" to-port="2" />
		<edge from-layer="1530" from-port="0" to-layer="1532" to-port="3" />
		<edge from-layer="1531" from-port="0" to-layer="1532" to-port="4" />
		<edge from-layer="1532" from-port="5" to-layer="1541" to-port="0" />
		<edge from-layer="1533" from-port="0" to-layer="1534" to-port="0" />
		<edge from-layer="1534" from-port="1" to-layer="1536" to-port="0" />
		<edge from-layer="1535" from-port="0" to-layer="1536" to-port="1" />
		<edge from-layer="1536" from-port="2" to-layer="1538" to-port="0" />
		<edge from-layer="1537" from-port="0" to-layer="1538" to-port="1" />
		<edge from-layer="1538" from-port="2" to-layer="1540" to-port="0" />
		<edge from-layer="1539" from-port="0" to-layer="1540" to-port="1" />
		<edge from-layer="1540" from-port="2" to-layer="1541" to-port="1" />
		<edge from-layer="1541" from-port="2" to-layer="1543" to-port="0" />
		<edge from-layer="1542" from-port="0" to-layer="1543" to-port="1" />
		<edge from-layer="1543" from-port="2" to-layer="1548" to-port="0" />
		<edge from-layer="1544" from-port="0" to-layer="1548" to-port="1" />
		<edge from-layer="1545" from-port="0" to-layer="1548" to-port="2" />
		<edge from-layer="1546" from-port="0" to-layer="1548" to-port="3" />
		<edge from-layer="1547" from-port="0" to-layer="1548" to-port="4" />
		<edge from-layer="1548" from-port="5" to-layer="1555" to-port="0" />
		<edge from-layer="1549" from-port="0" to-layer="1550" to-port="0" />
		<edge from-layer="1550" from-port="1" to-layer="1552" to-port="0" />
		<edge from-layer="1551" from-port="0" to-layer="1552" to-port="1" />
		<edge from-layer="1552" from-port="2" to-layer="1554" to-port="0" />
		<edge from-layer="1553" from-port="0" to-layer="1554" to-port="1" />
		<edge from-layer="1554" from-port="2" to-layer="1555" to-port="1" />
		<edge from-layer="1555" from-port="2" to-layer="1558" to-port="0" />
		<edge from-layer="1556" from-port="0" to-layer="1557" to-port="0" />
		<edge from-layer="1557" from-port="1" to-layer="1558" to-port="1" />
		<edge from-layer="1558" from-port="2" to-layer="1559" to-port="0" />
		<edge from-layer="1559" from-port="1" to-layer="1564" to-port="0" />
		<edge from-layer="1560" from-port="0" to-layer="1564" to-port="1" />
		<edge from-layer="1561" from-port="0" to-layer="1564" to-port="2" />
		<edge from-layer="1562" from-port="0" to-layer="1564" to-port="3" />
		<edge from-layer="1563" from-port="0" to-layer="1564" to-port="4" />
		<edge from-layer="1564" from-port="5" to-layer="2050" to-port="0" />
		<edge from-layer="1564" from-port="5" to-layer="1573" to-port="0" />
		<edge from-layer="1565" from-port="0" to-layer="1566" to-port="0" />
		<edge from-layer="1566" from-port="1" to-layer="1568" to-port="0" />
		<edge from-layer="1567" from-port="0" to-layer="1568" to-port="1" />
		<edge from-layer="1568" from-port="2" to-layer="1570" to-port="0" />
		<edge from-layer="1569" from-port="0" to-layer="1570" to-port="1" />
		<edge from-layer="1570" from-port="2" to-layer="1572" to-port="0" />
		<edge from-layer="1571" from-port="0" to-layer="1572" to-port="1" />
		<edge from-layer="1572" from-port="2" to-layer="1573" to-port="1" />
		<edge from-layer="1573" from-port="2" to-layer="1575" to-port="0" />
		<edge from-layer="1574" from-port="0" to-layer="1575" to-port="1" />
		<edge from-layer="1575" from-port="2" to-layer="1580" to-port="0" />
		<edge from-layer="1576" from-port="0" to-layer="1580" to-port="1" />
		<edge from-layer="1577" from-port="0" to-layer="1580" to-port="2" />
		<edge from-layer="1578" from-port="0" to-layer="1580" to-port="3" />
		<edge from-layer="1579" from-port="0" to-layer="1580" to-port="4" />
		<edge from-layer="1580" from-port="5" to-layer="1587" to-port="0" />
		<edge from-layer="1581" from-port="0" to-layer="1582" to-port="0" />
		<edge from-layer="1582" from-port="1" to-layer="1584" to-port="0" />
		<edge from-layer="1583" from-port="0" to-layer="1584" to-port="1" />
		<edge from-layer="1584" from-port="2" to-layer="1586" to-port="0" />
		<edge from-layer="1585" from-port="0" to-layer="1586" to-port="1" />
		<edge from-layer="1586" from-port="2" to-layer="1587" to-port="1" />
		<edge from-layer="1587" from-port="2" to-layer="1590" to-port="0" />
		<edge from-layer="1588" from-port="0" to-layer="1589" to-port="0" />
		<edge from-layer="1589" from-port="1" to-layer="1590" to-port="1" />
		<edge from-layer="1590" from-port="2" to-layer="1592" to-port="0" />
		<edge from-layer="1591" from-port="0" to-layer="1592" to-port="1" />
		<edge from-layer="1592" from-port="2" to-layer="1594" to-port="0" />
		<edge from-layer="1593" from-port="0" to-layer="1594" to-port="1" />
		<edge from-layer="1594" from-port="2" to-layer="1975" to-port="2" />
		<edge from-layer="1595" from-port="0" to-layer="1596" to-port="0" />
		<edge from-layer="1596" from-port="1" to-layer="1598" to-port="0" />
		<edge from-layer="1597" from-port="0" to-layer="1598" to-port="1" />
		<edge from-layer="1598" from-port="2" to-layer="1600" to-port="0" />
		<edge from-layer="1599" from-port="0" to-layer="1600" to-port="1" />
		<edge from-layer="1600" from-port="2" to-layer="1602" to-port="0" />
		<edge from-layer="1601" from-port="0" to-layer="1602" to-port="1" />
		<edge from-layer="1602" from-port="2" to-layer="1603" to-port="1" />
		<edge from-layer="1603" from-port="2" to-layer="1605" to-port="0" />
		<edge from-layer="1604" from-port="0" to-layer="1605" to-port="1" />
		<edge from-layer="1605" from-port="2" to-layer="1610" to-port="0" />
		<edge from-layer="1606" from-port="0" to-layer="1610" to-port="1" />
		<edge from-layer="1607" from-port="0" to-layer="1610" to-port="2" />
		<edge from-layer="1608" from-port="0" to-layer="1610" to-port="3" />
		<edge from-layer="1609" from-port="0" to-layer="1610" to-port="4" />
		<edge from-layer="1610" from-port="5" to-layer="1617" to-port="0" />
		<edge from-layer="1611" from-port="0" to-layer="1612" to-port="0" />
		<edge from-layer="1612" from-port="1" to-layer="1614" to-port="0" />
		<edge from-layer="1613" from-port="0" to-layer="1614" to-port="1" />
		<edge from-layer="1614" from-port="2" to-layer="1616" to-port="0" />
		<edge from-layer="1615" from-port="0" to-layer="1616" to-port="1" />
		<edge from-layer="1616" from-port="2" to-layer="1617" to-port="1" />
		<edge from-layer="1617" from-port="2" to-layer="1620" to-port="0" />
		<edge from-layer="1618" from-port="0" to-layer="1619" to-port="0" />
		<edge from-layer="1619" from-port="1" to-layer="1620" to-port="1" />
		<edge from-layer="1620" from-port="2" to-layer="1621" to-port="0" />
		<edge from-layer="1621" from-port="1" to-layer="1626" to-port="0" />
		<edge from-layer="1622" from-port="0" to-layer="1626" to-port="1" />
		<edge from-layer="1623" from-port="0" to-layer="1626" to-port="2" />
		<edge from-layer="1624" from-port="0" to-layer="1626" to-port="3" />
		<edge from-layer="1625" from-port="0" to-layer="1626" to-port="4" />
		<edge from-layer="1626" from-port="5" to-layer="1793" to-port="0" />
		<edge from-layer="1626" from-port="5" to-layer="1635" to-port="0" />
		<edge from-layer="1627" from-port="0" to-layer="1628" to-port="0" />
		<edge from-layer="1628" from-port="1" to-layer="1630" to-port="0" />
		<edge from-layer="1629" from-port="0" to-layer="1630" to-port="1" />
		<edge from-layer="1630" from-port="2" to-layer="1632" to-port="0" />
		<edge from-layer="1631" from-port="0" to-layer="1632" to-port="1" />
		<edge from-layer="1632" from-port="2" to-layer="1634" to-port="0" />
		<edge from-layer="1633" from-port="0" to-layer="1634" to-port="1" />
		<edge from-layer="1634" from-port="2" to-layer="1635" to-port="1" />
		<edge from-layer="1635" from-port="2" to-layer="1637" to-port="0" />
		<edge from-layer="1636" from-port="0" to-layer="1637" to-port="1" />
		<edge from-layer="1637" from-port="2" to-layer="1642" to-port="0" />
		<edge from-layer="1638" from-port="0" to-layer="1642" to-port="1" />
		<edge from-layer="1639" from-port="0" to-layer="1642" to-port="2" />
		<edge from-layer="1640" from-port="0" to-layer="1642" to-port="3" />
		<edge from-layer="1641" from-port="0" to-layer="1642" to-port="4" />
		<edge from-layer="1642" from-port="5" to-layer="1649" to-port="0" />
		<edge from-layer="1643" from-port="0" to-layer="1644" to-port="0" />
		<edge from-layer="1644" from-port="1" to-layer="1646" to-port="0" />
		<edge from-layer="1645" from-port="0" to-layer="1646" to-port="1" />
		<edge from-layer="1646" from-port="2" to-layer="1648" to-port="0" />
		<edge from-layer="1647" from-port="0" to-layer="1648" to-port="1" />
		<edge from-layer="1648" from-port="2" to-layer="1649" to-port="1" />
		<edge from-layer="1649" from-port="2" to-layer="1652" to-port="0" />
		<edge from-layer="1650" from-port="0" to-layer="1651" to-port="0" />
		<edge from-layer="1651" from-port="1" to-layer="1652" to-port="1" />
		<edge from-layer="1652" from-port="2" to-layer="1653" to-port="0" />
		<edge from-layer="1653" from-port="1" to-layer="1658" to-port="0" />
		<edge from-layer="1654" from-port="0" to-layer="1658" to-port="1" />
		<edge from-layer="1655" from-port="0" to-layer="1658" to-port="2" />
		<edge from-layer="1656" from-port="0" to-layer="1658" to-port="3" />
		<edge from-layer="1657" from-port="0" to-layer="1658" to-port="4" />
		<edge from-layer="1658" from-port="5" to-layer="1667" to-port="0" />
		<edge from-layer="1659" from-port="0" to-layer="1660" to-port="0" />
		<edge from-layer="1660" from-port="1" to-layer="1662" to-port="0" />
		<edge from-layer="1661" from-port="0" to-layer="1662" to-port="1" />
		<edge from-layer="1662" from-port="2" to-layer="1664" to-port="0" />
		<edge from-layer="1663" from-port="0" to-layer="1664" to-port="1" />
		<edge from-layer="1664" from-port="2" to-layer="1666" to-port="0" />
		<edge from-layer="1665" from-port="0" to-layer="1666" to-port="1" />
		<edge from-layer="1666" from-port="2" to-layer="1667" to-port="1" />
		<edge from-layer="1667" from-port="2" to-layer="1669" to-port="0" />
		<edge from-layer="1668" from-port="0" to-layer="1669" to-port="1" />
		<edge from-layer="1669" from-port="2" to-layer="1674" to-port="0" />
		<edge from-layer="1670" from-port="0" to-layer="1674" to-port="1" />
		<edge from-layer="1671" from-port="0" to-layer="1674" to-port="2" />
		<edge from-layer="1672" from-port="0" to-layer="1674" to-port="3" />
		<edge from-layer="1673" from-port="0" to-layer="1674" to-port="4" />
		<edge from-layer="1674" from-port="5" to-layer="1681" to-port="0" />
		<edge from-layer="1675" from-port="0" to-layer="1676" to-port="0" />
		<edge from-layer="1676" from-port="1" to-layer="1678" to-port="0" />
		<edge from-layer="1677" from-port="0" to-layer="1678" to-port="1" />
		<edge from-layer="1678" from-port="2" to-layer="1680" to-port="0" />
		<edge from-layer="1679" from-port="0" to-layer="1680" to-port="1" />
		<edge from-layer="1680" from-port="2" to-layer="1681" to-port="1" />
		<edge from-layer="1681" from-port="2" to-layer="1684" to-port="0" />
		<edge from-layer="1682" from-port="0" to-layer="1683" to-port="0" />
		<edge from-layer="1683" from-port="1" to-layer="1684" to-port="1" />
		<edge from-layer="1684" from-port="2" to-layer="1685" to-port="0" />
		<edge from-layer="1685" from-port="1" to-layer="1690" to-port="0" />
		<edge from-layer="1686" from-port="0" to-layer="1690" to-port="1" />
		<edge from-layer="1687" from-port="0" to-layer="1690" to-port="2" />
		<edge from-layer="1688" from-port="0" to-layer="1690" to-port="3" />
		<edge from-layer="1689" from-port="0" to-layer="1690" to-port="4" />
		<edge from-layer="1690" from-port="5" to-layer="1699" to-port="0" />
		<edge from-layer="1691" from-port="0" to-layer="1692" to-port="0" />
		<edge from-layer="1692" from-port="1" to-layer="1694" to-port="0" />
		<edge from-layer="1693" from-port="0" to-layer="1694" to-port="1" />
		<edge from-layer="1694" from-port="2" to-layer="1696" to-port="0" />
		<edge from-layer="1695" from-port="0" to-layer="1696" to-port="1" />
		<edge from-layer="1696" from-port="2" to-layer="1698" to-port="0" />
		<edge from-layer="1697" from-port="0" to-layer="1698" to-port="1" />
		<edge from-layer="1698" from-port="2" to-layer="1699" to-port="1" />
		<edge from-layer="1699" from-port="2" to-layer="1701" to-port="0" />
		<edge from-layer="1700" from-port="0" to-layer="1701" to-port="1" />
		<edge from-layer="1701" from-port="2" to-layer="1706" to-port="0" />
		<edge from-layer="1702" from-port="0" to-layer="1706" to-port="1" />
		<edge from-layer="1703" from-port="0" to-layer="1706" to-port="2" />
		<edge from-layer="1704" from-port="0" to-layer="1706" to-port="3" />
		<edge from-layer="1705" from-port="0" to-layer="1706" to-port="4" />
		<edge from-layer="1706" from-port="5" to-layer="1713" to-port="0" />
		<edge from-layer="1707" from-port="0" to-layer="1708" to-port="0" />
		<edge from-layer="1708" from-port="1" to-layer="1710" to-port="0" />
		<edge from-layer="1709" from-port="0" to-layer="1710" to-port="1" />
		<edge from-layer="1710" from-port="2" to-layer="1712" to-port="0" />
		<edge from-layer="1711" from-port="0" to-layer="1712" to-port="1" />
		<edge from-layer="1712" from-port="2" to-layer="1713" to-port="1" />
		<edge from-layer="1713" from-port="2" to-layer="1716" to-port="0" />
		<edge from-layer="1714" from-port="0" to-layer="1715" to-port="0" />
		<edge from-layer="1715" from-port="1" to-layer="1716" to-port="1" />
		<edge from-layer="1716" from-port="2" to-layer="1717" to-port="0" />
		<edge from-layer="1717" from-port="1" to-layer="1722" to-port="0" />
		<edge from-layer="1718" from-port="0" to-layer="1722" to-port="1" />
		<edge from-layer="1719" from-port="0" to-layer="1722" to-port="2" />
		<edge from-layer="1720" from-port="0" to-layer="1722" to-port="3" />
		<edge from-layer="1721" from-port="0" to-layer="1722" to-port="4" />
		<edge from-layer="1722" from-port="5" to-layer="1731" to-port="0" />
		<edge from-layer="1723" from-port="0" to-layer="1724" to-port="0" />
		<edge from-layer="1724" from-port="1" to-layer="1726" to-port="0" />
		<edge from-layer="1725" from-port="0" to-layer="1726" to-port="1" />
		<edge from-layer="1726" from-port="2" to-layer="1728" to-port="0" />
		<edge from-layer="1727" from-port="0" to-layer="1728" to-port="1" />
		<edge from-layer="1728" from-port="2" to-layer="1730" to-port="0" />
		<edge from-layer="1729" from-port="0" to-layer="1730" to-port="1" />
		<edge from-layer="1730" from-port="2" to-layer="1731" to-port="1" />
		<edge from-layer="1731" from-port="2" to-layer="1733" to-port="0" />
		<edge from-layer="1732" from-port="0" to-layer="1733" to-port="1" />
		<edge from-layer="1733" from-port="2" to-layer="1738" to-port="0" />
		<edge from-layer="1734" from-port="0" to-layer="1738" to-port="1" />
		<edge from-layer="1735" from-port="0" to-layer="1738" to-port="2" />
		<edge from-layer="1736" from-port="0" to-layer="1738" to-port="3" />
		<edge from-layer="1737" from-port="0" to-layer="1738" to-port="4" />
		<edge from-layer="1738" from-port="5" to-layer="1745" to-port="0" />
		<edge from-layer="1739" from-port="0" to-layer="1740" to-port="0" />
		<edge from-layer="1740" from-port="1" to-layer="1742" to-port="0" />
		<edge from-layer="1741" from-port="0" to-layer="1742" to-port="1" />
		<edge from-layer="1742" from-port="2" to-layer="1744" to-port="0" />
		<edge from-layer="1743" from-port="0" to-layer="1744" to-port="1" />
		<edge from-layer="1744" from-port="2" to-layer="1745" to-port="1" />
		<edge from-layer="1745" from-port="2" to-layer="1748" to-port="0" />
		<edge from-layer="1746" from-port="0" to-layer="1747" to-port="0" />
		<edge from-layer="1747" from-port="1" to-layer="1748" to-port="1" />
		<edge from-layer="1748" from-port="2" to-layer="1749" to-port="0" />
		<edge from-layer="1749" from-port="1" to-layer="1754" to-port="0" />
		<edge from-layer="1750" from-port="0" to-layer="1754" to-port="1" />
		<edge from-layer="1751" from-port="0" to-layer="1754" to-port="2" />
		<edge from-layer="1752" from-port="0" to-layer="1754" to-port="3" />
		<edge from-layer="1753" from-port="0" to-layer="1754" to-port="4" />
		<edge from-layer="1754" from-port="5" to-layer="1763" to-port="0" />
		<edge from-layer="1754" from-port="5" to-layer="2082" to-port="0" />
		<edge from-layer="1755" from-port="0" to-layer="1756" to-port="0" />
		<edge from-layer="1756" from-port="1" to-layer="1758" to-port="0" />
		<edge from-layer="1757" from-port="0" to-layer="1758" to-port="1" />
		<edge from-layer="1758" from-port="2" to-layer="1760" to-port="0" />
		<edge from-layer="1759" from-port="0" to-layer="1760" to-port="1" />
		<edge from-layer="1760" from-port="2" to-layer="1762" to-port="0" />
		<edge from-layer="1761" from-port="0" to-layer="1762" to-port="1" />
		<edge from-layer="1762" from-port="2" to-layer="1763" to-port="1" />
		<edge from-layer="1763" from-port="2" to-layer="1765" to-port="0" />
		<edge from-layer="1764" from-port="0" to-layer="1765" to-port="1" />
		<edge from-layer="1765" from-port="2" to-layer="1770" to-port="0" />
		<edge from-layer="1766" from-port="0" to-layer="1770" to-port="1" />
		<edge from-layer="1767" from-port="0" to-layer="1770" to-port="2" />
		<edge from-layer="1768" from-port="0" to-layer="1770" to-port="3" />
		<edge from-layer="1769" from-port="0" to-layer="1770" to-port="4" />
		<edge from-layer="1770" from-port="5" to-layer="1777" to-port="0" />
		<edge from-layer="1771" from-port="0" to-layer="1772" to-port="0" />
		<edge from-layer="1772" from-port="1" to-layer="1774" to-port="0" />
		<edge from-layer="1773" from-port="0" to-layer="1774" to-port="1" />
		<edge from-layer="1774" from-port="2" to-layer="1776" to-port="0" />
		<edge from-layer="1775" from-port="0" to-layer="1776" to-port="1" />
		<edge from-layer="1776" from-port="2" to-layer="1777" to-port="1" />
		<edge from-layer="1777" from-port="2" to-layer="1780" to-port="0" />
		<edge from-layer="1778" from-port="0" to-layer="1779" to-port="0" />
		<edge from-layer="1779" from-port="1" to-layer="1780" to-port="1" />
		<edge from-layer="1780" from-port="2" to-layer="1782" to-port="0" />
		<edge from-layer="1781" from-port="0" to-layer="1782" to-port="1" />
		<edge from-layer="1782" from-port="2" to-layer="1784" to-port="0" />
		<edge from-layer="1783" from-port="0" to-layer="1784" to-port="1" />
		<edge from-layer="1784" from-port="2" to-layer="1975" to-port="3" />
		<edge from-layer="1785" from-port="0" to-layer="1786" to-port="0" />
		<edge from-layer="1786" from-port="1" to-layer="1788" to-port="0" />
		<edge from-layer="1787" from-port="0" to-layer="1788" to-port="1" />
		<edge from-layer="1788" from-port="2" to-layer="1790" to-port="0" />
		<edge from-layer="1789" from-port="0" to-layer="1790" to-port="1" />
		<edge from-layer="1790" from-port="2" to-layer="1792" to-port="0" />
		<edge from-layer="1791" from-port="0" to-layer="1792" to-port="1" />
		<edge from-layer="1792" from-port="2" to-layer="1793" to-port="1" />
		<edge from-layer="1793" from-port="2" to-layer="1795" to-port="0" />
		<edge from-layer="1794" from-port="0" to-layer="1795" to-port="1" />
		<edge from-layer="1795" from-port="2" to-layer="1800" to-port="0" />
		<edge from-layer="1796" from-port="0" to-layer="1800" to-port="1" />
		<edge from-layer="1797" from-port="0" to-layer="1800" to-port="2" />
		<edge from-layer="1798" from-port="0" to-layer="1800" to-port="3" />
		<edge from-layer="1799" from-port="0" to-layer="1800" to-port="4" />
		<edge from-layer="1800" from-port="5" to-layer="1807" to-port="0" />
		<edge from-layer="1801" from-port="0" to-layer="1802" to-port="0" />
		<edge from-layer="1802" from-port="1" to-layer="1804" to-port="0" />
		<edge from-layer="1803" from-port="0" to-layer="1804" to-port="1" />
		<edge from-layer="1804" from-port="2" to-layer="1806" to-port="0" />
		<edge from-layer="1805" from-port="0" to-layer="1806" to-port="1" />
		<edge from-layer="1806" from-port="2" to-layer="1807" to-port="1" />
		<edge from-layer="1807" from-port="2" to-layer="1810" to-port="0" />
		<edge from-layer="1808" from-port="0" to-layer="1809" to-port="0" />
		<edge from-layer="1809" from-port="1" to-layer="1810" to-port="1" />
		<edge from-layer="1810" from-port="2" to-layer="1811" to-port="0" />
		<edge from-layer="1811" from-port="1" to-layer="1816" to-port="0" />
		<edge from-layer="1812" from-port="0" to-layer="1816" to-port="1" />
		<edge from-layer="1813" from-port="0" to-layer="1816" to-port="2" />
		<edge from-layer="1814" from-port="0" to-layer="1816" to-port="3" />
		<edge from-layer="1815" from-port="0" to-layer="1816" to-port="4" />
		<edge from-layer="1816" from-port="5" to-layer="1825" to-port="0" />
		<edge from-layer="1817" from-port="0" to-layer="1818" to-port="0" />
		<edge from-layer="1818" from-port="1" to-layer="1820" to-port="0" />
		<edge from-layer="1819" from-port="0" to-layer="1820" to-port="1" />
		<edge from-layer="1820" from-port="2" to-layer="1822" to-port="0" />
		<edge from-layer="1821" from-port="0" to-layer="1822" to-port="1" />
		<edge from-layer="1822" from-port="2" to-layer="1824" to-port="0" />
		<edge from-layer="1823" from-port="0" to-layer="1824" to-port="1" />
		<edge from-layer="1824" from-port="2" to-layer="1825" to-port="1" />
		<edge from-layer="1825" from-port="2" to-layer="1827" to-port="0" />
		<edge from-layer="1826" from-port="0" to-layer="1827" to-port="1" />
		<edge from-layer="1827" from-port="2" to-layer="1832" to-port="0" />
		<edge from-layer="1828" from-port="0" to-layer="1832" to-port="1" />
		<edge from-layer="1829" from-port="0" to-layer="1832" to-port="2" />
		<edge from-layer="1830" from-port="0" to-layer="1832" to-port="3" />
		<edge from-layer="1831" from-port="0" to-layer="1832" to-port="4" />
		<edge from-layer="1832" from-port="5" to-layer="1839" to-port="0" />
		<edge from-layer="1833" from-port="0" to-layer="1834" to-port="0" />
		<edge from-layer="1834" from-port="1" to-layer="1836" to-port="0" />
		<edge from-layer="1835" from-port="0" to-layer="1836" to-port="1" />
		<edge from-layer="1836" from-port="2" to-layer="1838" to-port="0" />
		<edge from-layer="1837" from-port="0" to-layer="1838" to-port="1" />
		<edge from-layer="1838" from-port="2" to-layer="1839" to-port="1" />
		<edge from-layer="1839" from-port="2" to-layer="1842" to-port="0" />
		<edge from-layer="1840" from-port="0" to-layer="1841" to-port="0" />
		<edge from-layer="1841" from-port="1" to-layer="1842" to-port="1" />
		<edge from-layer="1842" from-port="2" to-layer="1843" to-port="0" />
		<edge from-layer="1843" from-port="1" to-layer="1848" to-port="0" />
		<edge from-layer="1844" from-port="0" to-layer="1848" to-port="1" />
		<edge from-layer="1845" from-port="0" to-layer="1848" to-port="2" />
		<edge from-layer="1846" from-port="0" to-layer="1848" to-port="3" />
		<edge from-layer="1847" from-port="0" to-layer="1848" to-port="4" />
		<edge from-layer="1848" from-port="5" to-layer="1857" to-port="0" />
		<edge from-layer="1849" from-port="0" to-layer="1850" to-port="0" />
		<edge from-layer="1850" from-port="1" to-layer="1852" to-port="0" />
		<edge from-layer="1851" from-port="0" to-layer="1852" to-port="1" />
		<edge from-layer="1852" from-port="2" to-layer="1854" to-port="0" />
		<edge from-layer="1853" from-port="0" to-layer="1854" to-port="1" />
		<edge from-layer="1854" from-port="2" to-layer="1856" to-port="0" />
		<edge from-layer="1855" from-port="0" to-layer="1856" to-port="1" />
		<edge from-layer="1856" from-port="2" to-layer="1857" to-port="1" />
		<edge from-layer="1857" from-port="2" to-layer="1859" to-port="0" />
		<edge from-layer="1858" from-port="0" to-layer="1859" to-port="1" />
		<edge from-layer="1859" from-port="2" to-layer="1864" to-port="0" />
		<edge from-layer="1860" from-port="0" to-layer="1864" to-port="1" />
		<edge from-layer="1861" from-port="0" to-layer="1864" to-port="2" />
		<edge from-layer="1862" from-port="0" to-layer="1864" to-port="3" />
		<edge from-layer="1863" from-port="0" to-layer="1864" to-port="4" />
		<edge from-layer="1864" from-port="5" to-layer="1871" to-port="0" />
		<edge from-layer="1865" from-port="0" to-layer="1866" to-port="0" />
		<edge from-layer="1866" from-port="1" to-layer="1868" to-port="0" />
		<edge from-layer="1867" from-port="0" to-layer="1868" to-port="1" />
		<edge from-layer="1868" from-port="2" to-layer="1870" to-port="0" />
		<edge from-layer="1869" from-port="0" to-layer="1870" to-port="1" />
		<edge from-layer="1870" from-port="2" to-layer="1871" to-port="1" />
		<edge from-layer="1871" from-port="2" to-layer="1874" to-port="0" />
		<edge from-layer="1872" from-port="0" to-layer="1873" to-port="0" />
		<edge from-layer="1873" from-port="1" to-layer="1874" to-port="1" />
		<edge from-layer="1874" from-port="2" to-layer="1875" to-port="0" />
		<edge from-layer="1875" from-port="1" to-layer="1880" to-port="0" />
		<edge from-layer="1876" from-port="0" to-layer="1880" to-port="1" />
		<edge from-layer="1877" from-port="0" to-layer="1880" to-port="2" />
		<edge from-layer="1878" from-port="0" to-layer="1880" to-port="3" />
		<edge from-layer="1879" from-port="0" to-layer="1880" to-port="4" />
		<edge from-layer="1880" from-port="5" to-layer="1889" to-port="0" />
		<edge from-layer="1881" from-port="0" to-layer="1882" to-port="0" />
		<edge from-layer="1882" from-port="1" to-layer="1884" to-port="0" />
		<edge from-layer="1883" from-port="0" to-layer="1884" to-port="1" />
		<edge from-layer="1884" from-port="2" to-layer="1886" to-port="0" />
		<edge from-layer="1885" from-port="0" to-layer="1886" to-port="1" />
		<edge from-layer="1886" from-port="2" to-layer="1888" to-port="0" />
		<edge from-layer="1887" from-port="0" to-layer="1888" to-port="1" />
		<edge from-layer="1888" from-port="2" to-layer="1889" to-port="1" />
		<edge from-layer="1889" from-port="2" to-layer="1891" to-port="0" />
		<edge from-layer="1890" from-port="0" to-layer="1891" to-port="1" />
		<edge from-layer="1891" from-port="2" to-layer="1896" to-port="0" />
		<edge from-layer="1892" from-port="0" to-layer="1896" to-port="1" />
		<edge from-layer="1893" from-port="0" to-layer="1896" to-port="2" />
		<edge from-layer="1894" from-port="0" to-layer="1896" to-port="3" />
		<edge from-layer="1895" from-port="0" to-layer="1896" to-port="4" />
		<edge from-layer="1896" from-port="5" to-layer="1903" to-port="0" />
		<edge from-layer="1897" from-port="0" to-layer="1898" to-port="0" />
		<edge from-layer="1898" from-port="1" to-layer="1900" to-port="0" />
		<edge from-layer="1899" from-port="0" to-layer="1900" to-port="1" />
		<edge from-layer="1900" from-port="2" to-layer="1902" to-port="0" />
		<edge from-layer="1901" from-port="0" to-layer="1902" to-port="1" />
		<edge from-layer="1902" from-port="2" to-layer="1903" to-port="1" />
		<edge from-layer="1903" from-port="2" to-layer="1906" to-port="0" />
		<edge from-layer="1904" from-port="0" to-layer="1905" to-port="0" />
		<edge from-layer="1905" from-port="1" to-layer="1906" to-port="1" />
		<edge from-layer="1906" from-port="2" to-layer="1907" to-port="0" />
		<edge from-layer="1907" from-port="1" to-layer="1912" to-port="0" />
		<edge from-layer="1908" from-port="0" to-layer="1912" to-port="1" />
		<edge from-layer="1909" from-port="0" to-layer="1912" to-port="2" />
		<edge from-layer="1910" from-port="0" to-layer="1912" to-port="3" />
		<edge from-layer="1911" from-port="0" to-layer="1912" to-port="4" />
		<edge from-layer="1912" from-port="5" to-layer="1921" to-port="0" />
		<edge from-layer="1913" from-port="0" to-layer="1914" to-port="0" />
		<edge from-layer="1914" from-port="1" to-layer="1916" to-port="0" />
		<edge from-layer="1915" from-port="0" to-layer="1916" to-port="1" />
		<edge from-layer="1916" from-port="2" to-layer="1918" to-port="0" />
		<edge from-layer="1917" from-port="0" to-layer="1918" to-port="1" />
		<edge from-layer="1918" from-port="2" to-layer="1920" to-port="0" />
		<edge from-layer="1919" from-port="0" to-layer="1920" to-port="1" />
		<edge from-layer="1920" from-port="2" to-layer="1921" to-port="1" />
		<edge from-layer="1921" from-port="2" to-layer="1923" to-port="0" />
		<edge from-layer="1922" from-port="0" to-layer="1923" to-port="1" />
		<edge from-layer="1923" from-port="2" to-layer="1928" to-port="0" />
		<edge from-layer="1924" from-port="0" to-layer="1928" to-port="1" />
		<edge from-layer="1925" from-port="0" to-layer="1928" to-port="2" />
		<edge from-layer="1926" from-port="0" to-layer="1928" to-port="3" />
		<edge from-layer="1927" from-port="0" to-layer="1928" to-port="4" />
		<edge from-layer="1928" from-port="5" to-layer="1935" to-port="0" />
		<edge from-layer="1929" from-port="0" to-layer="1930" to-port="0" />
		<edge from-layer="1930" from-port="1" to-layer="1932" to-port="0" />
		<edge from-layer="1931" from-port="0" to-layer="1932" to-port="1" />
		<edge from-layer="1932" from-port="2" to-layer="1934" to-port="0" />
		<edge from-layer="1933" from-port="0" to-layer="1934" to-port="1" />
		<edge from-layer="1934" from-port="2" to-layer="1935" to-port="1" />
		<edge from-layer="1935" from-port="2" to-layer="1938" to-port="0" />
		<edge from-layer="1936" from-port="0" to-layer="1937" to-port="0" />
		<edge from-layer="1937" from-port="1" to-layer="1938" to-port="1" />
		<edge from-layer="1938" from-port="2" to-layer="1939" to-port="0" />
		<edge from-layer="1939" from-port="1" to-layer="1944" to-port="0" />
		<edge from-layer="1940" from-port="0" to-layer="1944" to-port="1" />
		<edge from-layer="1941" from-port="0" to-layer="1944" to-port="2" />
		<edge from-layer="1942" from-port="0" to-layer="1944" to-port="3" />
		<edge from-layer="1943" from-port="0" to-layer="1944" to-port="4" />
		<edge from-layer="1944" from-port="5" to-layer="1953" to-port="0" />
		<edge from-layer="1944" from-port="5" to-layer="2114" to-port="0" />
		<edge from-layer="1945" from-port="0" to-layer="1946" to-port="0" />
		<edge from-layer="1946" from-port="1" to-layer="1948" to-port="0" />
		<edge from-layer="1947" from-port="0" to-layer="1948" to-port="1" />
		<edge from-layer="1948" from-port="2" to-layer="1950" to-port="0" />
		<edge from-layer="1949" from-port="0" to-layer="1950" to-port="1" />
		<edge from-layer="1950" from-port="2" to-layer="1952" to-port="0" />
		<edge from-layer="1951" from-port="0" to-layer="1952" to-port="1" />
		<edge from-layer="1952" from-port="2" to-layer="1953" to-port="1" />
		<edge from-layer="1953" from-port="2" to-layer="1955" to-port="0" />
		<edge from-layer="1954" from-port="0" to-layer="1955" to-port="1" />
		<edge from-layer="1955" from-port="2" to-layer="1960" to-port="0" />
		<edge from-layer="1956" from-port="0" to-layer="1960" to-port="1" />
		<edge from-layer="1957" from-port="0" to-layer="1960" to-port="2" />
		<edge from-layer="1958" from-port="0" to-layer="1960" to-port="3" />
		<edge from-layer="1959" from-port="0" to-layer="1960" to-port="4" />
		<edge from-layer="1960" from-port="5" to-layer="1967" to-port="0" />
		<edge from-layer="1961" from-port="0" to-layer="1962" to-port="0" />
		<edge from-layer="1962" from-port="1" to-layer="1964" to-port="0" />
		<edge from-layer="1963" from-port="0" to-layer="1964" to-port="1" />
		<edge from-layer="1964" from-port="2" to-layer="1966" to-port="0" />
		<edge from-layer="1965" from-port="0" to-layer="1966" to-port="1" />
		<edge from-layer="1966" from-port="2" to-layer="1967" to-port="1" />
		<edge from-layer="1967" from-port="2" to-layer="1970" to-port="0" />
		<edge from-layer="1968" from-port="0" to-layer="1969" to-port="0" />
		<edge from-layer="1969" from-port="1" to-layer="1970" to-port="1" />
		<edge from-layer="1970" from-port="2" to-layer="1972" to-port="0" />
		<edge from-layer="1971" from-port="0" to-layer="1972" to-port="1" />
		<edge from-layer="1972" from-port="2" to-layer="1974" to-port="0" />
		<edge from-layer="1973" from-port="0" to-layer="1974" to-port="1" />
		<edge from-layer="1974" from-port="2" to-layer="1975" to-port="4" />
		<edge from-layer="1975" from-port="5" to-layer="1977" to-port="0" />
		<edge from-layer="1976" from-port="0" to-layer="1977" to-port="1" />
		<edge from-layer="1977" from-port="2" to-layer="2165" to-port="0" />
		<edge from-layer="1978" from-port="0" to-layer="1979" to-port="0" />
		<edge from-layer="1979" from-port="1" to-layer="1981" to-port="0" />
		<edge from-layer="1980" from-port="0" to-layer="1981" to-port="1" />
		<edge from-layer="1981" from-port="2" to-layer="1983" to-port="0" />
		<edge from-layer="1982" from-port="0" to-layer="1983" to-port="1" />
		<edge from-layer="1983" from-port="2" to-layer="1985" to-port="0" />
		<edge from-layer="1984" from-port="0" to-layer="1985" to-port="1" />
		<edge from-layer="1985" from-port="2" to-layer="1986" to-port="1" />
		<edge from-layer="1986" from-port="2" to-layer="1988" to-port="0" />
		<edge from-layer="1987" from-port="0" to-layer="1988" to-port="1" />
		<edge from-layer="1988" from-port="2" to-layer="1993" to-port="0" />
		<edge from-layer="1989" from-port="0" to-layer="1993" to-port="1" />
		<edge from-layer="1990" from-port="0" to-layer="1993" to-port="2" />
		<edge from-layer="1991" from-port="0" to-layer="1993" to-port="3" />
		<edge from-layer="1992" from-port="0" to-layer="1993" to-port="4" />
		<edge from-layer="1993" from-port="5" to-layer="2000" to-port="0" />
		<edge from-layer="1994" from-port="0" to-layer="1995" to-port="0" />
		<edge from-layer="1995" from-port="1" to-layer="1997" to-port="0" />
		<edge from-layer="1996" from-port="0" to-layer="1997" to-port="1" />
		<edge from-layer="1997" from-port="2" to-layer="1999" to-port="0" />
		<edge from-layer="1998" from-port="0" to-layer="1999" to-port="1" />
		<edge from-layer="1999" from-port="2" to-layer="2000" to-port="1" />
		<edge from-layer="2000" from-port="2" to-layer="2003" to-port="0" />
		<edge from-layer="2001" from-port="0" to-layer="2002" to-port="0" />
		<edge from-layer="2002" from-port="1" to-layer="2003" to-port="1" />
		<edge from-layer="2003" from-port="2" to-layer="2005" to-port="0" />
		<edge from-layer="2004" from-port="0" to-layer="2005" to-port="1" />
		<edge from-layer="2005" from-port="2" to-layer="2007" to-port="0" />
		<edge from-layer="2006" from-port="0" to-layer="2007" to-port="1" />
		<edge from-layer="2007" from-port="2" to-layer="2009" to-port="0" />
		<edge from-layer="2008" from-port="0" to-layer="2009" to-port="1" />
		<edge from-layer="2009" from-port="2" to-layer="2138" to-port="0" />
		<edge from-layer="2010" from-port="0" to-layer="2011" to-port="0" />
		<edge from-layer="2011" from-port="1" to-layer="2013" to-port="0" />
		<edge from-layer="2012" from-port="0" to-layer="2013" to-port="1" />
		<edge from-layer="2013" from-port="2" to-layer="2015" to-port="0" />
		<edge from-layer="2014" from-port="0" to-layer="2015" to-port="1" />
		<edge from-layer="2015" from-port="2" to-layer="2017" to-port="0" />
		<edge from-layer="2016" from-port="0" to-layer="2017" to-port="1" />
		<edge from-layer="2017" from-port="2" to-layer="2018" to-port="1" />
		<edge from-layer="2018" from-port="2" to-layer="2020" to-port="0" />
		<edge from-layer="2019" from-port="0" to-layer="2020" to-port="1" />
		<edge from-layer="2020" from-port="2" to-layer="2025" to-port="0" />
		<edge from-layer="2021" from-port="0" to-layer="2025" to-port="1" />
		<edge from-layer="2022" from-port="0" to-layer="2025" to-port="2" />
		<edge from-layer="2023" from-port="0" to-layer="2025" to-port="3" />
		<edge from-layer="2024" from-port="0" to-layer="2025" to-port="4" />
		<edge from-layer="2025" from-port="5" to-layer="2032" to-port="0" />
		<edge from-layer="2026" from-port="0" to-layer="2027" to-port="0" />
		<edge from-layer="2027" from-port="1" to-layer="2029" to-port="0" />
		<edge from-layer="2028" from-port="0" to-layer="2029" to-port="1" />
		<edge from-layer="2029" from-port="2" to-layer="2031" to-port="0" />
		<edge from-layer="2030" from-port="0" to-layer="2031" to-port="1" />
		<edge from-layer="2031" from-port="2" to-layer="2032" to-port="1" />
		<edge from-layer="2032" from-port="2" to-layer="2035" to-port="0" />
		<edge from-layer="2033" from-port="0" to-layer="2034" to-port="0" />
		<edge from-layer="2034" from-port="1" to-layer="2035" to-port="1" />
		<edge from-layer="2035" from-port="2" to-layer="2037" to-port="0" />
		<edge from-layer="2036" from-port="0" to-layer="2037" to-port="1" />
		<edge from-layer="2037" from-port="2" to-layer="2039" to-port="0" />
		<edge from-layer="2038" from-port="0" to-layer="2039" to-port="1" />
		<edge from-layer="2039" from-port="2" to-layer="2041" to-port="0" />
		<edge from-layer="2040" from-port="0" to-layer="2041" to-port="1" />
		<edge from-layer="2041" from-port="2" to-layer="2138" to-port="1" />
		<edge from-layer="2042" from-port="0" to-layer="2043" to-port="0" />
		<edge from-layer="2043" from-port="1" to-layer="2045" to-port="0" />
		<edge from-layer="2044" from-port="0" to-layer="2045" to-port="1" />
		<edge from-layer="2045" from-port="2" to-layer="2047" to-port="0" />
		<edge from-layer="2046" from-port="0" to-layer="2047" to-port="1" />
		<edge from-layer="2047" from-port="2" to-layer="2049" to-port="0" />
		<edge from-layer="2048" from-port="0" to-layer="2049" to-port="1" />
		<edge from-layer="2049" from-port="2" to-layer="2050" to-port="1" />
		<edge from-layer="2050" from-port="2" to-layer="2052" to-port="0" />
		<edge from-layer="2051" from-port="0" to-layer="2052" to-port="1" />
		<edge from-layer="2052" from-port="2" to-layer="2057" to-port="0" />
		<edge from-layer="2053" from-port="0" to-layer="2057" to-port="1" />
		<edge from-layer="2054" from-port="0" to-layer="2057" to-port="2" />
		<edge from-layer="2055" from-port="0" to-layer="2057" to-port="3" />
		<edge from-layer="2056" from-port="0" to-layer="2057" to-port="4" />
		<edge from-layer="2057" from-port="5" to-layer="2064" to-port="0" />
		<edge from-layer="2058" from-port="0" to-layer="2059" to-port="0" />
		<edge from-layer="2059" from-port="1" to-layer="2061" to-port="0" />
		<edge from-layer="2060" from-port="0" to-layer="2061" to-port="1" />
		<edge from-layer="2061" from-port="2" to-layer="2063" to-port="0" />
		<edge from-layer="2062" from-port="0" to-layer="2063" to-port="1" />
		<edge from-layer="2063" from-port="2" to-layer="2064" to-port="1" />
		<edge from-layer="2064" from-port="2" to-layer="2067" to-port="0" />
		<edge from-layer="2065" from-port="0" to-layer="2066" to-port="0" />
		<edge from-layer="2066" from-port="1" to-layer="2067" to-port="1" />
		<edge from-layer="2067" from-port="2" to-layer="2069" to-port="0" />
		<edge from-layer="2068" from-port="0" to-layer="2069" to-port="1" />
		<edge from-layer="2069" from-port="2" to-layer="2071" to-port="0" />
		<edge from-layer="2070" from-port="0" to-layer="2071" to-port="1" />
		<edge from-layer="2071" from-port="2" to-layer="2073" to-port="0" />
		<edge from-layer="2072" from-port="0" to-layer="2073" to-port="1" />
		<edge from-layer="2073" from-port="2" to-layer="2138" to-port="2" />
		<edge from-layer="2074" from-port="0" to-layer="2075" to-port="0" />
		<edge from-layer="2075" from-port="1" to-layer="2077" to-port="0" />
		<edge from-layer="2076" from-port="0" to-layer="2077" to-port="1" />
		<edge from-layer="2077" from-port="2" to-layer="2079" to-port="0" />
		<edge from-layer="2078" from-port="0" to-layer="2079" to-port="1" />
		<edge from-layer="2079" from-port="2" to-layer="2081" to-port="0" />
		<edge from-layer="2080" from-port="0" to-layer="2081" to-port="1" />
		<edge from-layer="2081" from-port="2" to-layer="2082" to-port="1" />
		<edge from-layer="2082" from-port="2" to-layer="2084" to-port="0" />
		<edge from-layer="2083" from-port="0" to-layer="2084" to-port="1" />
		<edge from-layer="2084" from-port="2" to-layer="2089" to-port="0" />
		<edge from-layer="2085" from-port="0" to-layer="2089" to-port="1" />
		<edge from-layer="2086" from-port="0" to-layer="2089" to-port="2" />
		<edge from-layer="2087" from-port="0" to-layer="2089" to-port="3" />
		<edge from-layer="2088" from-port="0" to-layer="2089" to-port="4" />
		<edge from-layer="2089" from-port="5" to-layer="2096" to-port="0" />
		<edge from-layer="2090" from-port="0" to-layer="2091" to-port="0" />
		<edge from-layer="2091" from-port="1" to-layer="2093" to-port="0" />
		<edge from-layer="2092" from-port="0" to-layer="2093" to-port="1" />
		<edge from-layer="2093" from-port="2" to-layer="2095" to-port="0" />
		<edge from-layer="2094" from-port="0" to-layer="2095" to-port="1" />
		<edge from-layer="2095" from-port="2" to-layer="2096" to-port="1" />
		<edge from-layer="2096" from-port="2" to-layer="2099" to-port="0" />
		<edge from-layer="2097" from-port="0" to-layer="2098" to-port="0" />
		<edge from-layer="2098" from-port="1" to-layer="2099" to-port="1" />
		<edge from-layer="2099" from-port="2" to-layer="2101" to-port="0" />
		<edge from-layer="2100" from-port="0" to-layer="2101" to-port="1" />
		<edge from-layer="2101" from-port="2" to-layer="2103" to-port="0" />
		<edge from-layer="2102" from-port="0" to-layer="2103" to-port="1" />
		<edge from-layer="2103" from-port="2" to-layer="2105" to-port="0" />
		<edge from-layer="2104" from-port="0" to-layer="2105" to-port="1" />
		<edge from-layer="2105" from-port="2" to-layer="2138" to-port="3" />
		<edge from-layer="2106" from-port="0" to-layer="2107" to-port="0" />
		<edge from-layer="2107" from-port="1" to-layer="2109" to-port="0" />
		<edge from-layer="2108" from-port="0" to-layer="2109" to-port="1" />
		<edge from-layer="2109" from-port="2" to-layer="2111" to-port="0" />
		<edge from-layer="2110" from-port="0" to-layer="2111" to-port="1" />
		<edge from-layer="2111" from-port="2" to-layer="2113" to-port="0" />
		<edge from-layer="2112" from-port="0" to-layer="2113" to-port="1" />
		<edge from-layer="2113" from-port="2" to-layer="2114" to-port="1" />
		<edge from-layer="2114" from-port="2" to-layer="2116" to-port="0" />
		<edge from-layer="2115" from-port="0" to-layer="2116" to-port="1" />
		<edge from-layer="2116" from-port="2" to-layer="2121" to-port="0" />
		<edge from-layer="2117" from-port="0" to-layer="2121" to-port="1" />
		<edge from-layer="2118" from-port="0" to-layer="2121" to-port="2" />
		<edge from-layer="2119" from-port="0" to-layer="2121" to-port="3" />
		<edge from-layer="2120" from-port="0" to-layer="2121" to-port="4" />
		<edge from-layer="2121" from-port="5" to-layer="2128" to-port="0" />
		<edge from-layer="2122" from-port="0" to-layer="2123" to-port="0" />
		<edge from-layer="2123" from-port="1" to-layer="2125" to-port="0" />
		<edge from-layer="2124" from-port="0" to-layer="2125" to-port="1" />
		<edge from-layer="2125" from-port="2" to-layer="2127" to-port="0" />
		<edge from-layer="2126" from-port="0" to-layer="2127" to-port="1" />
		<edge from-layer="2127" from-port="2" to-layer="2128" to-port="1" />
		<edge from-layer="2128" from-port="2" to-layer="2131" to-port="0" />
		<edge from-layer="2129" from-port="0" to-layer="2130" to-port="0" />
		<edge from-layer="2130" from-port="1" to-layer="2131" to-port="1" />
		<edge from-layer="2131" from-port="2" to-layer="2133" to-port="0" />
		<edge from-layer="2132" from-port="0" to-layer="2133" to-port="1" />
		<edge from-layer="2133" from-port="2" to-layer="2135" to-port="0" />
		<edge from-layer="2134" from-port="0" to-layer="2135" to-port="1" />
		<edge from-layer="2135" from-port="2" to-layer="2137" to-port="0" />
		<edge from-layer="2136" from-port="0" to-layer="2137" to-port="1" />
		<edge from-layer="2137" from-port="2" to-layer="2138" to-port="4" />
		<edge from-layer="2138" from-port="5" to-layer="2140" to-port="0" />
		<edge from-layer="2139" from-port="0" to-layer="2140" to-port="1" />
		<edge from-layer="2140" from-port="2" to-layer="2141" to-port="0" />
		<edge from-layer="2141" from-port="1" to-layer="2143" to-port="0" />
		<edge from-layer="2142" from-port="0" to-layer="2143" to-port="1" />
		<edge from-layer="2143" from-port="2" to-layer="2165" to-port="1" />
		<edge from-layer="2144" from-port="0" to-layer="2145" to-port="0" />
		<edge from-layer="2145" from-port="1" to-layer="2157" to-port="0" />
		<edge from-layer="2146" from-port="0" to-layer="2147" to-port="0" />
		<edge from-layer="2147" from-port="1" to-layer="2154" to-port="0" />
		<edge from-layer="2148" from-port="0" to-layer="2149" to-port="0" />
		<edge from-layer="2149" from-port="1" to-layer="2150" to-port="0" />
		<edge from-layer="2150" from-port="1" to-layer="2153" to-port="0" />
		<edge from-layer="2151" from-port="0" to-layer="2153" to-port="1" />
		<edge from-layer="2152" from-port="0" to-layer="2153" to-port="2" />
		<edge from-layer="2153" from-port="3" to-layer="2154" to-port="1" />
		<edge from-layer="2154" from-port="2" to-layer="2156" to-port="0" />
		<edge from-layer="2155" from-port="0" to-layer="2156" to-port="1" />
		<edge from-layer="2156" from-port="2" to-layer="2157" to-port="1" />
		<edge from-layer="2157" from-port="2" to-layer="2159" to-port="0" />
		<edge from-layer="2158" from-port="0" to-layer="2159" to-port="1" />
		<edge from-layer="2159" from-port="2" to-layer="2162" to-port="0" />
		<edge from-layer="2160" from-port="0" to-layer="2162" to-port="1" />
		<edge from-layer="2161" from-port="0" to-layer="2162" to-port="2" />
		<edge from-layer="2162" from-port="3" to-layer="2164" to-port="0" />
		<edge from-layer="2163" from-port="0" to-layer="2164" to-port="1" />
		<edge from-layer="2164" from-port="2" to-layer="2165" to-port="2" />
		<edge from-layer="2165" from-port="3" to-layer="2166" to-port="0" />
	</edges>
</net>
